refinement/models/GNN2_refinement.pt (torch, 25985 bytes, 12 tensors)

gcn1.nn.0.weight f4 [32, 6]
0.27403146 -0.24401003 -0.41959965 -0.33616322 0.071257114 0.19571094 -0.43541098 -0.115773365
-0.048980415 -0.36903244 -0.17413121 -0.22261377 0.16949475 -0.32546297 -0.109282985 -0.011877033
0.039607253 0.4627557 0.3962337 -0.12964818 0.17795773 -0.39477435 -0.2126457 0.4880741
0.4865307 0.2355666 -0.04653591 -0.21048869 0.3682066 -0.2786102 -0.08060728 -0.36742193
0.30643108 0.11551858 0.52364457 0.30488577 -0.20618197 0.006838757 0.37689337 0.32400113
-0.26877937 -0.3507256 0.50518733 0.29463416 0.17287508 -0.4210645 0.3338661 0.38315502
-0.19373722 0.2610547 -0.27211776 -0.18532674 0.45158657 -0.28934053 0.37094954 -0.5300135
0.2189861 0.13134888 0.39807007 -0.239796 -0.13586144 -0.38143694 -0.16662623 -0.06569418
-0.13682316 0.24029194 0.27644047 0.5144906 0.03243387 -0.35951006 -0.44359848 -0.4455274
0.2645077 0.38057342 0.24264584 0.19636962 -0.07702916 0.30985537 0.054285046 -0.06484803
-0.38344356 0.39524418 -0.102416776 0.20754199 0.4786824 -0.1005411 -0.10744315 0.33046424
-0.3577304 -0.07618689 -0.11946363 0.1032321 0.21741496 -0.4008944 -0.11924848 0.67108816
0.02822015 -0.33584327 -0.17877492 0.027823772 0.042062666 0.36400643 0.2060688 -0.24199662
0.3706616 -0.33718634 0.4281664 0.09157482 0.37659022 -0.383094 -0.08141568 0.30848095
-0.13316667 0.5065265 -0.3871583 0.22030689 -0.25855073 0.1815601 -0.15144914 0.07336729
-0.24967001 -0.39911145 -0.023325708 0.37767383 -0.026830869 -0.17047867 0.35831857 0.22831738
0.5909865 0.2907769 -0.34455714 -0.3335401 0.1633371 0.10493233 0.33414063 -0.17409155
0.52559674 0.2923609 0.178552 -0.10373341 0.041247092 0.17746058 -0.47162727 0.31374022
0.43882525 0.2833005 -0.027050326 -0.20288229 -0.5357963 -0.4014513 0.4399462 -0.17697589
0.030780507 -0.01954311 -0.4361398 0.49531427 0.13777272 -0.58183414 -0.49319455 -0.011181107
0.10231033 0.3353792 0.29050183 -0.35136253 0.38609496 0.46609598 -0.04586497 -0.18441491
0.07265823 -0.35614043 0.19686848 -0.30997396 0.18742247 -0.33979893 0.048655182 -0.19359615
0.12040523 0.06976565 -0.36051932 0.34643728 -0.32397208 0.23938595 0.35842147 -0.08337718
-0.122803845 -0.36251143 0.0046867593 -0.4072943 -0.040544067 0.20658542 -0.022092493 0.7123064
00000000: da4d 8c3e c4dd 79be c4d5 d6be 961d acbe
00000010: 40ef 913d 7368 483e 30ee debe 961a edbd
00000020: b09f 48bd d2f1 bcbe 744f 32be ddf4 63be
00000030: 0890 2d3e 15a3 a6be c2cf dfbd e397 42bc
00000040: 373b 223d 51ee ec3e 25df ca3e 7ec2 04be
00000050: 8d3a 363e dd1f cabe cbbf 59be d9e4 f93e
00000060: 8d1a f93e 5f38 713e 709c 3ebd 598a 57be
00000070: 9385 bc3e ffa5 8ebe 6e15 a5bd ba1e bcbe
00000080: 89e4 9c3e 0195 ec3d 920d 063f fd19 9c3e
00000090: 5e21 53be a717 e03b 2bf8 c03e 7ae3 a53e
000000a0: 739d 89be 4e92 b3be f553 013f 4ada 963e
000000b0: 2a06 313e c495 d7be 7ff0 aa3e e52c c43e
000000c0: 0d63 46be f6a8 853e 0553 8bbe 4bc6 3dbe
000000d0: 5b36 e73e 7124 94be 19ed bd3e f7ae 07bf
000000e0: e43d 603e 5280 063e d7cf cb3e 158d 75be
000000f0: 431f 0bbe b44b c3be 11a0 2abe ac8a 86bd
00000100: 5f1b 0cbe 170f 763e 9b89 8d3e a8b5 033f
00000110: 61d9 043d b411 b8be 571f e3be 2b1c e4be
00000120: 8e6d 873e 85da c23e 2778 783e 1e15 493e
00000130: 77c1 9dbd 5da5 9e3e ff59 5e3d 0bcf 84bd
00000140: b752 c4be 725d ca3e e3bf d1bd e385 543e
00000150: dc15 f53e 7ee8 cdbd 270b dcbd 9c32 a93e
00000160: 7028 b7be df07 9cbd 59a9 f4bd 5a6b d33d
00000170: 07a2 5e3e 0842 cdbe 8c38 f4bd 6fcc 2b3f
00000180: f22d e73c a6f3 abbe c610 37be aeee e33c
00000190: e749 2c3d 0d5f ba3e b303 533e f6cd 77be
000001a0: 5bc7 bd3e b0a3 acbe a038 db3e 948b bb3d
000001b0: 6fd0 c03e e624 c4be 44bd a6bd 37f1 9d3e
000001c0: d85c 08be b9ab 013f 9d39 c6be 2198 613e
000001d0: c360 84be e4ea 393e 7c15 1bbe 9741 963d
000001e0: 7fa9 7fbe 5658 ccbe 8e15 bfbc 775e c13e
000001f0: 69cc dbbc f691 2ebe 8875 b73e 08cc 693e
00000200: e44a 173f b6e0 943e cb69 b0be c5c5 aabe
00000210: d741 273e c3e6 d63d 7b14 ab3e 0e45 32be
00000220: 828d 063f 54b0 953e 56d6 363e 2f72 d4bd
00000230: b6f2 283d 3ab8 353e 2179 f1be 8fa2 a03e
00000240: b4ad e03e c30c 913e a598 ddbc 60c0 4fbe
00000250: f229 09bf 068b cdbe a140 e13e 2b39 35be
00000260: 6727 fc3c df18 a0bc b74d dfbe d599 fd3e
00000270: 4b14 0d3e 15f3 14bf ff83 fcbe f630 37bc
00000280: 1488 d13d d3b6 ab3e a8bc 943e cae5 b3be
00000290: 3dae c53e 22a4 ee3e e8dc 3bbd 43d7 3cbe
000002a0: d7cd 943d 0a58 b6be e497 493e e8b4 9ebe
000002b0: adeb 3f3e 20fa adbe a84a 473d 123e 46be
000002c0: 0497 f63d 4be1 8e3d fd95 b8be 3a60 b13e
000002d0: abdf a5be 9721 753e 0583 b73e a8c1 aabd
000002e0: 9580 fbbd 199b b9be 6393 993b e188 d0be
000002f0: 8911 26bd 218b 533e 51fb b4bc b659 363f

gcn1.nn.0.bias f4 [32]
-0.041665483 0.36912546 0.22709551 0.039978895 -0.30188555 0.21032383 -0.1679046 0.049024053
-0.121554345 -0.12296918 0.41211042 0.07823159 0.17709859 0.10227146 0.14279355 0.33126587
-0.16271012 0.25298366 0.0742295 -0.40876615 0.1608418 -0.24782398 -0.0533879 0.11050602
0.2302142 -0.09131448 -0.106478214 0.053391524 -0.14822887 0.2378455 0.4029724 0.39307418
00000000: 6da9 2abd 03fe bc3e ba8b 683e e9c0 233d
00000010: be90 9abe 215f 573e 2fef 2bbe 72cd 483d
00000020: 7cf1 f8bd 44d7 fbbd 2300 d33e e237 a03d
00000030: 5559 353e b373 d13d 7938 123e ae9b a93e
00000040: 7b9d 26be 1387 813e a305 983d cc49 d1be
00000050: b6b3 243e 92c5 7dbe 45ad 5abd fb50 e23d
00000060: 45bd 6b3e 1603 bbbd 4011 dabd 12b1 5a3d
00000070: 4fc9 17be c58d 733e 6652 ce3e 0541 c93e

gcn1.nn.2.weight f4 [32, 32]
0.06624884 -0.076522954 -0.041413076 0.051835325 -0.039548796 0.017803362 -0.116143264 0.14816247
0.08663826 -0.11261311 0.06155404 0.031018939 0.17859077 -0.06223625 -0.16093451 0.028859321
0.09066709 0.07576011 0.035778277 -0.1252076 0.0851147 -0.27109155 -0.28422537 0.08165065
0.07349727 0.033046998 0.052778833 -0.24125177 -0.046931528 0.14840487 -0.05821331 -0.16067705
0.10492337 -0.018083612 0.0076970677 0.059312645 0.08982737 0.08985221 -0.085753545 0.078236334
0.06284795 -0.13119507 -0.011290781 -0.14795114 -0.050070465 0.052625563 -0.0029011439 -0.13332653
0.08846601 0.124871835 0.039450336 0.0043138782 0.10075659 -0.11641697 -8.870276e-05 0.14046434
0.014215812 -0.15407349 0.0485221 0.18224096 -0.06119402 0.11509062 0.08847289 0.19922592
-0.060184725 -0.01404343 0.1974938 0.052568547 0.056521576 0.15817577 -0.13155532 -0.10961398
0.13877514 -0.14599037 0.20207086 -0.08519547 0.14293823 -0.09448072 0.008219951 0.18101142
-0.21512806 0.07870364 -0.041536126 -0.04785406 -0.09496047 -0.14765207 0.061585557 0.1512565
-0.029551078 -0.122113615 0.02374747 0.0020274182 0.067228064 0.057560034 -0.10762034 0.11792986
0.16374005 0.13415541 0.13471635 -0.038824346 -0.027354883 0.14308128 0.028827306 -0.16078582
-0.28729105 0.027938128 -0.13056953 0.07143156 0.09860292 -0.006899461 -0.16102919 0.111235715
-0.07078531 -0.08955669 -0.08321979 0.13626981 -0.020692648 0.07570621 0.115683876 -0.06280577
0.013229747 0.060593884 -0.07808102 0.022097515 0.08012783 -0.13572446 0.05206902 0.13589536
-0.087621965 0.16263653 -0.05828407 0.041488286 0.16082549 -0.18378992 0.061127704 0.20932494
0.12107913 -0.092634045 -0.13378216 -0.049613107 -0.003783971 -0.18688105 -0.08413309 0.19191273
-0.1493765 0.16695067 -0.08130387 -0.24189943 -0.13860552 0.024477297 -0.009348192 -0.024424305
0.16887775 -0.2808063 -0.06508014 -0.12459315 -0.037484434 -0.1200038 0.045430698 -0.060207568
0.050917894 0.16441102 0.14973386 0.21233067 0.10236006 0.08040452 0.059627797 -0.09438933
-0.035780102 -0.09995282 -0.10350213 -0.26790643 0.089188606 -0.16644855 -0.020844681 -0.12860674
0.033970155 0.16295424 0.1434532 0.04900695 0.17860019 0.08596113 0.12151854 -0.15581605
0.08041299 -0.21248968 0.011137961 0.004988883 -0.109170765 -0.07691185 -0.015463836 0.16034591
0.101671085 0.087087415 -0.13983218 -0.16148761 -0.120043896 0.07982672 0.028139407 -0.07831872
0.13409616 0.1994934 0.04221022 -0.17652728 -0.086174145 -0.13695195 -0.10572864 -0.14191183
-0.11562375 0.22920863 0.06369329 -0.13954832 -0.03781873 -0.05850297 0.14549531 -0.013128691
-0.025455678 0.049978726 -0.07193492 0.112262554 0.09808559 0.028810915 0.15995196 -0.084764294
-0.027887398 -0.13639487 -0.12432682 0.16533886 0.17316504 0.05992873 0.06072324 0.2099101
-0.14939639 0.104375266 -0.11277349 0.19721533 -0.0625164 0.07989797 0.18448967 0.11255186
0.08659292 0.13967209 -0.003169641 -0.30439332 -0.08148898 0.11148574 -0.09174646 -0.13896383
0.12248854 -0.03233658 0.15256743 -0.20691018 -0.07736587 -0.004924677 0.16538821 0.009928812
00000000: 79ad 873d 11b8 9cbd c2a0 29bd 4751 543d
00000010: ebfd 21bd 5bd8 913c 85dc edbd e7b7 173e
00000020: 666f b13d b4a1 e6bd 1720 7c3d 6e1b fe3c
00000030: 80e0 363e 70eb 7ebd 04cc 24be 626a ec3c
00000040: abaf b93d 1e28 9b3d 3e8c 123d 6c36 00be
00000050: 9e50 ae3d 83cc 8abe fd85 91be 7538 a73d
00000060: bd85 963d 4a5c 073d 9e2e 583d b40a 77be
00000070: 463b 40bd 72f7 173e 1471 6ebd 8688 24be
00000080: 10e2 d63d 1524 94bc af37 fc3b d1f1 723d
00000090: 6af7 b73d 6f04 b83d 8e9f afbd 5f3a a03d
000000a0: 6db6 803d 0058 06be f8fc 38bc 8180 17be
000000b0: b016 4dbd e78d 573d 1e21 3ebb c086 08be
000000c0: ab2d b53d cebc ff3d ad96 213d 6f5b 8d3b
000000d0: 7959 ce3d 056c eebd ef05 bab8 e2d5 0f3e
000000e0: 70e9 683c 71c5 1dbe 1cbf 463d 609d 3a3e
000000f0: 95a6 7abd a2b4 eb3d 4631 b53d e101 4c3e
00000100: 4284 76bd 6a16 66bc d13b 4a3e 1e52 573d
00000110: 2b83 673d d4f8 213e 70b6 06be 4b7d e0bd
00000120: 121b 0e3e 807e 15be aaeb 4e3e f67a aebd
00000130: 665e 123e 1c7f c1bd f9ac 063c 0f5b 393e
00000140: 884a 5cbe 602f a13d c921 2abd 9e02 44bd
00000150: a37a c2bd 1b32 17be 2341 7c3d fce2 1a3e
00000160: 1a15 f2bc b416 fabd 0e8a c23c 6fde 043b
00000170: deae 893d 12c4 6b3d 0e68 dcbd 3685 f13d
00000180: 79ab 273e 0960 093e 15f3 093e 4706 1fbd
00000190: 5917 e0bc e683 123e 3e27 ec3c 0aa5 24be
000001a0: d017 93be 80de e43c 05b4 05be b64a 923d
000001b0: 54f0 c93d e014 e2bb d6e4 24be 8dcf e33d
000001c0: e3f7 90bd 7f69 b7bd 236f aabd 508a 0b3e
000001d0: a183 a9bc dc0b 9b3d abeb ec3d 50a0 80bd
000001e0: 95c1 583c 4b31 783d f1e8 9fbd d905 b53c
000001f0: 0f1a a43d 5afb 0abe 5346 553d 2728 0b3e
00000200: 2573 b3bd 318a 263e 47bb 6ebd 9fef 293d
00000210: 70af 243e 6d33 3cbe 0b61 7a3d 4759 563e
00000220: 56f8 f73d ebb6 bdbd 31fe 08be 1d37 4bbd
00000230: 80fc 77bb bf5d 3fbe f84d acbd c584 443e
00000240: 27f6 18be 1ef5 2a3e a582 a6bd 7cb4 77be
00000250: 9bee 0dbe 9d84 c83c 2929 19bc 7b15 c8bc
00000260: 4aee 2c3e d8c5 8fbe bd48 85bd b22a ffbd
00000270: 4789 19bd 8dc4 f5bd 8a15 3a3d 369c 76bd
00000280: 488f 503d 5d5b 283e d553 193e 366d 593e
00000290: 27a2 d13d 20ab a43d 473c 743d 314f c1bd
000002a0: 288e 12bd 10b4 ccbd edf8 d3bd 082b 89be
000002b0: 84a8 b63d 7d71 2abe 77c2 aabc 7cb1 03be
000002c0: 4a24 0b3d 7add 263e 65e5 123e 83bb 483d
000002d0: f8e2 363e 640c b03d b6de f83d 3e8e 1fbe
000002e0: 91af a43d e596 59be ff7b 363c c979 a33b
000002f0: ec94 dfbd f683 9dbd 075c 7dbc b831 243e
00000300: ee38 d03d e35a b23d 2b30 0fbe 025d 25be
00000310: 93d9 f5bd 317c a33d 9d84 e63c 9165 a0bd
00000320: 8150 093e ff47 4c3e a0e4 2c3d 91c3 34be
00000330: 127c b0bd 223d 0cbe 4288 d8bd 5651 11be
00000340: 25cc ecbd abb5 6a3e a171 823d c1e5 0ebe
00000350: d0e7 1abd cfa0 6fbd b9fc 143e b919 57bc
00000360: 6d88 d0bc 7eb6 4c3d 9e52 93bd e9e9 e53d
00000370: 19e1 c83d de04 ec3c 72ca 233e e798 adbd
00000380: 1d74 e4bc 19ab 0bbe 0f9f febd 974e 293e
00000390: 2d52 313e d477 753d efb8 783d acf2 563e
000003a0: 5efb 18be b3c2 d53d caf5 e6bd d1f2 493e
000003b0: 9908 80bd 8ca1 a33d dcea 3c3e 9781 e63d
000003c0: a157 b13d 3306 0f3e c0b9 4fbb 71d9 9bbe
000003d0: b2e3 a6bd a352 e43d 91e5 bbbd 894c 0ebe
000003e0: 46db fa3d 5d73 04bd a33a 1c3e 43e0 53be
000003f0: ff71 9ebd 2f5f a1bb 875b 293e 75ac 223c

gcn1.nn.2.bias f4 [32]
0.029899167 0.07838292 0.18168981 -0.04316041 -0.050895974 -0.08129548 -0.07254476 -0.01384739
-0.11069697 -0.09117708 -0.10531861 0.08003817 0.16256998 0.07191589 0.059255105 -0.110822156
0.021539921 -0.02711563 -0.13613805 0.16856845 -0.024505096 -0.012173418 -0.038382847 0.08829497
0.17589012 0.09374065 0.019447744 -0.10351089 -0.065783046 -0.08635214 0.14811145 0.0006585205
00000000: 19ef f43c 3987 a03d e50c 3a3e f8c8 30bd
00000010: 4c78 50bd 3f7e a6bd 5992 94bd 2ae0 62bc
00000020: 18b5 e2bd 0dbb babd 49b1 d7bd 0deb a33d
00000030: bf78 263e a348 933d 7bb5 723d baf6 e2bd
00000040: 7d74 b03c 9921 debc c667 0bbe 359d 2c3e
00000050: e9be c8bc 0473 47bc 5537 1dbd fed3 b43d
00000060: 8a1c 343e 19fb bf3d e050 9f3c 84fd d3bd
00000070: 43b9 86bd 64d9 b0bd 87aa 173e 90a0 2c3a

gcn1.nn.4.weight f4 [32, 32]
-0.17610306 -0.13046044 -0.060685247 -0.0026366373 -0.018441757 0.168036 -0.16183822 -0.07379459
-0.22796924 0.058187716 0.22324316 -0.10694824 -0.11001655 0.13199343 0.15350702 0.065765664
0.038512137 -0.1025091 -0.32579127 0.060025778 -0.04620232 -0.23637046 0.043235302 0.11763626
0.10104055 0.17098346 -0.061788693 0.00077869126 0.15370664 0.12281965 -0.09416138 0.044562083
-0.18301356 -0.013510265 0.17937393 -0.2983897 -0.033604242 -0.027105018 -0.085648 -0.16613527
-0.14684899 0.058655262 0.20785615 -0.010372902 0.027825657 0.1674392 0.16975859 -0.11408561
-0.25916317 -0.1499292 -0.16369274 0.07664944 0.0110215545 -0.036226247 0.015714224 -0.13886878
-0.07436262 0.12947308 0.010314387 -0.16009048 0.14393878 0.12346807 0.020548098 0.052805103
-0.15523082 0.15160118 -0.031920698 -0.054821942 0.20973516 -0.060195174 -0.13873132 0.12698177
-0.27460182 0.13796565 0.28092572 -0.21092741 0.05626802 0.14472102 0.16009358 -0.01175989
-0.1261889 0.18246163 -0.2670516 0.2500545 -0.17388523 0.17079222 0.0029932696 0.11788672
-0.14052527 0.09879662 0.063435405 -0.025648315 0.095963694 0.26093817 0.07964012 0.15129262
-0.010000754 -0.075858176 0.12247622 0.0073091565 0.16872708 -0.0026030212 -0.29280993 0.048194114
-0.14039928 0.13343212 -0.2533113 0.19897912 -0.25266373 -0.17823513 0.08318415 0.049790658
0.23936714 -0.20480646 -0.14919211 -0.20895259 -0.082853846 -0.06625615 -0.012834876 0.08326902
-0.11440263 0.12503232 -0.14325099 -0.10981002 0.10339462 0.04938208 -0.09970907 -0.11108455
-0.20991702 -0.14486149 0.1316731 -0.02401021 0.077561475 0.08244644 -0.25370133 -0.15479209
0.072092906 -0.17458081 -0.021658802 -0.016802257 0.0017095675 0.047576826 -0.17329745 0.13507612
0.100018054 -0.25458387 -0.003897956 -0.26715687 0.09561309 -0.12061334 0.20595858 -0.097942814
0.09218687 0.15205672 -0.11633934 0.14617011 -0.1548953 0.08893152 0.07157178 0.21881402
0.16577262 0.01905508 -0.1790689 0.13830593 0.026907774 0.097045265 -0.23382351 0.07652597
0.06872894 -0.109887995 -0.093758285 -0.06499209 -0.16463311 -0.13618931 -0.092444874 0.18169674
-0.008253531 0.08249543 0.0018483865 -0.116298325 -0.13914461 0.15035813 0.16946436 0.13204505
0.058186453 0.12331668 -0.0599047 0.115134574 -0.07333515 -0.24397856 -0.0804519 0.00049052393
0.037255254 -0.069957785 -0.18952645 0.24853647 -0.0043303394 -0.06293414 -0.2905708 0.065522835
0.20146559 0.056003876 0.014538886 0.2371333 0.1000006 -0.10635865 -0.058125835 0.22275692
0.09659465 -0.17316352 0.24489039 -0.25291905 -0.036798276 -0.0075106956 0.18182418 0.14397971
-0.12172206 0.15726823 -0.28539923 -0.12860304 0.0018601067 -0.10988879 0.06783591 -0.1348993
-0.03784037 0.038632285 0.047595654 -0.2744863 0.06754862 0.17030323 0.06316161 0.04471768
0.032300446 -0.05324019 0.23785663 -0.18097222 -0.06305709 0.18410158 0.1421501 -0.18639688
0.074848846 0.005085494 -0.22677271 0.22534172 -0.015083487 0.15333389 0.007848373 -0.059206165
0.1551232 0.033205446 0.031535298 0.17759919 -0.14001782 0.041279826 0.13583088 0.34341115
00000000: 5c54 34be 6c97 05be 1891 78bd 6fcb 2cbb
00000010: 2b13 97bc a111 2c3e ebb8 25be 9e21 97bd
00000020: c570 69be 3e56 6e3d db99 643e ae07 dbbd
00000030: 5b50 e1bd 4929 073e f230 1d3e 26b0 863d
00000040: e7be 1d3d 4bf0 d1bd 1dce a6be 97dd 753d
00000050: a53e 3dbd 190b 72be 8017 313d 48eb f03d
00000060: 59ee ce3d 4a16 2f3e 2416 7dbd 1621 4c3a
00000070: 4665 1d3e de88 fb3d aed7 c0bd bb86 363d
00000080: e867 3bbe 295a 5dbc cdad 373e 89c6 98be
00000090: 9aa4 09bd 580b debc 3868 afbd 5d1f 2abe
000000a0: 955f 16be 8040 703d 3ed8 543e 1bf3 29bc
000000b0: a2f2 e33c 2f75 2b3e 32d5 2d3e b7a5 e9bd
000000c0: 09b1 84be 0a87 19be 129f 27be 62fa 9c3d
000000d0: c093 343c f961 14bd 1ebb 803c 9e33 0ebe
000000e0: 6e4b 98bd 9794 043e adfd 283c c2ee 23be
000000f0: b064 133e d4dc fc3d 7c54 a83c 2a4a 583d
00000100: d4f4 1ebe 573d 1b3e 47bf 02bd f98c 60bd
00000110: d0c4 563e 378f 76bd 950f 0ebe 8207 023e
00000120: 9c98 8cbe de46 0d3e 7fd5 8f3e 5bfd 57be
00000130: 4c79 663d bf31 143e 92ef 233e 8eac 40bc
00000140: aa37 01be 39d7 3a3e fdba 88be 2507 803e
00000150: f80e 32be 28e4 2e3e bb2a 443b 986e f13d
00000160: dbe5 0fbe e255 ca3d 6cea 813d 6a1c d2bc
00000170: 9d88 c43d b099 853e 5c1a a33d 74ec 1a3e
00000180: 34da 23bc 885b 9bbd d0d4 fa3d a681 ef3b
00000190: cbc6 2c3e 7397 2abb 2feb 95be 3167 453d
000001a0: d4c4 0fbe 6ea2 083e 05b2 81be 2fc1 4b3e
000001b0: 245d 81be 4583 36be 745c aa3d 4af1 4b3d
000001c0: a91c 753e c9b8 51be d1c5 18be abf7 55be
000001d0: 47af a9bd 4eb1 87bd 5f49 52bc f388 aa3d
000001e0: ed4b eabd 7908 003e 63b0 12be 13e4 e0bd
000001f0: 8fc0 d33d dd44 4a3d 4534 ccbd 4c80 e3bd
00000200: 7df4 56be 9256 14be 50d5 063e 0fb1 c4bc
00000210: 8dd8 9e3d aed9 a83d 24e5 81be d181 1ebe
00000220: 72a5 933d 50c5 32be cd6d b1bc e3a4 89bc
00000230: 9113 e03a ebdf 423d e374 31be 6551 0a3e
00000240: 44d6 cc3d d158 82be da74 7fbb c9c8 88be
00000250: ccd0 c33d 2004 f7bd cee6 523e 3e96 c8bd
00000260: 78cc bc3d c2b4 1b3e 5243 eebd 9ead 153e
00000270: e09c 1ebe bb21 b63d 3a94 923d c810 603e
00000280: 4cc0 293e 6619 9c3c d65d 37be 12a0 0d3e
00000290: b16d dc3c abbf c63d 6e6f 6fbe a6b9 9c3d
000002a0: c2c1 8c3d f50c e1bd 5804 c0bd 931a 85bd
000002b0: 9595 28be 3675 0bbe bd53 bdbd b60e 3a3e
000002c0: d139 07bc 5df3 a83d 8f45 f23a d12d eebd
000002d0: ed7b 0ebe 7bf7 193e 1188 2d3e d136 073e
000002e0: eb54 6e3d 758d fc3d a15e 75bd adcb eb3d
000002f0: bd30 96bd 84d5 79be f7c3 a4bd 8196 003a
00000300: f798 183d 0746 8fbd 3913 42be 5880 7e3e
00000310: 85e5 8dbb 9de3 80bd b2c5 94be d630 863d
00000320: ff4c 4e3e 5264 653d 8234 6e3c 12d3 723e
00000330: 1dcd cc3d 90d2 d9bd 5b15 6ebd 641a 643e
00000340: 6ad3 c53d c751 31be 8cc4 7a3e 9b7e 81be
00000350: cab9 16bd 481c f6bb 1e30 3a3e 6b6f 133e
00000360: 6a49 f9bd ec0a 213e d91f 92be 84b0 03be
00000370: d3ce f33a 600d e1bd 8eed 8a3d 0b23 0abe
00000380: 81fe 1abd e33c 1e3d a9f3 423d 7889 8cbe
00000390: ee56 8a3d f863 2e3e e05a 813d e329 373d
000003a0: 794d 043d 6312 5abd b090 733e c850 39be
000003b0: 1324 81bd 2085 3c3e cc8f 113e d3de 3ebe
000003c0: 5a4a 993d 37a4 a63b 1b37 68be fbbf 663e
000003d0: bb20 77bc 8f03 1d3e 7696 003c 2a82 72bd
000003e0: 9ed8 1e3e 6f02 083d 282b 013d 90dc 353e
000003f0: d560 0fbe 0915 293d 4017 0b3e 96d3 af3e

gcn1.nn.4.bias f4 [32]
-0.010932333 0.15098579 0.048194397 -0.050751172 -0.14375709 0.012055561 0.055319022 -0.10860712
0.049239263 -0.051063664 -0.09231878 -0.13062556 -0.07393861 -0.03799599 0.010944174 -0.08423423
-0.110754736 0.012215101 0.053405825 0.17777543 -0.17634095 -0.11003349 -0.036996733 0.06311857
0.14445822 -0.12090868 -0.08735327 0.06501372 0.04098292 -0.20296286 -0.008045151 0.16942644
00000000: 871d 33bc 059c 1a3e 7d67 453d 76e0 4fbd
00000010: 0f35 13be b084 453c 3396 623d 696d debd
00000020: 1caf 493d 2228 51bd a111 bdbd b5c2 05be
00000030: 206d 97bd afa1 1bbd 314f 333c ff82 acbd
00000040: 61d3 e2bd d921 483c 11c0 5a3d c30a 363e
00000050: b992 34be 3d59 e1bd e389 17bd 4f44 813d
00000060: dbec 133e f89e f7bd 45e6 b2bd ea25 853d
00000070: b5dd 273d 7fd5 4fbe cfcf 03bc 207e 2d3e

gcn2.nn.0.weight f4 [32, 64]
-0.085404806 0.09010709 0.123622574 -0.12764803 -0.07565385 0.045854654 -0.0024911654 -0.024372004
-0.02164306 -0.054405157 0.035440695 -0.026876189 -0.08683499 -0.0033430108 0.021053853 -0.026822569
-0.16581681 0.0045018047 -0.045019045 0.063827924 0.001453764 0.04230374 -0.08280612 0.10285306
-0.055838764 -0.046805732 -0.15594399 -0.04926221 0.102285855 -0.00085744273 -0.09473763 0.036910225
0.1280241 -0.04247145 0.028829481 0.117528975 -0.0962601 -0.030239576 -0.0071064522 0.020202735
0.09474516 -0.016222194 0.009214556 -0.06501315 -0.07140652 0.080531105 0.14728996 0.057742942
-0.054841507 -0.14732108 -0.014874277 0.014269186 0.00094471505 0.046986185 -0.16159625 0.076231636
-0.07465094 0.0027625873 -0.021044811 -0.16225255 0.1591225 0.03201909 0.014019959 0.12906843
0.050006337 0.10621228 -0.0891478 -0.10320019 0.037827693 0.14271028 0.124562554 -0.041267384
-0.112700075 0.07699442 -0.10290441 0.11702305 0.008307127 -0.045849834 0.02930046 -0.09987119
0.022930305 0.047646675 -0.117543004 -0.07795642 0.017068334 -0.038849484 -0.10250857 -0.052068703
0.016807146 -0.09333461 0.10050451 -0.009658646 0.036480248 0.029451847 -0.044498026 0.015104208
0.17655063 0.16802701 0.016591763 0.20650727 0.10628848 -0.15346707 0.0025277918 -0.13645668
0.09657292 0.16239421 -0.024770929 -0.16220042 -0.09638351 -0.0009422272 -0.010714076 0.0013090638
0.014651345 -0.17934686 -0.05577653 0.1709095 -0.07482097 0.072945625 -0.09683801 0.062786214
-0.1309682 -0.07897447 0.044063818 0.07395829 0.161414 -0.12146107 -0.13838203 -0.055315465
-0.05150312 -0.12270115 0.066214435 0.069533065 -0.15284194 0.222895 0.030052936 -0.124484465
-0.02651364 -0.120097354 -0.08401597 -0.102212794 0.091721945 0.076088555 0.055475615 0.005472085
-0.04344682 0.09340881 -0.16031104 -0.06368147 -0.06223702 -0.008039123 -0.13508293 0.019121792
0.07658626 0.16448757 -0.115767926 -0.1905609 0.111404315 0.076514445 -0.1348075 0.19389194
-0.111896925 -0.019494541 0.13123606 0.11125559 -0.17509131 0.10260018 0.073196314 -0.11106639
0.02496951 -0.10843792 0.115035325 -0.15476878 0.14627431 0.063023664 -0.04262364 -0.15682113
-0.13721201 0.0999716 -0.18138498 -0.0038628515 0.03367028 0.15843481 0.003324487 -0.00784204
-0.21504891 0.07029639 -0.010437256 -0.0042084255 -0.055284698 0.1438637 0.027196629 0.09656624
0.02289213 0.11887743 -0.09571275 0.00012744537 0.10152338 -0.106972694 0.032551378 -0.07389492
0.025472365 -0.023191046 0.09969164 -0.023261836 -0.016355962 -0.0032096333 0.0038086062 -0.034083754
0.002022435 0.13187823 -0.11152283 0.059644096 0.11776812 -0.03897029 -0.050729316 0.13012177
0.05914534 0.08870308 -0.12547505 -0.018646302 0.11492806 0.09288145 -0.0069681 -0.0560505
0.017963167 0.0019492374 -0.066420436 -0.09830578 -0.041257 0.006118787 -0.102271326 0.047938354
0.059862413 0.07106608 0.037814017 -0.07325344 -0.04624753 0.079494156 -0.07989413 -0.07245856
0.088230155 0.008895849 -0.027754202 0.063211314 0.11456781 -0.1352449 -0.008352895 0.02998866
0.010989373 0.06391323 0.012219794 0.04676021 0.109135255 -0.12210734 -0.024951307 -0.043431137
00000000: b7e8 aebd 118a b83d d52d fd3d 2ab6 02be
00000010: 68f0 9abd 17d2 3b3d d242 23bb cca7 c7bc
00000020: c94c b1bc f1d7 5ebd 432a 113d 742b dcbc
00000030: 8bd6 b1bd 6a16 5bbb 2179 ac3c 01bb dbbc
00000040: e2cb 29be e083 933b e465 38bd 37b8 823d
00000050: 3a8c be3a b046 2d3d 4196 a9bd a0a4 d23d
00000060: 30b7 64bd 5eb7 3fbd c8af 1fbe 2cc7 49bd
00000070: 3f7b d13d 02c6 60ba cd05 c2bd 2d2f 173d
00000080: c018 033e 8bf6 2dbd ce2b ec3c 08b3 f03d
00000090: 0424 c5bd fdb8 f7bc 3edd e8bb 3580 a53c
000000a0: c009 c23d 68e4 84bc a6f8 163c 9d25 85bd
000000b0: 953d 92bd 7eed a43d 2ed3 163e dd83 6c3d
000000c0: 7da1 60bd 56db 16be 3db3 73bc 4ec9 693c
000000d0: c1a6 773a 9674 403d 7d79 25be 551f 9c3d
000000e0: 98e2 98bd 860c 353b 2b66 acbc 8825 26be
000000f0: 02f1 223e 7326 033d f8b3 653c 842a 043e
00000100: 72d3 4c3d d385 d93d 1f93 b6bd 9f5a d3bd
00000110: 36f1 1a3d a522 123e a71a ff3d fd07 29bd
00000120: 4ccf e6bd 40af 9d3d 8cbf d2bd c8a9 ef3d
00000130: 9e1a 083c 09cd 3bbd 8507 f03c 4489 ccbd
00000140: 56d8 bb3c 2929 433d 63ba f0bd 9ea7 9fbd
00000150: e4d2 8b3c a320 1fbd 03f0 d1bd fe45 55bd
00000160: 24af 893c 3726 bfbd 4fd5 cd3d 4c3f 1ebc
00000170: 506c 153d 0045 f13c 9043 36bd a477 773c
00000180: b0c9 343e 460f 2c3e 73eb 873c a476 533e
00000190: c6ad d93d 7926 1dbe 4fa9 253b 4dbb 0bbe
000001a0: 06c8 c53d ab4a 263e 67ec cabc de17 26be
000001b0: b864 c5bd ccff 76ba 188a 2fbc e494 ab3a
000001c0: 320c 703c b4a6 37be ee75 64bd e602 2f3e
000001d0: bd3b 99bd 8464 953d 0253 c6bd 0f96 803d
000001e0: 871c 06be 5ebd a1bd 437c 343d 7277 973d
000001f0: b649 253e 95c0 f8bd 05b4 0dbe 7892 62bd
00000200: f0f4 52bd be4a fbbd 6f9b 873d 5a67 8e3d
00000210: 9982 1cbe 963e 643e 9331 f63c b6f1 febd
00000220: 2233 d9bc 9af5 f5bd 9110 acbd f154 d1bd
00000230: b7d8 bb3d 51d4 9b3d 663a 633d 2d4f b33b
00000240: 4bf5 31bd 1e4d bf3d 9428 24be 6e6b 82bd
00000250: 3fec 7ebd 87b6 03bc 2e53 0abe 4ea5 9c3c
00000260: 42d9 9c3d 6e6f 283e bc17 edbd 6622 43be
00000270: f227 e43d 9bb3 9c3d fa0a 0abe 9c8b 463e
00000280: 372a e5bd 04b3 9fbc bf62 063e f9d9 e33d
00000290: 234b 33be 0b20 d23d f3e7 953d c776 e3bd
000002a0: dc8c cc3c b314 debd a497 eb3d b57b 1ebe
000002b0: efc8 153e 8d12 813d 2096 2ebd b895 20be
000002c0: 4e81 0cbe e9bd cc3d fcbc 39be e527 7dbb
000002d0: d9e9 093d bc3c 223e a3df 593b e67b 00bc
000002e0: c835 5cbe 8ef7 8f3d 0601 2bbc d5e6 89bb
000002f0: 3572 62bd 0151 133e 77cb de3c 85c4 c53d
00000300: 4788 bb3c 0376 f33d 0c05 c4bd dba2 0539
00000310: 7deb cf3d 8014 dbbd 9854 053d 3856 97bd
00000320: 6cab d03c 26fb bdbc 212b cc3d 9b8f bebc
00000330: f0fc 85bc b658 52bb cf99 793b 689b 0bbd
00000340: d48a 043b 160b 073e 1566 e4bd 5e4d 743d
00000350: 6930 f13d 509f 1fbd 8bc9 4fbd a43e 053e
00000360: 6242 723d f6a9 b53d 887c 00be 21c0 98bc
00000370: 675f eb3d a138 be3d a954 e4bb 3695 65bd
00000380: 7e27 933c 8e7d ff3a 7007 88bd 8a54 c9bd
00000390: 1afd 28bd 1b80 c83b a173 d1bd 025b 443d
000003a0: 4a32 753d 188b 913d dfe2 1a3d e605 96bd
000003b0: 0d6e 3dbd d5cd a23d 899f a3bd 2765 94bd
000003c0: 03b2 b43d e5bf 113c c85c e3bc ef74 813d
000003d0: 87a2 ea3d a47d 0abe 95da 08bc c7aa f53c
000003e0: c50c 343c f1e4 823d 8835 483c a287 3f3d
000003f0: 4e82 df3d 6a13 fabd af66 ccbc d9e4 31bd

gcn2.nn.0.bias f4 [32]
-0.002629656 0.10486046 0.061894454 -0.0630662 -0.079578735 0.06721385 -0.06762681 -0.04680182
0.11483125 -0.037044972 0.118699744 -0.055265468 -0.0011009391 0.1247905 -0.013497829 -0.07362941
-0.08069354 -0.102731705 -0.10034011 0.062020365 -0.10883989 0.017671257 -0.014605556 -0.05054326
-0.0012363103 -0.14696327 0.03533509 0.06444879 -0.10962407 -0.010445337 -0.10159219 -0.19173154
00000000: 4f56 2cbb 15c1 d63d 0a85 7d3d da28 81bd
00000010: 2dfa a2bd 6aa7 893d ed7f 8abd 44b3 3fbd
00000020: a52c eb3d 78bc 17bd da18 f33d 0b5e 62bd
00000030: 634d 90ba 2992 ff3d 0026 5dbc 04cb 96bd
00000040: a842 a5bd 0065 d2bd 1e7f cdbd 1109 7e3d
00000050: 73e7 debd 50c3 903c 244c 6fbc 7306 4fbd
00000060: b10b a2ba 8a7d 16be 87bb 103d bafd 833d
00000070: 9682 e0bd eb22 2bbc 910f d0bd 4655 44be

gcn2.nn.2.weight f4 [32, 32]
-0.16656569 0.022825206 -0.16406028 0.1169655 0.07431417 0.04982478 -0.105846025 -0.15061948
0.10418581 -0.1812509 0.13878033 -0.12279791 0.20142753 0.113020785 -0.15610665 0.22696818
-0.20604533 0.21766995 -0.03238392 0.022598593 0.093897745 0.10024458 0.00091853767 -0.12673132
-0.017918848 0.012944133 0.15104441 -0.10481784 0.046681855 -0.065624885 0.1011046 0.02032059
-0.119430676 0.16784978 0.06176882 0.029986724 -0.032354534 0.11892684 0.09319456 -0.038743425
-0.16032597 0.054756384 -0.1233005 -0.08742904 -0.15979971 0.014778244 -0.015911741 -0.12813023
-0.14430088 -0.15965793 0.028310543 -0.05091997 0.011674023 -0.16546667 -0.09021984 -0.077686064
-0.10434453 0.0831527 0.06452969 -0.121233135 -0.09994248 -0.05992955 -0.1617525 0.02209911
0.16090752 -0.08718142 0.20397341 -0.005947918 -0.13566822 0.080484174 -0.09145839 0.15111242
-0.08411721 0.18862587 -0.010869396 -0.0060047223 0.10723291 -0.013337278 -0.007994735 -0.20391068
-0.065026745 -0.0982759 0.0781061 0.1357057 -0.075535566 0.050676264 -0.16065049 0.09351597
0.12373756 -0.23515713 0.14780225 -0.01511148 -0.16216162 -0.057862036 1.0285959e-05 -0.07215724
0.0005306057 0.026850114 0.0037150788 -0.0004922749 0.15160702 0.09818837 0.18064032 -0.11975787
-0.011628167 -0.116385475 0.11647133 -0.097497575 0.09327828 -0.0016220394 0.06496102 0.13917787
-0.060389306 0.13610697 -0.06857401 -0.12016176 0.01563791 -0.092523314 0.16301763 -0.09808578
-0.0035766428 0.14503267 8.339362e-05 -0.06658236 0.13106868 -0.09871152 -0.042872727 0.1114666
0.15344146 -0.036157675 0.22154382 -0.16313775 0.11903302 -0.10393105 0.23404346 0.1404984
0.18930627 0.1545991 -0.0004621508 0.033424526 0.006656325 0.013394248 0.14550628 0.13870302
0.13537289 -0.21550854 -0.077483855 0.10711329 0.10882915 -0.038388714 0.2442067 0.16742782
-0.019817268 0.1268983 -0.13996962 0.06211626 -0.028701149 -0.16189757 -0.16802903 0.14356759
-0.16346167 -0.14234175 -0.16210546 0.12962246 -0.15758036 -0.090146 -0.017698271 -0.13172415
-0.12523137 -0.010661641 -0.08434686 0.014954798 0.005494753 -0.022036068 -0.14058419 0.14676964
0.113018654 0.06829355 0.03858727 -0.08183896 -0.13924208 0.10791729 -0.060604446 0.08627033
-0.14634474 -0.030265326 -0.116243444 -0.0077549564 -0.15164793 -0.09609386 0.015257667 0.07953087
-0.1989317 -0.0617918 -0.177744 -0.08099543 0.16191235 0.10768491 0.015925398 -0.1288889
-0.08361367 -0.091657884 -0.021670349 -0.06495821 -0.1048957 0.05284324 -0.042927854 -0.041487098
-0.14464371 0.16735268 0.14930743 0.13543871 0.07049369 -0.15526743 0.061649915 0.054597743
-0.0459329 0.12533283 -0.13134433 -0.0377526 -0.12235789 -0.034219608 0.13567503 -0.044308767
-0.02550279 -0.12600483 0.061366778 -0.078945465 0.030580299 -0.13290645 -0.045804676 0.07873542
-0.015190217 0.047239434 0.048445143 0.028695026 -0.1598295 0.054392327 -0.06465954 -0.07422822
0.035599418 0.03020907 -0.13809171 -0.0956361 -0.014741658 0.09330285 0.08478855 0.12168414
-0.1911144 -0.027053682 0.0021027236 0.01506966 0.109367296 0.06798357 -0.03970471 0.089630194
00000000: 3290 2abe edfb ba3c 6bff 27be 9c8b ef3d
00000010: 0732 983d 1215 4c3d cdc5 d8bd fe3b 1abe
00000020: 5f5f d53d d699 39be 6e1c 0e3e 787d fbbd
00000030: 0543 4e3e 7177 e73d 6cda 1fbe 596a 683e
00000040: 8cfd 52be dfe4 5e3e 00a5 04bd af20 b93c
00000050: 764d c03d 084d cd3d 05ca 703a dbc5 01be
00000060: 8cca 92bc a113 543c 63ab 1a3e bcaa d6bd
00000070: 7935 3f3d 5766 86bd ee0f cf3d 5e77 a63c
00000080: 1298 f4bd d0e0 2b3e 4d01 7d3d b8a6 f53c
00000090: 3086 04bd ea8f f33d cadc be3d 6db1 1ebd
000000a0: 7e2c 24be 3b48 603d f984 fcbd ff0d b3bd
000000b0: 89a2 23be 7320 723c 5759 82bc 9234 03be
000000c0: 9cc3 13be 5e7d 23be 83eb e73c 7591 50bd
000000d0: 6744 3f3c 1870 29be 2ec5 b8bd df19 9fbd
000000e0: 96b2 d5bd f64b aa3d 2428 843d 1449 f8bd
000000f0: a5ae ccbd b078 75bd 73a2 25be 3109 b53c
00000100: f1c4 243e 2c8c b2bd 68de 503e c1e6 c2bb
00000110: 9cec 0abe e3d4 a43d 894e bbbd 37bd 1a3e
00000120: a545 acbd 2427 413e 8d15 32bc 43c3 c4bb
00000130: ee9c db3d 9984 5abc 59fc 02bc f6cd 50be
00000140: be2c 85bd e044 c9bd 17f6 9f3d 6ff6 0a3e
00000150: 64b2 9abd ea91 4f3d 9081 24be 4d85 bf3d
00000160: 1e6a fd3d 08cd 70be 7959 173e 2496 77bc
00000170: b20d 26be be00 6dbd dc91 2c37 2dc7 93bd
00000180: 5918 0b3a c5f4 db3c ae78 733b 020c 01ba
00000190: df3e 1b3e fc16 c93d c7f9 383e 9d43 f5bd
000001a0: 1184 3ebc 825b eebd 8588 ee3d cfac c7bd
000001b0: af08 bf3d 9c9a d4ba 490a 853d a584 0e3e
000001c0: c75a 77bd a05f 0b3e 8870 8cbd 5e17 f6bd
000001d0: 131b 803c dd7c bdbd 18ee 263e 33e1 c8bd
000001e0: 1c66 6abb 7283 143e 9ce3 ae38 555c 88bd
000001f0: de36 063e 4429 cabd 509b 2fbd 9a48 e43d
00000200: c21f 1d3e 121a 14bd 62dc 623e 950d 27be
00000210: 96c7 f33d cdd9 d4bd 17a9 6f3e d0de 0f3e
00000220: 81d9 413e 3a4f 1e3e d54c f2b9 28e8 083d
00000230: 4d1d da3b 8c73 5b3c 99ff 143e 2a08 0e3e
00000240: 319f 0a3e 45ae 5cbe dbaf 9ebd 365e db3d
00000250: d1e1 de3d 7c3d 1dbd 5211 7a3e 3372 2b3e
00000260: d357 a2bc a1f1 013e 3254 0fbe 9f6d 7e3d
00000270: ac1e ebbc 7ac8 25be cd0f 2cbe 6203 133e
00000280: 7f62 27be 09c2 11be f9fe 25be c0bb 043e
00000290: bf5c 21be 779e b8bd f7fb 90bc b2e2 06be
000002a0: a73c 00be 2aae 2ebc 0cbe acbd f804 753c
000002b0: 540d b43b fc84 b4bc 4df5 0fbe c84a 163e
000002c0: 5376 e73d 7ddd 8b3d af0d 1e3d 2f9b a7bd
000002d0: 7a95 0ebe bd03 dd3d 5e3c 78bd 80ae b03d
000002e0: 65db 15be fdee f7bc 0b11 eebd 4a1d febb
000002f0: 9849 1bbe dccc c4bd 4bfb 793c 15e1 a23d
00000300: c0b4 4bbe 6619 7dbd 8602 36be efe0 a5bd
00000310: 5acc 253e e889 dc3d fb75 823c 74fb 03be
00000320: a53d abbd 21b7 bbbd 0486 b1bc cf08 85bd
00000330: 8fd3 d6bd 2772 583d 1ed5 2fbd 60ee 29bd
00000340: 7b1d 14be 805e 2b3e 0ce4 183e 72b0 0a3e
00000350: ff5e 903d 6dfe 1ebe 9f84 7c3d e2a1 5f3d
00000360: 2324 3cbd 4057 003e 217f 06be 78a2 1abd
00000370: c696 fabd dc29 0cbd 65ee 0a3e 1c7d 35bd
00000380: 3aeb d0bc 6907 01be bb5b 7b3d 29ae a1bd
00000390: 8983 fa3c a118 08be af9d 3bbd 0940 a13d
000003a0: 63e0 78bc 237e 413d 6a6e 463d d511 eb3c
000003b0: 58aa 23be 7dca 5e3d 396c 84bd f704 98bd
000003c0: b2d0 113d 0379 f73c ea67 0dbe dcdc c3bd
000003d0: ff86 71bc 9115 bf3d 9fa5 ad3d 8935 f93d
000003e0: 7eb3 43be af9f ddbc d9cd 093b bce6 763c
000003f0: f6fb df3d f83a 8b3d 68a1 22bd 0990 b73d

gcn2.nn.2.bias f4 [32]
0.11466594 -0.17452197 0.04342366 0.087219656 0.10649079 0.019664051 -0.06400359 -0.23658055
0.043504782 0.16025293 0.16942337 0.11953824 0.13861245 0.06293933 0.04653209 -0.05546211
0.12121589 -0.09122098 0.07370045 0.029697286 0.122784935 -0.0907992 0.13564837 -0.15222083
0.06411823 0.022729475 0.0396179 0.099309586 0.040834613 0.025810285 0.132549 -0.16556644
00000000: fad5 ea3d e3b5 32be 02dd 313d 38a0 b23d
00000010: d817 da3d 8116 a13c 5014 83bd 2c42 72be
00000020: 1232 323d 5819 243e 527d 2d3e 77d0 f43d
00000030: 6cf0 0d3e 56e6 803d 6f98 3e3d 3d2c 63bd
00000040: 0940 f83d 11d2 babd 43f0 963d b947 f33c
00000050: ab76 fb3d eef4 b9bd 68e7 0a3e c7df 1bbe
00000060: 6b50 833d 2a33 ba3c 6146 223d d362 cb3d
00000070: 3242 273d 1770 d33c edba 073e 408a 29be

gcn2.nn.4.weight f4 [3, 32]
-0.16296518 -0.05682527 0.13258079 -0.19985294 -0.15310244 -0.008593194 -0.09509914 0.043626714
0.13932502 0.08251969 0.10888284 0.14261419 0.0009699887 0.09433229 0.056533728 0.17240782
-0.1566303 -0.21372351 -0.20021638 0.0724062 -0.39512345 0.041070286 -0.21526252 -0.18607332
0.081884 0.059213728 0.07427088 0.18932787 0.06847863 0.15481573 -0.17032483 -0.29133207
0.23033641 0.06171137 -0.025122646 -0.0038458426 -0.107899964 -0.107737504 0.14673243 0.08408699
-0.023382569 -0.20871976 7.606741e-05 -0.0913309 0.17423816 0.050404105 -0.05689635 0.06415231
-0.17139289 -0.34370947 0.2435416 0.0066548637 0.10257997 -0.09341462 -0.10733651 0.009391296
-0.14482339 -0.1479779 -0.043355703 0.15975387 -0.06738843 -0.09570953 0.09723754 -0.16371742
0.069803305 -0.11043068 0.005133896 0.12791246 -0.16513595 0.07247531 0.08991752 -0.11160929
0.055724654 0.0641607 0.024904395 0.06967213 -0.07779028 -0.1668446 -0.01372534 0.22681643
-0.13927972 0.065604374 -0.07142889 -0.19572972 0.13308705 0.1310274 -0.010508946 -0.060319085
-0.002479464 0.10953569 -0.14321844 -0.102134004 0.10070747 -0.10117679 0.12891476 -0.110213146
00000000: 58e0 26be 9dc1 68bd 42c3 073e 40a6 4cbe
00000010: e3c6 1cbe 78ca 0cbc 57c3 c2bd edb1 323d
00000020: 38ab 0e3e 1500 a93d f7fd de3d 7409 123e
00000030: d746 7e3a 4a31 c13d e98f 673d ad8b 303e
00000040: b263 20be 56da 5abe 8605 4dbe b449 943d
00000050: 9f4d cabe 5139 283d c76d 5cbe 018a 3ebe
00000060: ccb2 a73d 188a 723d 551b 983d 2adf 413e
00000070: 863e 8c3d 0488 1e3e a269 2ebe 7a29 95be
00000080: 4fdd 6b3e 10c5 7c3d 02ce cdbc 880a 7cbb
00000090: a8fa dcbd 7ba5 dcbd 0741 163e cd35 ac3d
000000a0: cd8c bfbc a2ba 55be 6186 9f38 b20b bbbd
000000b0: 7d6b 323e 8974 4e3d 260c 69bd 4962 833d
000000c0: 9e81 2fbe b0fa afbe f862 793e 0b11 da3b
000000d0: 7315 d23d 2a50 bfbd 3fd3 dbbd f3dd 193c
000000e0: 954c 14be 8587 17be c095 31bd 8596 233e
000000f0: f202 8abd 5c03 c4bd 7a24 c73d 8aa5 27be
00000100: 09f5 8e3d 7b29 e2bd 3e3a a83b 7cfb 023e
00000110: 6619 29be ef6d 943d ad26 b83d 6993 e4bd
00000120: 893f 643d af66 833d 4d04 cc3c 43b0 8e3d
00000130: 8350 9fbd 50d9 2abe 40e0 60bc 9142 683e
00000140: 589f 0ebe 965b 863d 4f49 92bd 5f6d 48be
00000150: f947 083e 0c2c 063e b72d 2cbc 2511 77bd
00000160: 817e 22bb 3f54 e03d dba7 12be a22b d1bd
00000170: b83f ce3d c735 cfbd 3b02 043e 6eb7 e1bd

gcn2.nn.4.bias f4 [3]
-0.11545079 0.050235875 0.11299132
00000000: 7771 ecbd 22c4 4d3d fe67 e73d
