refinement/models/GNN2_refinement.pt (torch, 25985 bytes, 12 tensors)

gcn1.nn.0.weight f4 [32, 6]
0	0x3f084ff5	0.53247005
1	0xbeaff0e6	-0.34363478
2	0xbd03eab6	-0.03220626
3	0xbe62af3c	-0.22137159
4	0xbe9c770b	-0.30559573
5	0xbedff393	-0.4374052
6	0x3d12e174	0.03585954
7	0xbe7d260a	-0.24721542
8	0xbed8f670	-0.42375517
9	0xbe422996	-0.18961176
10	0xbedefcbf	-0.43552205
11	0xbe48198e	-0.19540998
12	0xbedf8e1b	-0.43663105
13	0xbed6ba87	-0.41939184
14	0xbdbb8a77	-0.091572694
15	0x3cecf2c9	0.028924363
16	0x3de1f3ac	0.11032805
17	0xbe8886a3	-0.2666522
18	0x3e55cb23	0.20878272
19	0x3ec9c5c7	0.39408705
20	0x3de68cd6	0.11257331
21	0xbef3eef2	-0.47643238
22	0xbe8361b3	-0.25660476
23	0x3f0f522b	0.55984753
24	0xbea45e93	-0.32103404
25	0x3e589bbe	0.21153161
26	0xbe3573b4	-0.17719918
27	0x3e0a3162	0.134954
28	0x3e22887b	0.15872376
29	0x3e89a4fe	0.26883692
30	0x3e93f3c7	0.28896925
31	0x3f016fbd	0.50561124
32	0x3cbfbc29	0.023405151
33	0xbd3b2b9b	-0.045695882
34	0x3f0a9900	0.5413971
35	0x3f0b63c5	0.5444911
36	0x3db1dceb	0.08684715
37	0x3eeba380	0.46023178
38	0x3f1c6cc9	0.6110349
39	0x3e613a00	0.21994781
40	0x3d40efd6	0.047103725
41	0x3ec5c9e5	0.38630596
42	0x3db5ee32	0.08883323
43	0x3c16b3f5	0.009198179
44	0xbece4596	-0.40287465
45	0x3e9b2c42	0.30307204
46	0x3d0b89af	0.034066852
47	0x3e94f03e	0.2908954
48	0x3c7cb43a	0.015423829
49	0xbe11513c	-0.14191145
50	0x3a11cea5	0.00055621035
51	0xbea5f0b5	-0.32410207
52	0xbe908d8f	-0.28233
53	0x3eeaa75b	0.45830807
54	0xbe969a42	-0.29414564
55	0xbe448ff6	-0.19195542
56	0xbe6f7d96	-0.23387751
57	0x3e27517d	0.16339679
58	0x3cfac005	0.03060914
59	0xbdc5236e	-0.09625898
60	0xbef8b40e	-0.4857487
61	0x3df28893	0.11842456
62	0xbe11a839	-0.14224328
63	0x3ed462e5	0.414817
64	0xbea4539b	-0.32095036
65	0x3ecee1e9	0.4040673
66	0x3edc4831	0.43023828
67	0xbf1f8dee	-0.6232594
68	0xbe81ab81	-0.2532616
69	0x3e498c6c	0.19682473
70	0x3e1be843	0.1522532
71	0xbe2a66c0	-0.16640759
72	0xbe95341e	-0.29141325
73	0xbd6a3ef1	-0.05718893
74	0x3e8cfd91	0.27537206
75	0xbe9fbf33	-0.3120056
76	0xbe712a94	-0.23551399
77	0xbd504828	-0.050850064
78	0xbe95f364	-0.29287255
79	0xbe788ae6	-0.24271736
80	0x3db6275f	0.08894228
81	0x3d1ecee8	0.03877154
82	0x3e71fa5a	0.23630658
83	0x3e4087b9	0.18801774
84	0xbf090e39	-0.5353733
85	0x3e0b6c31	0.1361549
86	0x3cecd3bd	0.028909558
87	0x3e64e40e	0.22352621
88	0x3e8ef775	0.2792317
89	0x3e9d1492	0.30679756
90	0xbd96a5f7	-0.07355874
91	0x3ed71557	0.42008469
92	0xbd9abd55	-0.075556435
93	0xbd66d70b	-0.056357425
94	0x3eb6f2ce	0.3573212
95	0x3e8ae4f4	0.27127802
96	0x3f0d1f7d	0.5512617
97	0x3f273389	0.6531301
98	0xbdaa450f	-0.08313953
99	0x3e38acb8	0.18034637
100	0xbe54c159	-0.20776881
101	0x3ea48d77	0.3213918
102	0x3e3c2277	0.18372522
103	0xbe7529fb	-0.23941796
104	0xbe94c484	-0.2905618
105	0x3dce7d3b	0.100824796
106	0x3ce2cb80	0.027684927
107	0x3e84fb51	0.2597299
108	0xbd9acc0a	-0.075584486
109	0x3eb4d888	0.3532145
110	0x3e467144	0.19379145
111	0x3eb685e3	0.35649022
112	0xbdf2ce0a	-0.11855705
113	0x3f044b84	0.5167773
114	0xbf16f29c	-0.5896394
115	0xbf1491e0	-0.5803509
116	0x3ecbc0ee	0.3979563
117	0xbda60b6c	-0.08107647
118	0xbef85480	-0.48501968
119	0xbea0a6d0	-0.31377268
120	0xbe8edd63	-0.2790328
121	0x3e4249ef	0.18973516
122	0xbdc99e72	-0.09844674
123	0x3ecaaa10	0.39582872
124	0x3ef89a9e	0.48555464
125	0xbf0e1418	-0.5549941
126	0x3f068f11	0.5256205
127	0xbee23916	-0.44184178
128	0x3ed85e4b	0.4225944
129	0x3da41d69	0.08013422
130	0xbea8ad0e	-0.3294453
131	0xbeb9dd0f	-0.36301467
132	0xbef63026	-0.4808361
133	0xbf041c0f	-0.51605314
134	0xbebab5b5	-0.36466756
135	0x3eebb468	0.46036077
136	0x3d7f12de	0.062273853
137	0xbdc6b2dd	-0.09702084
138	0xbdf91a42	-0.121632114
139	0xbc673c73	-0.014113533
140	0xbe3279a7	-0.17429219
141	0xbe1ee347	-0.15516387
142	0xbed93d7f	-0.4242973
143	0xbec658ce	-0.38739628
144	0x3d25475c	0.040351257
145	0xbe8b2017	-0.2717292
146	0x3dcadcc3	0.09905388
147	0xbdb194cb	-0.08670958
148	0x3ea20b39	0.31649187
149	0xbeb9a811	-0.36261037
150	0x3ebc931a	0.3683098
151	0x3e7e34db	0.2482485
152	0xbe924279	-0.2856634
153	0xbef21eb2	-0.47289044
154	0x3f092dd6	0.53585565
155	0x3dcad76e	0.09904371
156	0xbd0b37c3	-0.033988725
157	0xbdc856ef	-0.09782206
158	0xbe8e5bb7	-0.27804348
159	0xbf01825c	-0.5058954
160	0x3e87871a	0.26470262
161	0x3ee6bacd	0.45064393
162	0x3e775845	0.24154766
163	0xbea08467	-0.31351015
164	0x3ed8d466	0.42349547
165	0x3eab6832	0.33477932
166	0xbdab0877	-0.08351224
167	0xbe9e372c	-0.30901468
168	0x3e2453fe	0.16047665
169	0xbf37d20b	-0.71804875
170	0x3e12619b	0.14295046
171	0xbd894307	-0.067022376
172	0xbd8926c1	-0.06696845
173	0x3dd3581f	0.10319542
174	0xbe29b81e	-0.16574141
175	0xbe9798d2	-0.2960878
176	0xbd95c2d3	-0.073125504
177	0x3e943f9d	0.28954783
178	0xbe3ed770	-0.1863687
179	0x3e350f45	0.17681606
180	0x3e9206a8	0.28520703
181	0x3e4f67a8	0.20254385
182	0xbd011d66	-0.031522177
183	0x3bf6bf5e	0.007530137
184	0xbec2d347	-0.38051817
185	0x3e4aa3e0	0.19789076
186	0xbec1b305	-0.37831894
187	0xbe93f8ad	-0.28900662
188	0xbe65560e	-0.22396109
189	0x3ec85c6d	0.39133015
190	0x3e9e9c69	0.30978706
191	0xbe8faba6	-0.28060645

gcn1.nn.0.bias f4 [32]
0	0x3d871353	0.06595483
1	0xbca11a3c	-0.01966583
2	0x3d69a562	0.057042487
3	0x3e44380b	0.19162004
4	0xbed267ab	-0.41094717
5	0xbdbc9b3f	-0.09209298
6	0xbd9dfe4f	-0.07714521
7	0x3db9ff00	0.090818405
8	0xbca364ad	-0.019945467
9	0xbebfb97e	-0.37446207
10	0x3e59ac67	0.21257173
11	0x3df70461	0.12061382
12	0xbe9cc328	-0.30617642
13	0x3eba81c5	0.3642713
14	0x3e683b6c	0.22678918
15	0x3ec20f84	0.37902462
16	0x3e1511f1	0.14557625
17	0xbe3443fe	-0.17604062
18	0xbe064a0d	-0.13114186
19	0x3dcdbba5	0.10045556
20	0xbd207334	-0.039172366
21	0x3dc81143	0.097689174
22	0x3e57b54a	0.2106525
23	0x3ca61036	0.020271402
24	0xbdef28ca	-0.11677702
25	0xbe57e893	-0.21084814
26	0x3e89f4fa	0.26944715
27	0x3e3e3184	0.18573576
28	0x3d7dee10	0.061994612
29	0x3ecd1634	0.40056002
30	0xbeabaf20	-0.33532047
31	0xbdbccd96	-0.092189

gcn1.nn.2.weight f4 [32, 32]
0	0xbd7d8068	-0.061890036
1	0x3e759cff	0.2398567
2	0x3e400c74	0.1875475
3	0x3e2c1f46	0.16808805
4	0xbd81c217	-0.06335848
5	0x3e35e09b	0.17761461
6	0x3e8fbcce	0.28073734
7	0x3dedc350	0.116095185
8	0x3d3f4cde	0.046704166
9	0x3d01c286	0.031679653
10	0xbe1ee1ac	-0.15515774
11	0x3e2e724d	0.1703579
12	0xbd83ef66	-0.06442146
13	0x39b46a4c	0.00034411473
14	0x3e08b3eb	0.13349883
15	0xbcc4eb11	-0.02403787
16	0x3d8e5b77	0.06951039
17	0xbd4c3801	-0.049858097
18	0x3e21922a	0.15778413
19	0x3de007b0	0.10938966
20	0x3eb607d2	0.3555284
21	0x3d146a7e	0.03623437
22	0xbd6a9b83	-0.057277214
23	0x3d801a50	0.06255019
24	0x3e3bb8fc	0.18332285
25	0x3db9f436	0.09079783
26	0x3e1d11c9	0.15338816
27	0xbda9322d	-0.082615234
28	0x3d9ebaa7	0.07750445
29	0x3da00ca5	0.07814912
30	0xbdc849eb	-0.09779724
31	0x3e7f5938	0.24936378
32	0xbea4d688	-0.32194924
33	0x3ba1e7e4	0.0049409736
34	0x3e9ee692	0.31035286
35	0xbca20d7a	-0.019781817
36	0xbbec9960	-0.007220432
37	0x3e0e987c	0.13925356
38	0xbe079936	-0.13242039
39	0x3d822d86	0.06356339
40	0xbe84f652	-0.25969177
41	0x3dfaafdc	0.12240574
42	0xbdd54575	-0.104136385
43	0xbe437de4	-0.19090992
44	0xbe19d1f6	-0.150215
45	0x3d896652	0.06708969
46	0x3dd0566b	0.10172733
47	0x3e2ebc35	0.17063983
48	0xbe516010	-0.20446801
49	0x3dfda36f	0.12384688
50	0xbdd83981	-0.10557843
51	0x3dc1e6f4	0.09467879
52	0xbe2dfd9c	-0.16991276
53	0x3cbf7b44	0.023374207
54	0xbcd930cc	-0.026512526
55	0x3c912ec8	0.017722502
56	0xbd97c2ff	-0.074102394
57	0xbe07e9bd	-0.13272758
58	0xbb4c343d	-0.0031159066
59	0xbd64566a	-0.055746473
60	0xbd14b187	-0.036302116
61	0x3dd642f6	0.104619905
62	0xbcd47f21	-0.025939526
63	0x3ca3a35d	0.019975359
64	0x3e6c0aaf	0.2305095
65	0xbdb5c61f	-0.08875679
66	0x3d25422b	0.040346306
67	0xbdac9aad	-0.084279396
68	0x3e04cb4e	0.1296818
69	0x3e0a5131	0.13507535
70	0x3ea2ad20	0.3177271
71	0x3e1f3dfc	0.15550989
72	0x3cf2b6ef	0.029628245
73	0xbe0831ed	-0.13300295
74	0xbe121a01	-0.14267732
75	0xbc28b732	-0.010297583
76	0xbd1a7b5a	-0.037715293
77	0x3db6b8b1	0.08921946
78	0x3cbc62c2	0.02299631
79	0xbddfb7e8	-0.10923749
80	0x3cc55af5	0.024091223
81	0x3d4d2ab1	0.05008954
82	0xbd071ed8	-0.0329884
83	0x3e2373a6	0.15962085
84	0x3db457dd	0.08805821
85	0xbd2d458f	-0.042302664
86	0xbcb69d0e	-0.022291686
87	0x3de1d057	0.11026066
88	0xbd029789	-0.031882796
89	0xbddd18fe	-0.107957825
90	0x3e28336e	0.16425869
91	0x3d51cfa1	0.0512234
92	0x3e496216	0.19666323
93	0x3c3631eb	0.0111203
94	0x3de42409	0.11139686
95	0xbdbb0046	-0.091309115
96	0x3d38e296	0.045137964
97	0xbdc4592d	-0.095873214
98	0x3e95041d	0.291047
99	0xbe1e7795	-0.15475304
100	0xbdcdc6a4	-0.10047653
101	0x3e2ed424	0.17073113
102	0x3e4f2682	0.20229533
103	0xbdec2d39	-0.11532063
104	0xbdb7fed8	-0.089841545
105	0xbdab48fa	-0.083635285
106	0x3d3703af	0.044681247
107	0x3d04ccbf	0.032421824
108	0xbcb49f4d	-0.022048617
109	0x3e27ac46	0.16374311
110	0xbe16df0c	-0.14733523
111	0xbd6f1222	-0.058366902
112	0x3b7ecf01	0.0038880708
113	0xbd1ad12e	-0.037797146
114	0x3dea27a5	0.11433343
115	0xbd9648b4	-0.07338086
116	0x3d91d7bc	0.07121226
117	0x3e0881e8	0.13330805
118	0x3c0e7ceb	0.008696775
119	0xbdba93e9	-0.09110243
120	0x3d6f7b5a	0.058467247
121	0xbe3ab55b	-0.18233244
122	0xbdab3629	-0.083599396
123	0x3dcea48d	0.10089979
124	0xbcafd423	-0.02146346
125	0x3e451a21	0.19248249
126	0x3e1864c0	0.14882183
127	0xbd3b63bb	-0.045749407
128	0x3e3395a0	0.17537546
129	0xbdd13191	-0.10214532
130	0xbd81bdbf	-0.06335019
131	0x3dacde31	0.08440817
132	0x3e1c92fb	0.15290444
133	0x3e60df57	0.21960197
134	0x3d32cd9c	0.043653116
135	0x3e11544f	0.14192317
136	0xbca98165	-0.020691583
137	0xbb1d1d6a	-0.002397383
138	0xbdc7349e	-0.09726833
139	0x3e018337	0.1264771
140	0x3db6f85e	0.08934091
141	0xbb1da88e	-0.0024056765
142	0xbc9ae9ed	-0.018910373
143	0x3d9ef9ce	0.0776249
144	0xbe41b61f	-0.1891713
145	0x3ccc1781	0.024913551
146	0x3ec033a0	0.37539387
147	0xbaeb3384	-0.001794443
148	0x3d5be698	0.05368671
149	0x3e0ee6ca	0.13955227
150	0x3c48e7d5	0.012262304
151	0xbcb4be2a	-0.022063334
152	0xbe85070b	-0.25981936
153	0x3d03b0e1	0.032151107
154	0x3cfc5bb1	0.03080544
155	0xbdefe03b	-0.117126904
156	0x3d6414ae	0.055683784
157	0x3d8812bb	0.066441976
158	0x3dab4fbb	0.08364817
159	0x3dcea307	0.10089689
160	0x3e1b7e0b	0.151848
161	0x3da3163f	0.079632275
162	0xbe0314fe	-0.12800977
163	0x3dc68a30	0.09694326
164	0xbe20d109	-0.1570474
165	0x3ca35568	0.019938186
166	0xbe3586df	-0.1772723
167	0xbe349d21	-0.17638065
168	0x3e5ff717	0.21871601
169	0x3a054746	0.0005084168
170	0xbd22fa89	-0.03978971
171	0xbcd9d1cf	-0.026589302
172	0xbd538d1e	-0.05164825
173	0xbe34a35d	-0.17640443
174	0xbcdb6eee	-0.026786294
175	0xbd6de99c	-0.058084115
176	0xbe308b97	-0.1724075
177	0x3d96a9fa	0.07356639
178	0xbdb535a6	-0.08848123
179	0xbd68de68	-0.056852728
180	0xbc958998	-0.018254086
181	0x3dc64b30	0.0968231
182	0xbd2347b1	-0.039863292
183	0xbe01f032	-0.12689283
184	0x3e516e40	0.20452213
185	0x3d1a3ca2	0.03765548
186	0xbd577bf3	-0.05260844
187	0xbc760fc9	-0.015018412
188	0xbcb1bf6f	-0.021697728
189	0xbd9b438b	-0.07581242
190	0x3da716e1	0.08158661
191	0xbd5f9edd	-0.054594863
192	0xbccc5dbc	-0.02494704
193	0x3ebd0a0e	0.36921734
194	0x3e518c47	0.20463668
195	0x3e632c7f	0.22184943
196	0x3b11402d	0.0022163496
197	0xbe123197	-0.1427673
198	0xbe35817b	-0.17725174
199	0xbd76ff61	-0.060302142
200	0x3e874545	0.26420036
201	0x3de7d4b9	0.113198705
202	0xbe389c52	-0.18028381
203	0x3d84186e	0.06449972
204	0xbd837b72	-0.0642003
205	0xbdec0fe9	-0.11526472
206	0xbe0fda36	-0.14048085
207	0x3d84f238	0.06491512
208	0xbe23a2af	-0.15980028
209	0x3d046a5f	0.032328006
210	0x3e260d2b	0.1621596
211	0x3e47cebf	0.19512461
212	0xbdd73964	-0.10508993
213	0x3d59df62	0.05319155
214	0xbe0d599a	-0.13803712
215	0x3c88f0b6	0.016716342
216	0x3d4f92ba	0.05067704
217	0x3dfc2c46	0.12313132
218	0x3d56c778	0.052436322
219	0x3c526d0d	0.012843383
220	0x3e923b7e	0.28561014
221	0xbdb27ba3	-0.08714988
222	0xbd546d64	-0.051862136
223	0x3e09d891	0.1346152
224	0x3dcdd19e	0.10049747
225	0x3d8d1109	0.06888015
226	0x3e86710f	0.26258132
227	0xbdf8a51f	-0.12140869
228	0x3d240e83	0.040052902
229	0x3aa24f60	0.0012383275
230	0xbce6435d	-0.028108293
231	0xbda70ddd	-0.08156941
232	0xbca6ded8	-0.020369932
233	0x3e3c23f3	0.18373089
234	0x3d206597	0.039159384
235	0x3db31983	0.087451
236	0xbd04fea6	-0.032469414
237	0xbc2f6690	-0.010705605
238	0x3cc37f6f	0.023864476
239	0xbcf1a3fa	-0.029497135
240	0xbdefca3b	-0.11708494
241	0xbd56a61e	-0.052404515
242	0x3cbfc795	0.023410598
243	0x3e703556	0.23457846
244	0xbdc74e6c	-0.09731755
245	0x3e457f84	0.19286925
246	0x3d1b7610	0.03795439
247	0xbca8bebe	-0.020598765
248	0x3cd8d755	0.026469866
249	0xbd900fa4	-0.07034233
250	0xbe3b65a3	-0.1830049
251	0x3e389a3d	0.18027587
252	0x3dbb21b1	0.091372855
253	0xbcb1ee5d	-0.021720106
254	0xbe0928f2	-0.13394526
255	0x3e129b78	0.14317119

gcn1.nn.2.bias f4 [32]
0	0xbd9a49f2	-0.07533635
1	0xbc55b678	-0.013043992
2	0x3ca3f83a	0.020015825
3	0x3dc2872d	0.09498439
4	0xbca0e66e	-0.019641127
5	0x3e19088c	0.14944667
6	0x3bcdc01f	0.006279006
7	0xbdbc1dfb	-0.09185406
8	0xbdcc5e8e	-0.099789724
9	0x3df41b42	0.119192615
10	0xbd417c9e	-0.047237985
11	0xbd8ec8b1	-0.069718726
12	0x3c758669	0.014985659
13	0x3dd3fd26	0.103510186
14	0x3d8b5322	0.06802966
15	0x3e29a04f	0.16565059
16	0x3c5cfb59	0.01348766
17	0xbdb95d51	-0.09051002
18	0xbcab34e0	-0.020899236
19	0xbda1835c	-0.07886383
20	0x3e128cb7	0.14311491
21	0xbdb369af	-0.08760392
22	0x3e379708	0.17928708
23	0xbc33b74b	-0.010968993
24	0xbcb9b9a1	-0.022671523
25	0x3dd81951	0.10551704
26	0x3d8484d6	0.06470649
27	0xbdf406af	-0.11915337
28	0x3dd2d032	0.10293616
29	0x3e2916db	0.16512625
30	0x3c0e1e0f	0.008674159
31	0x3e1408e3	0.14456515

gcn1.nn.4.weight f4 [32, 32]
0	0xbbd992f8	-0.0066398345
1	0xbe42dcdb	-0.19029562
2	0x3dd2a093	0.10284533
3	0xbe3e437b	-0.1858043
4	0xbb21614b	-0.0024624642
5	0x3e0c1300	0.13679123
6	0x3ea16d6a	0.3152879
7	0xbd59813b	-0.05310176
8	0xbcbc8960	-0.023014724
9	0xbe4f6f72	-0.20257357
10	0xbdbd5414	-0.09244552
11	0x3da43b71	0.0801915
12	0x3c7111e1	0.014713735
13	0xbe51b397	-0.20478664
14	0x3e5865ef	0.21132635
15	0xbcff6300	-0.031175137
16	0x3e07df36	0.13268742
17	0x3b14f8d7	0.0022731328
18	0xbdbc4974	-0.091936976
19	0x3dfa9db2	0.12237109
20	0xbe46d8c4	-0.19418627
21	0x3d8707f8	0.06593317
22	0xbd444d54	-0.04792531
23	0xbdcf06e6	-0.10108738
24	0xbdf2be4e	-0.11852704
25	0xbb863991	-0.004096218
26	0x3cf2a77c	0.029620878
27	0xbe1a744b	-0.15083425
28	0x3e146090	0.1448996
29	0xbdbe4a59	-0.092915244
30	0xbe05af68	-0.13055193
31	0xbd4d3f25	-0.050109047
32	0x3e382197	0.17981564
33	0x3d525568	0.05135098
34	0x3c5883dc	0.0132150315
35	0xbd41c198	-0.047303766
36	0xbde1c33f	-0.11023568
37	0x3e391826	0.18075618
38	0xbd8f0fe4	-0.06985453
39	0xbe18c7eb	-0.14920013
40	0x3dd3f925	0.10350255
41	0x3e2f67f4	0.17129499
42	0xbde953b1	-0.11392916
43	0xbd525071	-0.051346246
44	0x3c43c681	0.0119491825
45	0x3e0be39d	0.13661046
46	0xbe0ab9de	-0.13547465
47	0xbdc9c5ff	-0.09852218
48	0x3d1592a5	0.036516804
49	0x3cab902c	0.02094277
50	0xbd519a59	-0.051172588
51	0x3de6c596	0.11268155
52	0xbd5a12d7	-0.053240623
53	0x3e21309a	0.15741196
54	0x3ccf837c	0.025331251
55	0xbea4f488	-0.32217813
56	0x3e432de5	0.19060476
57	0x3e0b36fe	0.13595197
58	0x3d74b3ba	0.059741713
59	0x3da3fe8d	0.08007536
60	0x3dc47f4f	0.09594595
61	0x3cb76eda	0.022391725
62	0xbd9f1349	-0.0776735
63	0x3c90dff1	0.017684909
64	0x3e1965ea	0.14980283
65	0x3ca79da6	0.020460915
66	0x3e4437f7	0.19161974
67	0x3d832f51	0.06405509
68	0x3d0b955c	0.034077987
69	0xbdc1969f	-0.09452557
70	0x3e099423	0.13435416
71	0x3dc2fc09	0.09520728
72	0x3e29a175	0.16565497
73	0x3dec08f4	0.11525145
74	0x3e46b96f	0.19406675
75	0xbe22c5dd	-0.15895791
76	0xbdb3f4e6	-0.08786945
77	0x3cc93232	0.024560068
78	0xbe072070	-0.13195968
79	0x3d97e6e0	0.07417083
80	0xbe33dce5	-0.17564733
81	0x3c5b9517	0.013402245
82	0x3e6650de	0.22491786
83	0xbe4b1e85	-0.19835861
84	0x3df35b34	0.1188263
85	0x3db1aedb	0.08675929
86	0x3da65c9d	0.08123133
87	0xbe23ce25	-0.15996607
88	0xbd894191	-0.06701959
89	0x3e0f4905	0.13992698
90	0x3dfb4634	0.122692496
91	0x3df2fe7b	0.118649445
92	0x3cdf2748	0.02724041
93	0x3dfc475b	0.123182975
94	0xbde38701	-0.11109734
95	0x3d0df280	0.034655094
96	0x3d55ea88	0.05222562
97	0x3d23faa2	0.040033944
98	0x3e38760a	0.18013778
99	0x3dd4d26f	0.103916995
100	0xbbcac18e	-0.0061876243
101	0xbe038a2c	-0.12845677
102	0x3ca5946e	0.020212378
103	0x3e29c2b0	0.16578174
104	0x3d2adbc6	0.0417135
105	0xbe10dacb	-0.14145963
106	0xbdbe2b81	-0.092856415
107	0x3dc213a2	0.09476401
108	0x3d0154a7	0.03157487
109	0x3e4b61d2	0.19861534
110	0x3e440f6f	0.19146512
111	0x3d82eb84	0.06392577
112	0xbdc0c145	-0.09411863
113	0xbdcb3dc4	-0.0992389
114	0x3ddfa836	0.109207556
115	0x3b87c326	0.0041431366
116	0x3d333a55	0.0437568
117	0x3dd3d9d4	0.10344282
118	0x3e183ff5	0.14868148
119	0xbd30ddaf	-0.043180164
120	0x3dd35a9f	0.10320019
121	0x3e2c7898	0.16842878
122	0x3e05a19f	0.13049935
123	0xbe131298	-0.14362562
124	0x3e1b0952	0.15140274
125	0x3e45e2b7	0.19324766
126	0xbd724afc	-0.059153542
127	0xbd87c36b	-0.0662907
128	0x3e16d0b1	0.14728047
129	0xbe403022	-0.18768361
130	0x3e611472	0.21980456
131	0xbe16e5ac	-0.1473605
132	0x3e1253ff	0.14289854
133	0xbdc98087	-0.09838968
134	0xbd8c96fa	-0.06864734
135	0xbe15f4b1	-0.14644124
136	0xbdccdabc	-0.10002658
137	0xbdc92c06	-0.0982285
138	0xbd075b65	-0.033046145
139	0x3e05996b	0.13046806
140	0x3e019442	0.12654212
141	0xbd7dc646	-0.061956666
142	0x3e6aba2e	0.22922584
143	0xbca68244	-0.020325787
144	0x3e9462a2	0.289815
145	0xbd0c6e5a	-0.034284927
146	0x3e5838e0	0.21115446
147	0x3d6018de	0.054711215
148	0x3d0b4493	0.034000944
149	0x3c17de65	0.009269332
150	0x3e474082	0.19458202
151	0xbebf1392	-0.37319618
152	0xbdb244eb	-0.08704551
153	0x3db979d6	0.090564415
154	0x3e0e4153	0.13892107
155	0xbd3e6b73	-0.04648919
156	0x3e3b1cda	0.18272725
157	0x3c11a4fc	0.008889433
158	0xbdb7c731	-0.089735396
159	0x3c01a3ae	0.007912559
160	0x3d51b138	0.0511944
161	0x3e0707c9	0.13186564
162	0x3dd49a85	0.10381035
163	0x3d65917a	0.05604694
164	0x3ba1305a	0.004919094
165	0xbe1072fe	-0.14106366
166	0xbe0c07cc	-0.1367485
167	0x3b022c8b	0.0019862975
168	0x3e43655c	0.19081634
169	0x3e1af109	0.1513101
170	0x3e06d40f	0.13166831
171	0xbe495ff0	-0.19665504
172	0xbe1012f8	-0.14069736
173	0x3eaeb29f	0.34120652
174	0xbde3953f	-0.11112451
175	0x3dc3bdb4	0.095576674
176	0x3bfa5e25	0.0076406174
177	0xbe18610d	-0.14880772
178	0x3bf80ef1	0.0075701405
179	0xbe1c5b60	-0.15269232
180	0x3e34d23c	0.17658323
181	0x3c3fd1a3	0.011707696
182	0xbdb15dca	-0.08660467
183	0xbdf4d60a	-0.11954887
184	0x3e177b4f	0.14793132
185	0xbde3df40	-0.11126566
186	0x3a0c3d9c	0.00053497567
187	0x3ddee749	0.10883958
188	0x3ceb85be	0.028750297
189	0x3e1033d4	0.14082271
190	0x3e071ba8	0.13194144
191	0x3d2501d2	0.04028494
192	0x3c2770fb	0.010219808
193	0x3dbabc0b	0.091178976
194	0xbe00279d	-0.12515111
195	0x3c5f7905	0.013639693
196	0xbc0046b1	-0.007829354
197	0x3df16a73	0.11787882
198	0x3d54245b	0.051792484
199	0x3e63b14e	0.22235605
200	0x3dbe63e2	0.09296395
201	0xbdb14127	-0.08655005
202	0xbe20dd15	-0.15709336
203	0x3c9dc80e	0.019260433
204	0xbe1c7ec9	-0.1528274
205	0xbe8878d8	-0.26654696
206	0x3cc609ad	0.024174536
207	0xbdb9c665	-0.09071044
208	0x3e37179b	0.17880099
209	0xbded5d0c	-0.11590013
210	0xbe595e64	-0.21227413
211	0xbdddd554	-0.10831705
212	0xbe36b7e5	-0.17843588
213	0xbd9dab54	-0.07698694
214	0x3c8828ad	0.016620958
215	0x3d07b807	0.033134487
216	0x3df8e791	0.12153543
217	0xbdb2feca	-0.087400034
218	0xbc664249	-0.01405389
219	0x3e048ca8	0.12944281
220	0xbe55b7c4	-0.20870882
221	0xbdd7ea94	-0.10542789
222	0x3df3b7d8	0.119003
223	0x3d97637e	0.073920235
224	0xbcef515f	-0.029213605
225	0xbd37cc99	-0.044872854
226	0xbd5931b7	-0.053025927
227	0xbd137624	-0.03600134
228	0x3e08fe57	0.13378273
229	0x3e1cdef1	0.1531942
230	0x3e8bbe35	0.27293554
231	0x3e95c5e5	0.29252544
232	0x3ca9295f	0.02064961
233	0xbe2e9341	-0.1704836
234	0xbdeabb7a	-0.114615396
235	0xbd07d2b4	-0.033159927
236	0x3d55d664	0.052206412
237	0x3ccff5eb	0.025385818
238	0x3d652df5	0.05595203
239	0xbd621659	-0.055197094
240	0x3de03277	0.109471254
241	0xbdac003c	-0.08398482
242	0xbbf5d115	-0.007501731
243	0xbdaa8267	-0.083256535
244	0x3d21f94f	0.0395444
245	0xbd29a102	-0.041413315
246	0x3cf0517e	0.029335734
247	0xbd43a2c9	-0.047762666
248	0xbe10f3cd	-0.14155503
249	0xbdd64d58	-0.10463971
250	0x3de12ec5	0.10995249
251	0x3c84ab80	0.016195059
252	0xbd6e2d5b	-0.058148723
253	0xbe0d5567	-0.1380211
254	0xbe16bcc0	-0.1472044
255	0xbe0a6b2f	-0.1351745

gcn1.nn.4.bias f4 [32]
0	0xbe318af7	-0.17338167
1	0x3dd4410b	0.103639685
2	0x3c0b06d2	0.008485513
3	0x3e25ca06	0.16190347
4	0x3e237d31	0.15965725
5	0xbd489fd2	-0.04898054
6	0xbdefc2d1	-0.1170708
7	0xbd9dae9c	-0.0769932
8	0x3d36f594	0.044667795
9	0x3e1af4a4	0.15132385
10	0x3ca0e897	0.019642157
11	0xbe27415c	-0.16333526
12	0xbda03fa0	-0.078246355
13	0xbd9bc600	-0.07606125
14	0x3e245135	0.16046603
15	0x3dead812	0.114669934
16	0xbe3d2d4f	-0.18474315
17	0xbdf3c4b4	-0.119027525
18	0xbe27ce9d	-0.1638741
19	0xbda3ea66	-0.08003692
20	0x3da61425	0.08109311
21	0x3db55c03	0.088554405
22	0x3ddf14d7	0.10892647
23	0xbe3aef52	-0.18255356
24	0x3df6e278	0.12054914
25	0xbe159f93	-0.14611654
26	0xbd1d8577	-0.03845736
27	0x3dbd8b82	0.09255125
28	0xbdd35655	-0.10319201
29	0xbde497fe	-0.11161803
30	0xbdaad033	-0.08340492
31	0x3dd0b2d7	0.10190361

gcn2.nn.0.weight f4 [32, 64]
0	0xbc12ff0d	-0.008971942
1	0xbd894148	-0.067019045
2	0xbdf3af01	-0.11898614
3	0x3de1b915	0.1102163
4	0xbd24d489	-0.04024175
5	0xbe084edd	-0.13311334
6	0x3cd17862	0.025570098
7	0x3dee91f4	0.11648932
8	0xbdfa49dc	-0.12221119
9	0x3df33e5b	0.11877128
10	0xbcca6538	-0.024706468
11	0xbd9cd5b8	-0.07657951
12	0x3df57723	0.11985614
13	0xbd470e95	-0.04859789
14	0xbdd7c205	-0.10535053
15	0x3d5be531	0.05368537
16	0x3dd7f20a	0.10544212
17	0x3e01c2fe	0.1267204
18	0xbd8963f6	-0.06708519
19	0x3dce93f6	0.10086815
20	0xbdd8037e	-0.10547541
21	0xbd6f12b7	-0.058367457
22	0xbd5ae3a3	-0.053439748
23	0x3d54eef9	0.051985715
24	0x3dbe6a52	0.09297623
25	0xbd9cd531	-0.076578505
26	0xbcb9728d	-0.02263763
27	0x3c89a8f9	0.016804205
28	0x3da7fc6c	0.082024425
29	0xbd057e75	-0.032591302
30	0x3d8668d6	0.065629646
31	0xbd227902	-0.039666183
32	0xbc1e1422	-0.009648355
33	0xbd73ac4a	-0.05949048
34	0xbd22d4ec	-0.03975384
35	0xbd054f6c	-0.032546446
36	0x3e14748d	0.14497586
37	0xbc0ebb92	-0.008711712
38	0x3d337d5c	0.043820724
39	0x3e1b166f	0.15145276
40	0x3d17fc52	0.037105866
41	0x3dbcc703	0.09217646
42	0x3d504528	0.050847203
43	0x3e4580c5	0.19287403
44	0x3dc5ed25	0.09664372
45	0xbdac212a	-0.08404763
46	0x3a38a15b	0.0007043087
47	0x3d2d9663	0.042379748
48	0xbd5669ab	-0.052346867
49	0x3ddaf4d4	0.106912285
50	0xbc30469e	-0.010759024
51	0xbc1b9c39	-0.009497696
52	0xbd3dfc76	-0.046383344
53	0xbe1cc176	-0.15308174
54	0x3d76d6f4	0.06026359
55	0xbe0b3b21	-0.13596775
56	0xbde95b22	-0.11394335
57	0xbc05e76c	-0.008172851
58	0xbcd76aa5	-0.02629597
59	0xbd85e96b	-0.065386616
60	0x3d7b9ce0	0.061428905
61	0x3e46889f	0.19388054
62	0x3d291f96	0.04128989
63	0x3d67c756	0.056586586
64	0x3d605a9b	0.054773908
65	0x3c17644e	0.009240223
66	0x3d353ec0	0.044249296
67	0xbc6a11f1	-0.014286504
68	0x3c3711fd	0.011173722
69	0x3db83fde	0.08996557
70	0xbd79705f	-0.06089818
71	0x3d86c776	0.06581013
72	0xbd80d90b	-0.06291398
73	0x3df68128	0.12036353
74	0xbd0e1099	-0.034683798
75	0x3b0ae96a	0.0021196255
76	0x3d58c583	0.052922737
77	0x3d9725ee	0.073802814
78	0xbd9b7cb8	-0.075921476
79	0xbc52972e	-0.012853427
80	0xbdbcd04f	-0.09219419
81	0x3df278b6	0.1183943
82	0x3e0c9d9a	0.13731995
83	0xbd619de6	-0.055082224
84	0x3dffdc8f	0.1249324
85	0x3dd4f39a	0.10398026
86	0x3db6e564	0.089304715
87	0x3dd49c46	0.10381369
88	0xbe3adeae	-0.18249008
89	0x3dbce091	0.0922252
90	0x3e40a8ec	0.18814439
91	0xbde005a9	-0.109385796
92	0xbd1a42a7	-0.03766122
93	0x3d074e1b	0.03303347
94	0xbdde728a	-0.1086169
95	0xbc7549b2	-0.014971184
96	0x3e401574	0.18758184
97	0x3cd71e67	0.026259614
98	0xbe2742c0	-0.16334057
99	0xbd92bec8	-0.07165295
100	0xbd862d1e	-0.06551574
101	0xbd828c74	-0.063744456
102	0xbe02f9bc	-0.12790579
103	0x3ca6ba4d	0.020352507
104	0x3e14bfe0	0.1452632
105	0xbdd0ed9a	-0.10201569
106	0xbc1d4632	-0.009599255
107	0x3cadcda5	0.021216223
108	0x3d1c326b	0.03813402
109	0x3d88a376	0.06671803
110	0xbd1400fb	-0.036133748
111	0xbca5353b	-0.020166984
112	0xbc7e4289	-0.015518793
113	0xbdd801a1	-0.10547186
114	0x3e06e49d	0.13173147
115	0xbb205018	-0.0024461802
116	0xbd940c8e	-0.07228957
117	0xbe696703	-0.22793202
118	0xbd842a30	-0.06453359
119	0x3d192b68	0.03739491
120	0xbd1e8394	-0.0386997
121	0xbd8644fe	-0.06556128
122	0x3e7ea6e2	0.24868348
123	0x3dd85f70	0.10565078
124	0x3e09c965	0.13455732
125	0xbe047605	-0.12935646
126	0x3dda505a	0.10659857
127	0xbe1b4c30	-0.15165782
128	0xbd9840d0	-0.07434237
129	0x3dd1d15d	0.10245011
130	0xbd87b848	-0.06626946
131	0xbbae3b2d	-0.005317113
132	0x3d882735	0.06648103
133	0x3d7dbb15	0.061945993
134	0x3d67ffcf	0.056640442
135	0x3de6c3c3	0.11267807
136	0x3d3858e9	0.045006666
137	0xbdac950b	-0.08426865
138	0x3dcfdacd	0.10149155
139	0x3caa7c88	0.020811334
140	0xbb79fa53	-0.003814359
141	0x3e16a994	0.14713126
142	0xbd7fae00	-0.0624218
143	0x3dda9c9a	0.10674401
144	0xbdb3de68	-0.08782655
145	0xbcde97a9	-0.027171927
146	0x3cb7b6af	0.022425978
147	0xbd6ee716	-0.05832585
148	0xbc944693	-0.018100059
149	0x3d61db92	0.05514104
150	0x3ab9cb79	0.001417502
151	0x3d991983	0.07475569
152	0xbc81a400	-0.015825272
153	0xbd9f5e56	-0.07781665
154	0xbd9ed10d	-0.07754717
155	0xbe0d7384	-0.13813597
156	0xbd9f6498	-0.077828586
157	0xbdde5b09	-0.10857207
158	0x3df4b48a	0.119484976
159	0xbdb233a5	-0.08701257
160	0xbda112a9	-0.07864887
161	0x3d922967	0.07136803
162	0x3ddd4429	0.10804016
163	0x3dfbaab1	0.12288416
164	0x3d0b6242	0.034029253
165	0x3e1e2271	0.15442826
166	0x3d3b19c2	0.04567886
167	0xbd39351d	-0.04521667
168	0x3cebe42f	0.02879533
169	0x3e00bba0	0.12571573
170	0xbd33bb27	-0.043879654
171	0xbd2995c9	-0.041402612
172	0x3d86c95b	0.06581374
173	0xbd2d7c4c	-0.042354867
174	0xbdae32c3	-0.08505776
175	0x3e1640e7	0.14673196
176	0x3d247330	0.040148914
177	0x3dcf08c6	0.10109095
178	0x3d521179	0.051286194
179	0xbd23ba77	-0.03997275
180	0x3d776ca3	0.06040634
181	0x3e1d5b01	0.15366746
182	0xbdbe10cf	-0.0928055
183	0xbd8b4021	-0.06799341
184	0x3cdf4686	0.027255308
185	0xbe03c589	-0.12868322
186	0x3d91f4ec	0.07126793
187	0xbe2ec235	-0.17066272
188	0xbe25e006	-0.1619874
189	0xbd7d3615	-0.061819155
190	0xbe132a5f	-0.14371632
191	0x3e1291ca	0.14313427
192	0xbc662b40	-0.014048398
193	0x3d2e7019	0.042587373
194	0x3d2c41be	0.042054884
195	0x3d85909b	0.06521722
196	0x3d8e01e8	0.06933957
197	0xbdcd2516	-0.10016839
198	0x3d8f81d6	0.07007186
199	0xbc25fbb4	-0.0101308115
200	0x3da8b5f3	0.08237829
201	0x3db3f3ab	0.0878671
202	0xbd5d55c7	-0.05403688
203	0x3c954ec5	0.018226037
204	0xbdc55b8b	-0.09636601
205	0xbcd0b9d5	-0.025479237
206	0xbd48350c	-0.048878714
207	0xbdd590f0	-0.10428035
208	0xb5f3215a	-1.8114617e-06
209	0xbc7e968c	-0.015538823
210	0x3c4cd7a6	0.0125025865
211	0x3dbaf05a	0.09127875
212	0xbdd4f0dc	-0.10397503
213	0x3d84e3c6	0.06488757
214	0x3d0fda12	0.035120077
215	0xbd2649f1	-0.04059786
216	0xbd05f8b1	-0.032707874
217	0xbe0796ca	-0.13241115
218	0x3dd43861	0.10362316
219	0xbd38ab60	-0.04508531
220	0x3c9fb248	0.01949419
221	0x3d99dc88	0.07512766
222	0xbde0c83b	-0.10975691
223	0x3c05abfe	0.008158682
224	0xbe1379ae	-0.14401886
225	0x3cc60e62	0.02417678
226	0xbca22e47	-0.019797457
227	0x3d0e3f91	0.03472859
228	0xbe4e30fe	-0.20135877
229	0xbd0740b9	-0.03302071
230	0x3cf02046	0.029312264
231	0xbe489bb2	-0.19590643
232	0x3d9af8fe	0.07567023
233	0xbdbc08d9	-0.09181375
234	0xbd910682	-0.070813194
235	0xbde61a37	-0.11235469
236	0xbe4d568b	-0.20052545
237	0x3e17a64d	0.14809532
238	0x3e3d4466	0.18483123
239	0xbd8ce5bf	-0.06879758
240	0xbd922e2a	-0.07137711
241	0x3d191f5a	0.037383415
242	0xbd2b9311	-0.0418883
243	0xbdf754d2	-0.12076725
244	0xbdf2fb07	-0.11864286
245	0x3ddbe7db	0.10737582
246	0xbd9fa92c	-0.07795939
247	0x3e3f6f68	0.18694842
248	0xbd94c012	-0.07263197
249	0x3e2a92d3	0.16657571
250	0xbd82bff7	-0.06384271
251	0xbe129983	-0.14316373
252	0xbdcd050d	-0.10010729
253	0xbe5e5a3b	-0.21714108
254	0x3df46da2	0.11934973
255	0xbda3adf6	-0.07992165

gcn2.nn.0.bias f4 [32]
0	0x3d3de381	0.046359543
1	0xbda16884	-0.07881263
2	0xbcf8bff4	-0.030364968
3	0x3db2bd5f	0.08727526
4	0x3e07190b	0.13193147
5	0x3dd9fd9a	0.10644074
6	0x3b1df633	0.0024103045
7	0xbd76c5f1	-0.060247365
8	0xbddd1305	-0.10794643
9	0x3dca0990	0.09865105
10	0x3dde473b	0.1085343
11	0x3cab2190	0.020890027
12	0x3ce1b0e0	0.02755016
13	0xba940fad	-0.0011296176
14	0x3dee9c52	0.116509095
15	0x3d1b1b7f	0.03786802
16	0x3d442980	0.04789114
17	0x3d465366	0.04841938
18	0x3ce2edbe	0.027701255
19	0xbdc5f5cd	-0.096660234
20	0xbd6f245f	-0.058384296
21	0xbd80b81f	-0.06285118
22	0x3bb211ae	0.0054342365
23	0xbc3a7e8c	-0.01138271
24	0xbc8fd450	-0.017557293
25	0xbd066c3b	-0.03281806
26	0xbe054226	-0.13013515
27	0xbd81feff	-0.06347465
28	0x3e121922	0.142674
29	0xbd17f1b1	-0.03709573
30	0xbd649ea1	-0.055815343
31	0xbd395b0d	-0.04525285

gcn2.nn.2.weight f4 [32, 32]
0	0x3e0ae2f7	0.13563143
1	0x3db052ee	0.086095676
2	0xbdd2f657	-0.10300892
3	0x3e318c52	0.17338684
4	0x3c575bfd	0.01314449
5	0x3e066c21	0.13127185
6	0x3d72ce77	0.05927893
7	0xbbfe6b41	-0.0077642505
8	0xbe0524c2	-0.13002303
9	0xbd5c7f59	-0.053832386
10	0xbca73c0e	-0.020414378
11	0xbcb88722	-0.022525374
12	0xbe441610	-0.19149041
13	0x3d13a91e	0.036049955
14	0xbd65b177	-0.056077447
15	0x3de774da	0.113015845
16	0x3da82531	0.08210219
17	0x3dec9f51	0.11553825
18	0x3e97b88a	0.2963298
19	0x3e1a0c55	0.15043767
20	0xbce2359a	-0.02761345
21	0x3d2acf52	0.041701622
22	0xbdf74e4f	-0.12075483
23	0xbbdf6e54	-0.006818572
24	0x3e0b3674	0.13594991
25	0x3da91903	0.08256724
26	0xbe468205	-0.19385536
27	0xbdb6ab3c	-0.08919379
28	0xbd7e3aa0	-0.062067628
29	0x3e0b847b	0.13624756
30	0x3e1e262a	0.15444246
31	0x3de49f3c	0.11163184
32	0xbd0e5722	-0.034751065
33	0x3de56cd5	0.11202399
34	0xbe1af07e	-0.15130803
35	0x3de775a7	0.11301737
36	0x3c62613f	0.013817131
37	0x3d4f5fb6	0.050628386
38	0x3c9e0864	0.01929111
39	0x3e9657af	0.29363772
40	0xbdcb3195	-0.099215664
41	0x3c25f82f	0.010129972
42	0xbc1698d9	-0.009191715
43	0x3d30abcc	0.04313259
44	0x3c8529f2	0.016255353
45	0x3d200134	0.039063647
46	0x3d0e4bef	0.034740385
47	0xbd8a4402	-0.06751253
48	0x3e368926	0.17825755
49	0xbc98b98b	-0.018643161
50	0xbe2c2410	-0.16810632
51	0x3e5420d3	0.20715646
52	0x3dd71569	0.105021305
53	0xbdcb3c37	-0.099235944
54	0xbdf01951	-0.11723579
55	0x3e543831	0.2072456
56	0x3d756a38	0.05991575
57	0x3d03e77b	0.03220318
58	0xbe4470d8	-0.19183671
59	0x3e17d63d	0.14827819
60	0x3dc24df8	0.094875276
61	0xbc432268	-0.011910059
62	0xbe7a9e11	-0.2447436
63	0xbdc789ea	-0.09743102
64	0xbe05c133	-0.13061981
65	0xbe299fb6	-0.16564831
66	0xbd67e1b2	-0.056611724
67	0xbda45e68	-0.08025819
68	0x3e06eca8	0.13176215
69	0x392028ff	0.00015274061
70	0xbe003199	-0.1251892
71	0xbd95bd77	-0.07311528
72	0x3e294cff	0.16533278
73	0x3dc06b95	0.0939552
74	0x3df79ae1	0.12090088
75	0x3db23cf6	0.087030336
76	0x3db47eae	0.08813225
77	0x39808c7b	0.0002451873
78	0xbd2d423c	-0.042299494
79	0xbd401a91	-0.046900336
80	0x3d2b713e	0.041856043
81	0xbc74af98	-0.014934443
82	0xbd56052b	-0.052251022
83	0x3e999ba7	0.30001566
84	0xbddfafa5	-0.109221734
85	0x3db5a968	0.08870202
86	0x3dcdbd56	0.100458786
87	0x3e358901	0.17728044
88	0xbc836895	-0.01604108
89	0x3db026d8	0.08601159
90	0x3e024222	0.1272054
91	0x3e22c695	0.15896066
92	0xbd763ab9	-0.060114596
93	0x3da457d6	0.08024566
94	0x3da4b733	0.08042755
95	0x3da266e1	0.07929779
96	0xbe193fd9	-0.14965762
97	0x3d9f9fa8	0.07794124
98	0x3e5404e5	0.20704992
99	0xbd1f6cd1	-0.038922135
100	0x3de2a28d	0.1106616
101	0x3d1d0042	0.038330324
102	0x3de2a44e	0.11066495
103	0xbe8ef59f	-0.2792177
104	0xbe1fcfa6	-0.15606555
105	0xbd59df38	-0.053191394
106	0xbc250d7d	-0.010074017
107	0x3e50ad1d	0.20378537
108	0x3db53323	0.08847644
109	0x3d9f5f27	0.07781821
110	0x3d8f0685	0.069836654
111	0x3e28cddc	0.16484779
112	0xbdd38414	-0.10327926
113	0xbd241f9c	-0.040069208
114	0x3c43daa5	0.011953984
115	0x3e2b9fa5	0.16760118
116	0xbc9355c1	-0.017985227
117	0x3d568528	0.05237308
118	0x3c0c666c	0.008569341
119	0x3d53f574	0.051747754
120	0x3e08e24b	0.13367574
121	0x3d9e47e0	0.07728553
122	0x3b8ba50b	0.004261618
123	0xbe0b3c32	-0.13597181
124	0x3e4d420f	0.2004473
125	0xbd26b392	-0.040698595
126	0xbc4ed530	-0.01262407
127	0xbe459cb3	-0.19298057
128	0x3e127829	0.1430365
129	0xbd3240fd	-0.04351901
130	0x3b4a6bac	0.0030886931
131	0xbe1f642d	-0.15565558
132	0xbdd63350	-0.10459006
133	0x3db3d3ee	0.08780657
134	0xbc1f52f6	-0.009724369
135	0x3ec750b9	0.38928774
136	0x3e2a013f	0.16602038
137	0x3d31b150	0.04338199
138	0x3d80512d	0.06265483
139	0x3e035f43	0.12829308
140	0xbe91196b	-0.28339705
141	0xbdddb7c5	-0.10826067
142	0x3e15d1b8	0.14630783
143	0x3d9cb370	0.076514125
144	0xbd04da1e	-0.032434575
145	0x3d3130b9	0.043259356
146	0x3c0c660e	0.008569254
147	0xbdd979ac	-0.1061891
148	0x3df8b710	0.121442914
149	0x3d94fd85	0.072749175
150	0xbafeedbb	-0.0019449511
151	0xbe2947f5	-0.16531356
152	0xbd141313	-0.036151003
153	0xbde35590	-0.11100304
154	0xbdcfe463	-0.10150983
155	0xbbfabe6f	-0.007652096
156	0x3dfe8eda	0.124295905
157	0x3e253571	0.16133668
158	0xbde6a3f7	-0.112617426
159	0x3abbdcc2	0.0014332759
160	0xbe0c472f	-0.1369903
161	0x3e1bbe9c	0.1520943
162	0x3e023002	0.12713626
163	0x3c04979f	0.00809279
164	0x3dad8613	0.08472838
165	0x3e43c204	0.1911698
166	0x3e1702ce	0.14747164
167	0xbe799eeb	-0.24377029
168	0x3de77061	0.113007315
169	0xbe433440	-0.190629
170	0xbda76ce1	-0.08175064
171	0x3dec06b4	0.11524716
172	0x3e2e7313	0.17036085
173	0x3e2e901b	0.1704716
174	0x3e4feba8	0.2030474
175	0x3ca7e309	0.020494001
176	0x3c41fb77	0.011839739
177	0x3df7f901	0.121080406
178	0x3d94bb0a	0.07262237
179	0xbbc3f04d	-0.005979574
180	0xbe61864c	-0.22023886
181	0x3caa65d9	0.020800518
182	0x3d8b0ef4	0.067899615
183	0xbe63a1c1	-0.22229673
184	0xbdef3e8b	-0.11681851
185	0x3d899d99	0.067195125
186	0x3e031d1b	0.12804072
187	0x3b6d43d8	0.0036203768
188	0x3e0536dc	0.13009208
189	0xbc66fa7f	-0.014097809
190	0x3d837d28	0.06420356
191	0x3e00b44c	0.12568778
192	0xbe1de390	-0.1541884
193	0x3abcb6c5	0.0014397731
194	0x3e2bc72c	0.16775197
195	0x3da81da2	0.08208777
196	0x3c829fb7	0.015945299
197	0xbcd465de	-0.02592748
198	0x3de1e210	0.11029446
199	0x3e378620	0.17922258
200	0x3d9f7772	0.07786454
201	0x3d03b055	0.032150585
202	0x3d88a0ea	0.06671317
203	0xbe09e9fb	-0.13468163
204	0xbda40a54	-0.080097824
205	0x3dbc15d6	0.091838524
206	0x3d3e8cc1	0.046520952
207	0x3d8ff795	0.070296444
208	0xbde1309f	-0.10995602
209	0x3d27a120	0.040925145
210	0xbdb414cc	-0.08793029
211	0xbead6585	-0.33866516
212	0xbe271701	-0.16317369
213	0x3e2aa5ee	0.1666486
214	0x3de6058a	0.11231525
215	0xbe4931d9	-0.19647922
216	0xbe2e1a9e	-0.17002341
217	0x3d01a7b9	0.031654093
218	0xbdc136dc	-0.09434292
219	0x3dc828fd	0.09773443
220	0x3d50912c	0.050919697
221	0xbe05296c	-0.13004082
222	0x3d08e3ff	0.03342056
223	0x3e444b1f	0.19169281
224	0xbd3a1aa0	-0.045435548
225	0xbde996eb	-0.114057384
226	0x3d81b9d9	0.06334276
227	0xbde453a3	-0.11148765
228	0x3e391ef5	0.18078215
229	0x3ddb0e26	0.10696058
230	0x3e3da11a	0.18518487
231	0xbe6b353a	-0.22969523
232	0xbdabc421	-0.08387018
233	0x3dd4be67	0.10387879
234	0x3cd11aed	0.025525535
235	0x3e27ef24	0.16399819
236	0x3e524841	0.20535375
237	0x3dcb337d	0.0992193
238	0x3e313cdf	0.17308377
239	0xbdbe98cf	-0.0930649
240	0xbdc038d3	-0.09385838
241	0x3d9b519b	0.075839244
242	0xbda3855c	-0.07984421
243	0x3e0c0630	0.13674235
244	0xbd9e8c97	-0.07741659
245	0xbcdeb515	-0.027185956
246	0x3e221ad6	0.1583055
247	0xbdfb3f00	-0.12267876
248	0x3e367ea6	0.1782175
249	0x3db0326d	0.08603368
250	0x3e35c5d6	0.1775125
251	0xbddc5797	-0.10758894
252	0xbd6dd29f	-0.058062192
253	0xbd693110	-0.056931555
254	0x3dd171e5	0.10226802
255	0xbdf2840d	-0.11841593

gcn2.nn.2.bias f4 [32]
0	0xbe1200a4	-0.14258057
1	0x3d6d26e8	0.057898432
2	0x3d3f9638	0.04677412
3	0x3c37d6e2	0.011220666
4	0xbd3913d5	-0.04518493
5	0xbcfb2d00	-0.030661106
6	0x3e12b617	0.14327274
7	0x3e2a6bcf	0.16642688
8	0xbd9ede6f	-0.077572696
9	0xbbc6047e	-0.006043016
10	0x3e009238	0.12555778
11	0x3db513f0	0.088416934
12	0xbe063dfa	-0.1310958
13	0x3e08b6f2	0.13351038
14	0x3e1e3ad0	0.15452123
15	0xbc285b3d	-0.010275659
16	0xbe1d12e0	-0.15339231
17	0xbe262a94	-0.1622718
18	0xbe1fb758	-0.15597284
19	0xbd40682d	-0.04697435
20	0x3de5e622	0.11225535
21	0x3ddbdbbc	0.107352704
22	0xbe000a86	-0.12504014
23	0xbd9f5230	-0.07779348
24	0x3d17a829	0.037025604
25	0x3c967496	0.01836614
26	0xbd8035b6	-0.062602445
27	0x3d5dfc45	0.05419566
28	0x3d0fb9ac	0.03508918
29	0xbba31479	-0.0049768058
30	0x3cf0dfb8	0.029403552
31	0x3cf4e27c	0.029893152

gcn2.nn.4.weight f4 [3, 32]
0	0xbe3144df	-0.17311428
1	0xbe18619c	-0.14880985
2	0x3d769b14	0.060206488
3	0x3dea77c3	0.11448624
4	0xbe8fb663	-0.28068838
5	0x3e295c1d	0.16539045
6	0xbc199762	-0.009374471
7	0x3e454e36	0.19268116
8	0x3e0bf16b	0.13666312
9	0xbda69f1e	-0.08135818
10	0x3db989e5	0.090595044
11	0xbda57ff4	-0.08081046
12	0xbd5da243	-0.054109823
13	0x3e1937ce	0.14962694
14	0x3d7a436a	0.061099447
15	0xbc1c5ec6	-0.00954408
16	0xbe44b856	-0.19210944
17	0xbddabba2	-0.10680319
18	0x3e21d4b8	0.15803802
19	0xbde812e4	-0.11331728
20	0x3d679c97	0.05654582
21	0x3d909ba3	0.07060935
22	0xbd33fa23	-0.04393972
23	0xbc7a2276	-0.015267005
24	0xbd6d80d6	-0.057984196
25	0xbda2392f	-0.07921063
26	0xbe1e46cb	-0.15456693
27	0xbe12685b	-0.14297621
28	0xbd543af1	-0.051814023
29	0x3d7ecf46	0.06220939
30	0xbd5e2e51	-0.05424339
31	0x3e69568e	0.22786924
32	0x3e5e03ba	0.21681109
33	0xbddecf4f	-0.10879385
34	0xbdf1c8f6	-0.118059084
35	0xbd77d511	-0.06050593
36	0x3d0aad52	0.033856697
37	0x3e081815	0.13290437
38	0x3d06a039	0.032867644
39	0xbdd37834	-0.10325661
40	0xbd36ef53	-0.04466183
41	0x3db2d019	0.08731098
42	0x3e06d0c6	0.13165578
43	0xbddd4daf	-0.108058326
44	0x3e2cb3d9	0.16865481
45	0x3e167ee3	0.14696841
46	0xbbfc32c0	-0.0076964796
47	0x3e38711a	0.18011895
48	0x3c17932e	0.009251399
49	0xbdea32b4	-0.11435452
50	0x3e434e9a	0.19072953
51	0xbe3278ef	-0.17428945
52	0xbe39867e	-0.18117711
53	0x3de02d23	0.10946109
54	0x3e0f6736	0.14004216
55	0x3dabd6b7	0.08390563
56	0xbe33bdce	-0.17552873
57	0xbda57e4c	-0.0808073
58	0x3dcecb66	0.10097389
59	0xbc704faf	-0.014667436
60	0x3e27f1ea	0.16400877
61	0x3d7a19e7	0.06105986
62	0xbd4aa8f1	-0.04947752
63	0x3c180477	0.009278408
64	0x3d08a0a2	0.033356316
65	0x3dc53eda	0.096311286
66	0x3ddbd8ab	0.107346855
67	0x3e218457	0.1577314
68	0xbd1ae2e1	-0.037814025
69	0xbdca6306	-0.098821685
70	0x3d2bf280	0.041979313
71	0xbcd5720e	-0.026055362
72	0x3d0e7016	0.034774862
73	0x3e4d8161	0.20068885
74	0xbd69bc34	-0.05706425
75	0x3d1c7072	0.038193174
76	0xbd820588	-0.06348711
77	0x3e27876a	0.1636025
78	0x3ded87c7	0.11598163
79	0x3e140379	0.1445445
80	0xbe09d100	-0.13458633
81	0x3dedb40f	0.11606609
82	0xbe468763	-0.19387583
83	0xbdf54766	-0.11976509
84	0x3d417487	0.04723027
85	0x3c0c1673	0.008550274
86	0xbcdc38bb	-0.02688252
87	0x3df77bf0	0.12084186
88	0xbdc236c8	-0.09483105
89	0xbe2012a3	-0.1563211
90	0xbd82fb52	-0.06395592
91	0x3db373d2	0.08762325
92	0x3d7eabae	0.062175445
93	0x3e167b8f	0.14695571
94	0xbe502db3	-0.20329933
95	0x3da02dab	0.078212105

gcn2.nn.4.bias f4 [3]
0	0xbad9ad33	-0.0016607404
1	0x3e1b0511	0.15138651
2	0xbde55313	-0.11197486
