refinement/models/GNN_refinement.pt (torch, 5327 bytes, 8 tensors)

gcn.nn.0.weight f4 [16, 6]
0	0x3d472670	0.04862064
1	0xbecd0640	-0.4004383
2	0x3edf8e5c	0.436633
3	0x3f06769b	0.5252473
4	0xbd9a7cde	-0.07543348
5	0x3eda5113	0.4263998
6	0xbef590c6	-0.47962016
7	0x3eb730b6	0.3577935
8	0xbe37663f	-0.17910098
9	0xbe71df7d	-0.2362041
10	0xbef111e5	-0.47083965
11	0x3e2f3f08	0.17113888
12	0xbee2185d	-0.44159213
13	0xbe12b704	-0.14327627
14	0xbeac4e87	-0.33653662
15	0x3ef3c276	0.476093
16	0xbe206428	-0.15663207
17	0x3e7d4b44	0.24735743
18	0x3e93b554	0.2884928
19	0xbec1d507	-0.3785784
20	0xbe9b9e65	-0.30394283
21	0xbe831028	-0.25598264
22	0x3de0e8e1	0.10981918
23	0xbf0a21d6	-0.5395788
24	0xbd022213	-0.031770777
25	0x3ef26102	0.47339636
26	0x3d3332ea	0.043749727
27	0x3ee0cb94	0.43905318
28	0xbdd08984	-0.10182479
29	0x3ecaa7ba	0.3958109
30	0x3ef93d1e	0.4867944
31	0xbf17aa1f	-0.5924396
32	0xbe11666f	-0.14199232
33	0x3ded9b68	0.11601907
34	0xbf16dc4f	-0.58929914
35	0xbf0f50b7	-0.55982536
36	0xbea486c9	-0.32134083
37	0x3d37f0b2	0.04490728
38	0xbe53168d	-0.20614071
39	0xbefe901c	-0.49719322
40	0xbe710eb1	-0.2354076
41	0xbd306728	-0.043067127
42	0xbe926e20	-0.28599644
43	0xbf00922e	-0.5022305
44	0x3eb17485	0.3465921
45	0xbe125f8f	-0.14294265
46	0x3dfab4e6	0.12241535
47	0xbf1ad990	-0.60488224
48	0x3e8f8ac9	0.28035572
49	0xbea3b71d	-0.31975642
50	0xbd6c542d	-0.057697464
51	0xbebffe28	-0.37498593
52	0x3dabfd0c	0.08397874
53	0x3e8c5627	0.2740948
54	0xbec77b3a	-0.38961202
55	0xbd7c3382	-0.06157256
56	0xbddd03e3	-0.10791757
57	0xbe4797b5	-0.19491465
58	0xbe2d431b	-0.1692013
59	0x3ea02d50	0.3128457
60	0xbeecad60	-0.46226025
61	0x3ddb59e9	0.107105084
62	0x3e615b77	0.22007547
63	0xbedc1363	-0.4298354
64	0x3eaee53c	0.34159267
65	0xbe4423e8	-0.19154322
66	0xbe5079c7	-0.20358954
67	0xbf2e1a8b	-0.6800925
68	0x3dfbcd8c	0.12295064
69	0xbe0db525	-0.13838632
70	0xbf27d01e	-0.65551937
71	0x3e9e3c3b	0.30905327
72	0xbf0008c8	-0.500134
73	0xbcd9ade1	-0.02657217
74	0x3e206206	0.15662393
75	0xbf375425	-0.7161277
76	0x3eb91d05	0.36154953
77	0x3ea5e5cc	0.32401884
78	0xbeeaea25	-0.45881763
79	0xbf32ed03	-0.698929
80	0x3e782e2d	0.24236365
81	0xbef845ca	-0.48490745
82	0xbf304451	-0.6885424
83	0xbe688c89	-0.2270986
84	0xbe2e65e5	-0.17031057
85	0xbf0e4e71	-0.5558844
86	0xbdd93706	-0.10606198
87	0xbdaeea47	-0.085407786
88	0xbea93f6b	-0.33056197
89	0x3e1fe53d	0.15614791
90	0x3e7a182d	0.24423285
91	0xbe48ce2a	-0.19609895
92	0x3e07e2e0	0.1327014
93	0xbe229f79	-0.15881146
94	0xbe83360d	-0.25627175
95	0x3eef487f	0.46734998

gcn.nn.0.bias f4 [16]
0	0x3cc7548b	0.024332305
1	0xbe063355	-0.13105519
2	0xbd4d1c09	-0.050075565
3	0xbd44bf41	-0.048033956
4	0xbd4592d6	-0.048235737
5	0x3e270094	0.16308814
6	0x3d10b694	0.03533037
7	0xbd7ffa7c	-0.06249474
8	0x3e9ff464	0.31241143
9	0x3e958522	0.29203135
10	0x3d3a3c3c	0.0454676
11	0x3d5dbe76	0.054136716
12	0x3e930008	0.2871096
13	0x3e7d7083	0.24749951
14	0x3e89bf3c	0.26903713
15	0xbe0512f2	-0.12995508

gcn.nn.2.weight f4 [16, 16]
0	0x3e5703bb	0.20997517
1	0xbc170ce1	-0.009219379
2	0xbdc7f6f9	-0.09763903
3	0xbe87e77b	-0.26543793
4	0x3d125e76	0.035734616
5	0x3ddbe929	0.10737831
6	0xbed10974	-0.40827525
7	0xbeab1c5d	-0.33420077
8	0x3e2f99ec	0.1714856
9	0x3e05ad36	0.13054356
10	0xbece3f4f	-0.40282676
11	0xbdaec829	-0.08534271
12	0xbd2f0ce1	-0.04273689
13	0x3db58f3c	0.088652104
14	0x3e27380a	0.16329971
15	0xbdc834c3	-0.097756885
16	0xbe39c6ad	-0.18142195
17	0xbea73d33	-0.3266388
18	0xbc225072	-0.009906875
19	0xbd3ba541	-0.045811895
20	0xbe7e0a1e	-0.24808547
21	0xbe46629c	-0.19373554
22	0x3ece2526	0.40262717
23	0xbea4f69e	-0.32219404
24	0xbd38d5a4	-0.04512562
25	0xbe0cd08c	-0.1375143
26	0x3ebd015f	0.3691511
27	0x3d99c5ca	0.075084284
28	0x3e4ca4a2	0.19984677
29	0x3e230605	0.15920265
30	0x3d8d5f1c	0.06902906
31	0xbdd43c17	-0.10363024
32	0xbde648e9	-0.11244375
33	0xbd5697df	-0.05239093
34	0xbec217cf	-0.3790879
35	0x3d6ff9bf	0.058587786
36	0x3e3e0f93	0.18560629
37	0xbdc991b3	-0.09842243
38	0x3e9befee	0.3045649
39	0xbe4a5706	-0.1975976
40	0xbdb00f79	-0.08596701
41	0xbdaf1803	-0.08549502
42	0x3e4040cd	0.1877472
43	0x3ec8dcd5	0.3923098
44	0x3da300d2	0.07959141
45	0x3e0e2080	0.13879585
46	0x3e3e3866	0.18576202
47	0xbd94ec02	-0.072715774
48	0x3e2b4e69	0.1672913
49	0xbe034b30	-0.1282165
50	0xbd6b119f	-0.05738985
51	0xbd6910ae	-0.056900673
52	0xbebdb750	-0.3705392
53	0xbea252df	-0.3170385
54	0xbe400f92	-0.1875594
55	0x3e00a15a	0.1256155
56	0x3d6896a3	0.056784283
57	0x3d25a829	0.040443573
58	0xbe842021	-0.25805762
59	0xbd25358b	-0.040334266
60	0xbdf409b9	-0.11915917
61	0xbe95de5d	-0.29271212
62	0xbd8af6a9	-0.06785328
63	0xbe6d27d0	-0.23159719
64	0xbe7e3ea1	-0.24828579
65	0x3e8edb2f	0.279016
66	0x3df90e6f	0.12160956
67	0xbe8f0835	-0.2793595
68	0xbe7ec249	-0.24878801
69	0x3e207823	0.15670829
70	0xbedeec66	-0.43539733
71	0x3df268a8	0.11836368
72	0xbbb9cdda	-0.0056702914
73	0xbd9abacb	-0.07555159
74	0xbea14782	-0.3149987
75	0xbeebf0a0	-0.4608202
76	0xbdfb108f	-0.12259018
77	0x3dfca72a	0.123365715
78	0x3e69c3c7	0.2282859
79	0xbe0e5c16	-0.13902315
80	0xbd9b5cdb	-0.0758607
81	0xbe305df0	-0.17223334
82	0xbdb4a1b3	-0.08819904
83	0xbe096cb8	-0.13420379
84	0xbe0d6fa6	-0.13812122
85	0x3d1e41ee	0.038637094
86	0xbd8e5abc	-0.069509
87	0x3d9f4e76	0.07778637
88	0xbdaedea9	-0.08538563
89	0x3d907a3a	0.07054563
90	0x3daecf51	0.08535636
91	0x3e6bbbc6	0.23020849
92	0xbe330122	-0.17480901
93	0x3d90f3df	0.07077765
94	0xbdad151d	-0.08451293
95	0xbed02823	-0.40655622
96	0x3e2e2349	0.17005648
97	0xbe0472b4	-0.12934381
98	0x3e13127a	0.14362517
99	0xbe86db00	-0.2633896
100	0x3e21d62a	0.15804353
101	0xbe71bbec	-0.23606843
102	0xbd90b4c3	-0.070657276
103	0xbe8481f7	-0.25880405
104	0x3e4833c4	0.19550997
105	0xbd7728af	-0.060341533
106	0x3e514b48	0.20438874
107	0xbea23fc2	-0.31689268
108	0x3e475095	0.19464333
109	0xbe1624e5	-0.14662512
110	0xbe868d57	-0.2627971
111	0xbe3ca0e0	-0.18420744
112	0x3e87ba80	0.26509476
113	0x3e25a4a2	0.16176084
114	0xbe072dde	-0.1320109
115	0x3e284223	0.16431479
116	0xbe2d5013	-0.16925077
117	0xbdc84666	-0.097790524
118	0x3dc09b59	0.0940463
119	0x3e2258cd	0.15854187
120	0xbe5ddbbb	-0.21665852
121	0x3c8d1bea	0.017225225
122	0xbe186194	-0.14880973
123	0x3b20077a	0.002441852
124	0x3d7a2c2e	0.06107729
125	0x3ea72e40	0.32652473
126	0x3e322c7c	0.17399782
127	0x3e21415e	0.15747592
128	0x3d588bd0	0.05286771
129	0xbd93b3ac	-0.07212004
130	0x3dc6811e	0.09692596
131	0xbd1304af	-0.03589314
132	0x3e5d926a	0.21637884
133	0x3eb7a69a	0.35869294
134	0x3e5bd14a	0.21466556
135	0x3de556d3	0.11198201
136	0x3cb51730	0.022105783
137	0xbd81c4df	-0.06336378
138	0xbd3b5d7e	-0.045743458
139	0xbe6864f9	-0.22694768
140	0xbe343802	-0.1759949
141	0x3d1aebff	0.03782272
142	0x3e3abd34	0.18236238
143	0xbcc2dd6b	-0.023787221
144	0x3bdb8d5f	0.0067002024
145	0xbdec552a	-0.11539681
146	0xbd82977d	-0.0637655
147	0xbda2ec7d	-0.07955263
148	0xbe51d6aa	-0.20492044
149	0xbe87b354	-0.26504004
150	0x3e134bf5	0.14384444
151	0xbe2349e0	-0.1594615
152	0x3d82489c	0.063615054
153	0x3e96fd8b	0.29490313
154	0x3e9315af	0.2872748
155	0xbcacdcb0	-0.021101326
156	0x3e6006ac	0.21877545
157	0x3db8e0fa	0.09027286
158	0x3db3a2d9	0.08771295
159	0xbc908eff	-0.01764631
160	0x3e16db41	0.14732076
161	0xbe086dd2	-0.13323143
162	0x3dafdd8e	0.0858718
163	0xbd878c1e	-0.06618522
164	0x3e46ae15	0.19402345
165	0xbe0b12cc	-0.13581389
166	0x3eb3d3e5	0.351226
167	0xbe35918e	-0.17731306
168	0xbe51e25f	-0.2049651
169	0x3dda508a	0.10659893
170	0x3e2713db	0.16316168
171	0x3ea683ba	0.32522374
172	0x3de2ff11	0.11083806
173	0x3e90ca43	0.28279313
174	0x3cfb4474	0.03067229
175	0x3caf86bb	0.02142655
176	0xbea087f0	-0.31353712
177	0xbca5aede	-0.020224985
178	0xbe2c653b	-0.16835491
179	0x3e582d20	0.21110964
180	0xbe33a7b4	-0.17544442
181	0xbe9ab5a9	-0.3021672
182	0xbd9fe45e	-0.078072295
183	0xbe6c305d	-0.23065324
184	0xbe090224	-0.13379723
185	0x3de2c2a4	0.11072281
186	0x3e8b83bb	0.2724894
187	0xbedcfe46	-0.43162745
188	0x3e04a029	0.12951721
189	0xbe492ef8	-0.19646823
190	0xbd39decd	-0.045378495
191	0x3d2297fd	0.03969573
192	0x3e0aa1e9	0.13538326
193	0xbd04111a	-0.03224287
194	0xbe8e22e5	-0.27760997
195	0x3d751414	0.0598336
196	0x3df4c139	0.11950917
197	0xbbbee1f5	-0.005825276
198	0xbdb20ab1	-0.086934455
199	0xbe85ef46	-0.26159114
200	0xbba3a3d6	-0.004993896
201	0x3d998bb3	0.07497349
202	0xbcf989eb	-0.030461272
203	0x3ea0963f	0.3136463
204	0xbdcaf19b	-0.09909364
205	0x3eaf9aed	0.34297886
206	0x3e4cce26	0.20000514
207	0xbd2016ae	-0.03908413
208	0x3bdba315	0.0067027905
209	0x3dbd7775	0.092513
210	0xbd708107	-0.0587168
211	0xbd1d8b47	-0.038462903
212	0x3c90d810	0.017681152
213	0x3d2a1af9	0.04152963
214	0x3e8891d9	0.26673773
215	0x3e7a6a66	0.2445465
216	0x3e11a579	0.14223279
217	0x3dfbd3ee	0.12296282
218	0x3ec55848	0.38543916
219	0xbe8d7bca	-0.27633506
220	0x3e227f34	0.15868837
221	0xbe1a47f6	-0.15066513
222	0xbdd62e78	-0.10458082
223	0xbc5c0a6d	-0.01343022
224	0xbe7289db	-0.236854
225	0xbd69ee4d	-0.057112027
226	0x3db9914f	0.090609185
227	0x3daa048a	0.08301647
228	0x3dd8f6e6	0.10593967
229	0x3db62299	0.08893318
230	0x3eb09038	0.3448503
231	0x3e03d33a	0.12873545
232	0x3dcfbd2a	0.10143502
233	0xbcabda04	-0.020977981
234	0x3e3ff810	0.18746972
235	0xbc09a0cb	-0.008400152
236	0x3dbb5cec	0.09148583
237	0x3e805ac1	0.2506924
238	0x3e31ff60	0.17382574
239	0x3d239add	0.03994261
240	0xbe10cb6d	-0.14140101
241	0x3d832045	0.06402639
242	0xbe951ee3	-0.29125127
243	0x3e43ac78	0.1910876
244	0x3d9e053e	0.077158436
245	0x3d36d991	0.04464108
246	0xbc9946cd	-0.018710518
247	0xbe8fea0e	-0.28108257
248	0xbcc156d3	-0.023600971
249	0xbd333840	-0.043754816
250	0xbe27cf01	-0.1638756
251	0x3eab8382	0.3349877
252	0x3da11709	0.07865722
253	0x3e92d3be	0.2867717
254	0x3dcf3bf1	0.10118855
255	0x3e029e63	0.12755732

gcn.nn.2.bias f4 [16]
0	0xbd920b1d	-0.07131026
1	0xbbe3f644	-0.0069568474
2	0xbc906922	-0.017628256
3	0x3d943e89	0.0723849
4	0x3e1f52b5	0.15558894
5	0x3e02919e	0.12750861
6	0x3bbb9e44	0.005725654
7	0x3e414171	0.1887262
8	0xbd92aa3f	-0.07161378
9	0xbe0cbbdb	-0.13743536
10	0x3ce2f34f	0.02770391
11	0x3e48372d	0.19552298
12	0x3d72a4f1	0.05923933
13	0xbddca104	-0.10772899
14	0x3e71a91b	0.23599665
15	0x3d408288	0.046999484

gcn.nn.4.weight f4 [16, 16]
0	0x3e13d2e0	0.14435911
1	0x3e1b1819	0.15145911
2	0x3d92f738	0.071760595
3	0xbe2b4999	-0.16727294
4	0xbe1e8236	-0.15479359
5	0x3bab9fa5	0.005237537
6	0xbc463e65	-0.012099837
7	0x3e0f47ea	0.13992277
8	0x3e525617	0.20540653
9	0xbd07337e	-0.03300809
10	0x3e175ab4	0.14780694
11	0xbcb42a77	-0.021992905
12	0xbde5b931	-0.11216963
13	0x3e43886f	0.19095014
14	0x3dd12d6e	0.10213743
15	0x3e8132b9	0.2523401
16	0xbef56fd9	-0.47936895
17	0xbd7eed03	-0.06223775
18	0xbdc2a3af	-0.095038764
19	0x3dab7ffb	0.0837402
20	0x3e490e8a	0.19634452
21	0xbd297fe7	-0.041381743
22	0xbe2285e6	-0.1587139
23	0x3d94cbf5	0.07265464
24	0x3dbaba3a	0.09117551
25	0x3e081e11	0.1329272
26	0xbe68514f	-0.22687267
27	0x3efc1753	0.49236545
28	0xbc32b4a0	-0.010907322
29	0xbed6e4e9	-0.4197152
30	0x3d36e407	0.044651058
31	0x3d8b741b	0.06809255
32	0xbe403810	-0.18771386
33	0x3eb9fcb9	0.36325625
34	0x3e88cb32	0.26717526
35	0xbdc667a6	-0.09687738
36	0xbe29b32d	-0.16572256
37	0x3e96db9d	0.29464427
38	0x3e86e3ab	0.26345572
39	0x3c76676d	0.015039307
40	0x3d500778	0.050788373
41	0x3e93515a	0.28773004
42	0x3d869d76	0.06573002
43	0xbd9e275b	-0.0772235
44	0x3e46b267	0.19403993
45	0xbe44dc7a	-0.1922473
46	0x3df95860	0.12175059
47	0x3d9e7d0e	0.07738696
48	0xbc88d3ed	-0.016702617
49	0xbde4ccca	-0.11171873
50	0xbe9bf675	-0.3046147
51	0x3d1182f5	0.03552528
52	0x3e99585a	0.2995022
53	0x3d0cb401	0.034351353
54	0xbea3ac90	-0.31967592
55	0xbd9016b5	-0.07035581
56	0xbe824224	-0.25441086
57	0xbe106f96	-0.14105067
58	0xbe1a1d4b	-0.15050237
59	0x3eea41cd	0.45753327
60	0xbe623e62	-0.2209411
61	0xbdae0793	-0.084975384
62	0xbdc904e0	-0.09815383
63	0xbdb43e92	-0.08800997
64	0x3e3708f5	0.1787451
65	0xbe0e781d	-0.13913007
66	0xbcff3477	-0.031152947
67	0xbdc9c895	-0.09852711
68	0x3e3ca510	0.18422341
69	0x3df53f0a	0.11974914
70	0x3e52e93f	0.20596789
71	0xbd1c3842	-0.03813959
72	0xbe9ddf1a	-0.30834275
73	0xbe8e0f90	-0.27746248
74	0xbe442d59	-0.19157924
75	0xbebd680f	-0.36993453
76	0x3e2cd482	0.1687794
77	0x3cfbad3e	0.030722257
78	0xbdd10aff	-0.102071755
79	0x3e5d0488	0.2158376
80	0x3ea3bff9	0.319824
81	0xbe5443f2	-0.20729044
82	0xbec8e203	-0.39234933
83	0xbcd5973d	-0.026073093
84	0x3e1a13bf	0.15046595
85	0xbdc71230	-0.09720266
86	0xbc5f1fef	-0.013618453
87	0xbda13e58	-0.07873219
88	0xbe8ef287	-0.2791941
89	0xbe9b90a9	-0.30383804
90	0xbd20ca62	-0.039255507
91	0xbdf4aa31	-0.11946524
92	0x3ce29ff8	0.02766417
93	0x3d8aa90e	0.06770526
94	0xbe83546a	-0.2565034
95	0xbe3154c5	-0.17317493
96	0xbe767cad	-0.24070998
97	0xbe61cafa	-0.22050086
98	0x3e3aa0da	0.18225423
99	0xbebfe944	-0.37482655
100	0x3d340f6b	0.043960016
101	0x3e46fb1b	0.19431727
102	0xbe8204dc	-0.25394332
103	0x3e871473	0.2638279
104	0x3e34eea0	0.17669153
105	0xbd3d6e9a	-0.046248056
106	0x3e05eb8c	0.13078135
107	0x3c3b1b86	0.011420136
108	0x3da95c6e	0.08269583
109	0x3e3bbee3	0.18334536
110	0xbe4fdee8	-0.20299876
111	0x3e814e6e	0.2525515
112	0x3d9a8120	0.0754416
113	0x3c712903	0.014719251
114	0x3dcaa591	0.098948605
115	0x3e13d10a	0.14435211
116	0x3d547d05	0.05187704
117	0x3e4748a3	0.19461302
118	0x3ec6b501	0.3880997
119	0x3e5dd8ea	0.21664777
120	0xbe8accee	-0.27109474
121	0xbdce8a55	-0.100849785
122	0xbdaa8708	-0.083265364
123	0xbc844f8d	-0.016151214
124	0x3c9b0330	0.018922418
125	0xbd98d8d1	-0.074632294
126	0x3e7bc71d	0.24587674
127	0xbdeeb14c	-0.116549104
128	0x3c8caebd	0.017173165
129	0xbe2416d6	-0.16024336
130	0xbe4f4b92	-0.20243672
131	0xbe5eec04	-0.2176972
132	0xbe735176	-0.23761544
133	0x3c361174	0.01111256
134	0x3e680b0a	0.22660461
135	0x3def76a4	0.11692551
136	0xbd16ccf5	-0.036816556
137	0xbe283c26	-0.16429195
138	0xbc57652e	-0.013146682
139	0xbe474bf8	-0.19462574
140	0xbe46ddb4	-0.1942051
141	0xbce1b23a	-0.027550805
142	0x3e01c21e	0.12671706
143	0x3e39a3fa	0.18128958
144	0xbd176443	-0.03696085
145	0x3d1488ea	0.036263384
146	0x3de13aba	0.10997529
147	0xbe490d62	-0.19634011
148	0x3e8c826b	0.2744325
149	0x3ea12e62	0.314807
150	0xbd92fdf3	-0.07177343
151	0xbe11e50f	-0.14247535
152	0xbe35ec01	-0.1776581
153	0xbdfc863a	-0.12330289
154	0x3e0ad6ab	0.13558452
155	0xbeb9ef0c	-0.3631519
156	0x3e9004e9	0.28128746
157	0x3dd8bd17	0.10582941
158	0x3be2d335	0.0069221505
159	0x3d6ffc2f	0.05859011
160	0xbdbc545e	-0.09195779
161	0x3d8e8176	0.069582865
162	0xbdd3bb73	-0.103384875
163	0x3e901571	0.28141358
164	0xbddf0c6b	-0.108910404
165	0xbdc4dc0c	-0.09612283
166	0xbe34ad04	-0.17644125
167	0x3e109023	0.14117484
168	0xbc7d0de9	-0.015445211
169	0x3e7837b8	0.24240005
170	0x3e1cc323	0.15308814
171	0x3e9afe4e	0.30272144
172	0x3e366059	0.17810191
173	0xbe23c6a4	-0.15993744
174	0x3e48b865	0.19601591
175	0xbd0a7a5a	-0.03380809
176	0x3e9f16be	0.31072038
177	0xbdf525ba	-0.119700864
178	0xbdb53291	-0.088475354
179	0xbe3870e0	-0.18011808
180	0xbc973792	-0.018459115
181	0xbc800145	-0.015625605
182	0x3e1b5e6f	0.15172742
183	0xbdae2e38	-0.08504909
184	0xbe9d753e	-0.3075351
185	0xbe8dcd32	-0.27695614
186	0xbc812c0e	-0.015768077
187	0x3dff3a79	0.12462325
188	0x3ddcac83	0.107750915
189	0x3e16186c	0.14657754
190	0xbcc1fa4a	-0.023678917
191	0x3e381af6	0.17979035
192	0xbd3b87c2	-0.045783766
193	0x3b825a34	0.003978038
194	0xbe44f164	-0.19232708
195	0x3e626293	0.22107916
196	0xbda57777	-0.08079427
197	0xbd717d46	-0.05895736
198	0x3e738107	0.23779689
199	0x3d854ff1	0.06509388
200	0xbdfc39ce	-0.12315713
201	0x3d790ea8	0.060804993
202	0x3e4da998	0.20084226
203	0xbda03328	-0.07822257
204	0xbe34cad7	-0.17655502
205	0x3c3c3579	0.011487358
206	0xbbf5e4ae	-0.0075040674
207	0xbd856482	-0.06513311
208	0xbe6422c4	-0.22278887
209	0x3ecb4e12	0.39708
210	0xbde7694a	-0.11299379
211	0x3e31b933	0.17355804
212	0xbe3e30c1	-0.18573286
213	0x3df1594b	0.117846094
214	0xbec50089	-0.3847697
215	0xbce40e10	-0.027838737
216	0x3e9ee30d	0.310326
217	0x3ee8b8d0	0.454535
218	0x3e91a22c	0.2844404
219	0x3bcf817a	0.0063325735
220	0xbdfde836	-0.12397806
221	0xbcfb6f54	-0.030692734
222	0xbe47fdb5	-0.19530375
223	0x3d9bfed6	0.076169655
224	0xbbf162da	-0.0073665204
225	0x3e3046b0	0.17214465
226	0x3e6235b8	0.22090805
227	0xbdd6ebd6	-0.10494201
228	0xbe730c64	-0.23735195
229	0xbdcb7b56	-0.09935634
230	0x3e6b52cf	0.22980808
231	0x3e2e2379	0.17005719
232	0xbe8263c4	-0.2546674
233	0x3e120bf4	0.14262372
234	0x3e34f7bb	0.17672627
235	0xbd63f9d6	-0.055658184
236	0xbe5daf87	-0.2164899
237	0xbd19f836	-0.037590228
238	0xbd5052af	-0.050860103
239	0xbe30d28b	-0.17267816
240	0xbe3c0a26	-0.18363246
241	0x3dd483cc	0.10376701
242	0x3e5c1cf0	0.21495414
243	0xbd81a31c	-0.06329939
244	0xbe140c44	-0.14457804
245	0x3ba40c40	0.005006343
246	0xbd46a928	-0.048501164
247	0xbe7155f2	-0.23567942
248	0xbdd57bac	-0.10423979
249	0xbb34a480	-0.002756387
250	0x3a9eca00	0.0012114644
251	0xbd8d0b8c	-0.06886968
252	0xbdc80108	-0.09765822
253	0x3def6db4	0.11690846
254	0xbc4ce1e0	-0.012505025
255	0xbe7128ca	-0.23550716

gcn.nn.4.bias f4 [16]
0	0xbe0de2e8	-0.13856089
1	0x3c359836	0.011083653
2	0x3e87f70b	0.26555666
3	0x3e1c3a4c	0.15256613
4	0x3de323bf	0.110908024
5	0x3e806175	0.25074354
6	0xbdaff153	-0.08590951
7	0x3e301a8b	0.17197625
8	0xbe823322	-0.25429636
9	0x3e297d8f	0.16551803
10	0x3e2fbf1c	0.17162746
11	0x3e571b69	0.2100655
12	0xbe2e55af	-0.17024873
13	0x3e4afdbf	0.19823359
14	0x3bad1779	0.005282339
15	0xbe625f1e	-0.22106597

gcn.nn.6.weight f4 [3, 16]
0	0x3e397bd3	0.18113641
1	0xbe7fd0c0	-0.24981976
2	0xbe05bb9a	-0.13059846
3	0x3ea881bc	0.3291148
4	0x3e0b19a4	0.13584
5	0x3ec1705f	0.37781045
6	0x3e3fa254	0.18714267
7	0x3d279dce	0.04092198
8	0x3e63e4b2	0.22255209
9	0xbc1739dc	-0.009230103
10	0xbe87cca7	-0.26523325
11	0x3e41a15b	0.18909208
12	0xbe5db48d	-0.21650906
13	0xbe92fb36	-0.28707284
14	0x3ecdc0a5	0.4018604
15	0xbde4e7ec	-0.11177048
16	0x3db885c6	0.0900989
17	0x3f052ba7	0.52019733
18	0xbe411521	-0.18855716
19	0x3f00b8b8	0.5028186
20	0xbea03f57	-0.31298324
21	0x3d190e49	0.03736714
22	0x3e2ddc80	0.16978645
23	0xbd9ebdd4	-0.077510506
24	0x3d83f4bf	0.06443166
25	0xbe1cf11c	-0.15326351
26	0x3df61cfb	0.12017246
27	0xbdb3f016	-0.08786027
28	0x3ba40ffe	0.005006789
29	0x3e27cd94	0.16387016
30	0x3cf9f62f	0.030512897
31	0xbdc82bac	-0.09773955
32	0xbd795d93	-0.060880255
33	0xbd236454	-0.039890602
34	0x3e35f5b8	0.17769516
35	0x3d30cc29	0.043163452
36	0xbe391425	-0.18074091
37	0x3dddc337	0.1082825
38	0xbd127b6c	-0.035762236
39	0x3d87c4d7	0.06629341
40	0xbc7ece53	-0.015552121
41	0x3d1f22e7	0.038851645
42	0xbdccab9b	-0.09993669
43	0xbd5f53c2	-0.054523237
44	0x3c1bac6e	0.00950156
45	0xbe0809d4	-0.13284999
46	0xbd66616c	-0.056245252
47	0xbe6c582c	-0.2308051

gcn.nn.6.bias f4 [3]
0	0x3db953b1	0.09049166
1	0x3d654907	0.055977847
2	0x3a88b66a	0.001043034
