refinement/models/GNN_refinement.pt (torch, 12239 bytes, 8 tensors)

gcn.nn.0.weight f4 [32, 6]
00000000: 6f0b 8c3e 9545 b23e a88b 6b3e ba6c 043e
00000010: 6943 053f 35de eabc bc88 1abe 234e f33e
00000020: e86a 4fbe 721d 7abd a9a2 38be 53aa 333e
00000030: 8cd0 80be 3563 0dbf c75c 32be 2d8b 6fbd
00000040: 530b 733c 4e9c 5fbe 037f ec3e 5ac3 fc3e
00000050: ebd0 0dbe 93a5 3cbe 97fd f83e 0a34 a33e
00000060: e16c b43e ea24 cebd 54ea 083f 68d2 b23e
00000070: 19fb 88be 87ca e3be dfeb 99be 1fdb 92bc
00000080: 4887 823e 270b c63c 54c9 a9be d8c4 b33e
00000090: 21da 17be 831f 9fbe 1dbb b73c 9d84 94be
000000a0: 14c9 8dbe ef9a 9c3e ee44 833e 5784 b5be
000000b0: 063d 8ebe b7fe 9ebd 6a85 bdbe c056 7bbe
000000c0: eb12 e8be d2dc ccbe ed21 e73d 104e e5be
000000d0: 6efc a13e 6cf9 28bf c41f c03c 49b3 063f
000000e0: 7718 6d3e 0fc5 0ebf 25d6 8c3e 2034 abbd
000000f0: 656f 82be d5e9 323e fb00 533d 5bbc e23e
00000100: 400c 99bd 239e 0c3f 2799 f0bd 8908 26be
00000110: f8da 42be c955 033e 2dd8 e63e b6c1 173e
00000120: 28bd d4be 565f f9be 6203 60be 0bb6 01be
00000130: a9d1 c03e 562c d9be 186c f1bd 511c 7c3e
00000140: eece 493d 8704 c4bd fb36 423e 493a 0e3d
00000150: 60bf 9fbe 97bd 5e3e 9034 abbe 2447 abbe
00000160: 660f 69be bba2 92be 1ff8 ba3e 021e 58be
00000170: a868 07be 84f7 56be b087 1bbd ad74 9a3e
00000180: dc79 193e c056 833d 185e 83be 6a16 f0be
00000190: fdc6 d4be 2479 153f 7c07 343e 6afd 7c3e
000001a0: 3a4d 843e 9f71 d93e 1388 1ebf 6586 263f
000001b0: c9b1 fdbd cd90 1cbd af44 2c3f 853f fdbb
000001c0: f163 0f3f 73ed 663e 3ba0 2b3e da48 cdbe
000001d0: cbb8 a6bc e6b4 adbe 0c4d f6be 6856 b63d
000001e0: 0be7 be3e 2598 e2bc b24e 5d3e bfec 193e
000001f0: 2824 a5bd d24d d83d e28e 1ebc 227d cebe
00000200: 0612 37be c8a2 cf3e e6e5 103e 34d3 a4be
00000210: 0b5b 4fbe b0b2 973d 070d c43e 87da dbbe
00000220: ab96 24bf f8ac 7b3d ac25 b2be 5db2 e93e
00000230: 8d66 c2be d53e c13e d45a 8e3e c105 22bf
00000240: 5dcc 913c 5afb a33d 5543 713e 1080 a0be
00000250: 39be 503e c0b0 4bbe 0e37 913e 8216 07be
00000260: 3fc6 c03d 83e2 5a3e b010 d7be 2368 983e
00000270: 22e1 623e ef18 5abe 747c aebd d8f8 ccbe
00000280: 435a c9be fa7c 943e 0348 fd3e e89d ac3e
00000290: 9d1d 613e 5b4b 193f f544 913e 5eab 44be
000002a0: d344 3b3e 2c69 b5be 06a9 9d3b 67b3 4d3e
000002b0: fc89 f7be b89c b2be 908c 483e acee 78be
000002c0: 911e 13bf a281 8bbc 0c8a a0be 796b a03d
000002d0: 0cf4 e03e 4a51 04bf 83fe 583e df47 053f
000002e0: 12ba dcbe c0d6 9fbe a4dc 97be 4d97 0bbe
000002f0: e20e c53e bd03 85be 0937 803e 97c8 20be
0.27352473 0.34818712 0.23002493 0.12932101 0.52055985 -0.02867041 -0.15091223 0.4752055
-0.20255625 -0.061063237 -0.180308 0.17545442 -0.2515911 -0.552295 -0.17418204 -0.058482338
0.014834243 -0.2183697 0.46190652 0.4936779 -0.13849227 -0.18422537 0.48630974 0.3187564
0.35239318 -0.100656345 0.53482556 0.34926152 -0.26754072 -0.44490454 -0.30062768 -0.01792675
0.25493836 0.02417524 -0.33161414 0.35111117 -0.14829303 -0.3107873 0.02242809 -0.29007426
-0.27692473 0.30586955 0.25638527 -0.3545253 -0.27780932 -0.07763427 -0.3701585 -0.24544811
-0.45326933 -0.40012223 0.11285768 -0.4478612 0.316379 -0.6600559 0.023452647 0.5261732
0.23153864 -0.5576944 0.2750713 -0.083595514 -0.25475612 0.17472012 0.051514607 0.4428433
-0.074730396 0.549288 -0.117479615 -0.16214193 -0.19028842 0.12825693 0.45086804 0.14819989
-0.41550565 -0.48705548 -0.2187629 -0.126671 0.37659958 -0.42416638 -0.11788195 0.24620177
0.04926961 -0.09571176 0.18966286 0.034723554 -0.31200695 0.2175201 -0.3343854 -0.33452713
-0.2275978 -0.28639778 0.36517426 -0.21105197 -0.13223517 -0.20992857 -0.0379712 0.30167142
0.14987892 0.064130306 -0.25657725 -0.468921 -0.41558066 0.5838797 0.1758098 0.24706045
0.2584017 0.424695 -0.6192638 0.6504882 -0.123874255 -0.03822403 0.672923 -0.0077285194
0.56011873 0.22551517 0.16760342 -0.40094644 -0.020351788 -0.33927077 -0.48105657 0.089031994
0.37285647 -0.027660439 0.21612051 0.15031718 -0.08063537 0.10561718 -0.009677621 -0.40329844
-0.17877969 0.4055388 0.141502 -0.32192385 -0.20249574 0.07407129 0.3829119 -0.4294016
-0.642924 0.061444253 -0.34794366 0.45643893 -0.37968865 0.3774325 0.2780367 -0.6329003
0.017797643 0.08006926 0.23560841 -0.31347704 0.20385064 -0.19891644 0.28362316 -0.1319218
0.094128124 0.2137547 -0.4200492 0.2976695 0.22156194 -0.21298574 -0.08519831 -0.40033603
-0.39326677 0.290016 0.49469003 0.33714223 0.21983953 0.5988061 0.28372923 -0.19205996
0.18287973 -0.35431802 0.004811409 0.20087968 -0.4834746 -0.34885192 0.1958487 -0.24309796
-0.57468516 -0.017029587 -0.3135532 0.07832999 0.43936193 -0.5168654 0.21190839 0.5206279
-0.4311071 -0.3121853 -0.29660523 -0.13631935 0.38487917 -0.25979415 0.25041988 -0.15701519

gcn.nn.0.bias f4 [32]
00000000: 9c5a 2f3d b6a1 8ebe 3ecd 7d3e b90d 14be
00000010: 0c1e 8d3e a31a 9a3e c922 253d 53c3 d3be
00000020: 7de7 5bbd db64 6a3d 9921 723e e7c2 bcbc
00000030: 0c5a efbd a265 be3e da8c cd3e f956 89be
00000040: d378 a1bc 3421 7e3e 6bf9 073e 20f5 4d3d
00000050: d757 113e bf57 85be 31bb 323d ef8f 6ebd
00000060: d35a 8dbe c7ad 2a3d 02f9 1bbd 3437 393d
00000070: 45cd 3e3d 0df9 32bc 74ca c3bd 782e 9a3c
0.04281102 -0.2785775 0.24785325 -0.1445836 0.27561986 0.30098447 0.040316377 -0.41359958
-0.05368756 0.05722509 0.23645629 -0.023042155 -0.11687097 0.37186915 0.40146524 -0.26824167
-0.019710934 0.24817353 0.13278739 0.050282598 0.14193664 -0.26043507 0.04363555 -0.058242735
-0.27608356 0.041669633 -0.03807927 0.04521866 0.04658248 -0.010923636 -0.09560099 0.018820986

gcn.nn.2.weight f4 [32, 32]
00000000: 17ae 8cbe d76e 853c 928c 8d3d 1f91 933d
00000010: eeae 2d3e 2a23 24bd d02b 6c3e 1b07 363d
00000020: 05cb 273e 9c16 753c 7a62 2bbe c3f6 c23d
00000030: b1d0 cf3c 9150 0f3e 6e07 0f3e 0f33 de3d
00000040: 0dfd 0ebe f9bc a1bd f0f4 163c e33c 243e
00000050: b7cf f43d 2094 dcbc 813e 8f3d 7cb4 dc3d
00000060: d54a 20be 0ee0 ab3c 0716 3cbe 300e 11be
00000070: 52c0 fc3d 54e4 49be 9a6f 28be 7918 163e
00000080: 2178 2abd 2a98 abbd 573d c03d 9fdf fdbc
00000090: 4d18 d83d 6e5b 8ebd 9f29 093e 4f04 24be
000000a0: 3afb 7dbd caaa 423d b1dd 1d3d accc cebc
000000b0: 0bc6 db3d 1d68 183e 9ea9 d93d c338 12be
000000c0: 202b 22be e3b3 9f3d 9e8d fb3c 0a96 2c3e
000000d0: 69dd 09be bf9b 98bd ec57 7b3c 91e7 18be
000000e0: 12db 6f3c c9f6 3a3e 3cab 29be 7025 02be
000000f0: 9665 22bd e847 7cbd e2b3 82be 6c91 5d3b
00000100: 1097 0dbe 8c7e 943d 6968 00be 96bb 8a3e
00000110: 8628 133e 5559 133e 4edc a5bd fb3b 143d
00000120: ccdc 73be ac88 88be 7b7a 103e 6bbb 2fbe
00000130: c194 8cbe 774b 02bd b0c7 2fbd 2a8b 413d
00000140: 3bc4 cd3c bc27 1b3e 0ef2 5ebe adc8 e9bd
00000150: ce68 27be cabb c53d 5835 91bd a747 373e
00000160: 684a a23d fb57 25be 429b c03b 3e2a 77be
00000170: 5f40 5dbb ed77 393d 6577 d3bd a6df 9abd
00000180: df3a 07be 1b63 3d3d f860 12be 3034 df3d
00000190: dd9b 963d af60 283e 072c 893e 3884 f63a
000001a0: c973 3cbe 3045 16be 288b 433d fe67 cdbc
000001b0: 15f5 f6bc 6c42 583d b956 b33d 5162 613d
000001c0: cd80 0cbc 6505 c3bc 255d 4b3e 020e 03be
000001d0: 8ec7 26be 4357 1bbc 1c6c 15bc 9fe6 13be
000001e0: fae8 0d3e 8f71 2abe 88bd 30bc 0977 3fbe
000001f0: 37ef 03be 3d0d 953c 3ba7 6cbe 603f b13d
00000200: 448a 9c3d de05 ab3d 73a8 653d e3dc c9bd
00000210: 958e 79bd d73c 9d3d f468 afbd ce3c 933d
00000220: aa76 ae3d fdec 2ebe 7ef4 df3c fd22 89bd
00000230: 7a99 cf3d 7866 c83d 1267 dbbd 9794 76bd
00000240: 8ab3 fbbd 56e8 05bb 609e 26be 2df6 393c
00000250: 08e4 2c3e 41ed 703d b837 38be 17ca 5b3d
00000260: 2d70 2bbd f28e 9b3d b00d 78be f1df c3bc
00000270: b7c8 2a3d 5c00 61be 6558 5dbe ce28 fcbd
00000280: da3c 14be c57f 0abe 185f 3dbd 06ec cc3d
00000290: 7c8c 5cbe def6 203e 18ea 92bd 109c 13be
000002a0: 2112 41be 279c 6d3e 5c85 bd3d 30c8 38bd
000002b0: c71f 2c3d 1244 d8bd 4337 863d 229e be3c
000002c0: 60c8 c4bc f137 393e d13f 09be 9e0e b6bd
000002d0: 231f 4dbd 8f21 023e edc1 5d3e 1c2e 183e
000002e0: af2f febc 12a7 533c 8862 783d f9ab 75be
000002f0: 2bfd 06be 9073 013e 5d72 463d ad7f 37be
00000300: f0a5 853d d80f 1fbe b41c de3d 7928 4abe
00000310: c57b 803a 2a5a 113e 9bc9 87bd c14a 8c3e
00000320: b9dd b6bd 5ef1 583e db41 383e 6695 183e
00000330: 4b42 a0bc d7e3 cf3c c231 533d 4686 3abe
00000340: 4d01 05be 3559 093e 16bf 103e e3b2 f83d
00000350: d138 bd3d 4784 fdbd f713 b4bd ba3d 413d
00000360: e050 87be 4098 f7bc f255 b13d f022 bf3d
00000370: fbf3 763d ca28 273e 30bf efbc 0cc0 203e
00000380: 5509 2abe ce47 51bd ec55 3f3e 12a7 ee3d
00000390: a156 56bc 05c3 3c3e 62d8 f03d 44a1 4bbd
000003a0: 0833 2fbe af6b 7d3a bfa2 6f3d deaa 99be
000003b0: 3bf1 d33d 78b8 ef3d 45bf b1bd b040 e53d
000003c0: 6e45 86bd 2f87 203e d6de 70bd 0585 38be
000003d0: a8f1 36bd 79d4 273e abf3 513e 6e02 3ebd
000003e0: ce2c cf3d bd19 48be 7580 0c3e 1801 04be
000003f0: 48fa f4bd fd53 86bd a621 333d 5609 053e
-0.2747657 0.016288204 0.06911577 0.07205414 0.16961262 -0.040072598 0.23063588 0.04444037
0.1638604 0.014959004 -0.16736785 0.09519722 0.025368067 0.13995577 0.13967678 0.108495824
-0.13963719 -0.07897372 0.009213671 0.16038851 0.11953681 -0.0269261 0.069943435 0.10776612
-0.15653546 0.020980861 -0.18367778 -0.14165568 0.1234137 -0.19716007 -0.16448823 0.14657773
-0.04161847 -0.08378632 0.093867 -0.03099042 0.1055151 -0.069510326 0.13394783 -0.16017269
-0.062007166 0.04752616 0.0385415 -0.02524408 0.10731133 0.14883466 0.10628055 -0.14279465
-0.15836763 0.077979825 0.030707177 0.1685411 -0.13463368 -0.07451581 0.015340786 -0.14932086
0.014639633 0.18258204 -0.16569227 -0.12709594 -0.03964766 -0.061592013 -0.25527865 0.0033808602
-0.13827157 0.072506994 -0.1253983 0.27096242 0.14370927 0.14389546 -0.080986604 0.036190014
-0.23814696 -0.26666772 0.14109223 -0.17161338 -0.2745724 -0.03181025 -0.042915046 0.047251858
0.025117984 0.15151876 -0.21772024 -0.11415229 -0.16348574 0.096549585 -0.07090253 0.17898427
0.07924348 -0.16146843 0.005877883 -0.24137208 -0.0033760292 0.045280386 -0.10325507 -0.07562189
-0.13206051 0.046237092 -0.14294803 0.10898626 0.07353947 0.16443132 0.26791403 0.0018807715
-0.18403544 -0.1467483 0.04774013 -0.025074001 -0.030146161 0.05279772 0.087567754 0.055025402
-0.00857563 -0.023806283 0.1985975 -0.12798312 -0.16287062 -0.009481254 -0.009120014 -0.14443444
0.13858405 -0.16644882 -0.010787375 -0.18697752 -0.12884222 0.018194789 -0.23110668 0.08654666
0.076435596 0.083507285 0.05606885 -0.09856584 -0.060926992 0.0767762 -0.0856494 0.07189332
0.08518727 -0.17082591 0.027338263 -0.066961266 0.10136695 0.09785169 -0.107130185 -0.0602003
-0.12290104 -0.0020432672 -0.16271353 0.011350197 0.16883862 0.058820013 -0.17990005 0.053659525
-0.041855026 0.07595624 -0.24223971 -0.023910495 0.041695323 -0.21972793 -0.21615751 -0.123124704
-0.14476338 -0.13525303 -0.046233267 0.100059554 -0.21537966 0.15719172 -0.07173556 -0.14415002
-0.18854572 0.23204099 0.09253952 -0.04511279 0.042022493 -0.105598584 0.06553509 0.023268763
-0.024021327 0.18087746 -0.1340325 -0.08889507 -0.050078522 0.12708114 0.21656008 0.1486134
-0.031028597 0.012918251 0.06064084 -0.23991384 -0.13182513 0.1264174 0.04844891 -0.17919798
0.06525791 -0.15533388 0.108453184 -0.19742002 0.0009802511 0.14194551 -0.0663025 0.27400783
-0.08929009 0.21185824 0.17993872 0.14900741 -0.019562861 0.025377197 0.051561125 -0.18215284
-0.12988777 0.13412936 0.14135394 0.12143495 0.092393525 -0.123787455 -0.087928705 0.047178008
-0.2642889 -0.030223966 0.08658971 0.09332836 0.06029127 0.16324154 -0.02926597 0.1569826
-0.16605122 -0.05109387 0.1868512 0.1165296 -0.013082177 0.18433769 0.11760022 -0.04971434
-0.1710931 0.000966723 0.058504816 -0.30013174 0.103487454 0.117051065 -0.0867906 0.11193979
-0.065562114 0.15676568 -0.058806263 -0.18019493 -0.044664055 0.16389646 0.20503108 -0.046389036
0.10115968 -0.19541068 0.13720877 -0.12891042 -0.119618 -0.06558988 0.04373326 0.12991843

gcn.nn.2.bias f4 [32]
00000000: 75ce bfbd 17d9 b2bd 6fb2 083e 7a78 1c3e
00000010: 4669 ce3c 68c5 11bd d774 cc3d 7bfb b0bd
00000020: 716d 0b3d cbd6 503d ca77 303d 44ed 15bd
00000030: 1dca 76bb fddd 8d3d 8954 b0bd fb23 09bd
00000040: 2211 94bd 4cb8 12bd d2d5 e73d 52db 1dbd
00000050: d2a3 7b3d ffc0 003d a110 0f3d f9c3 573d
00000060: 194e 41bd 5df7 c23d f94d 183e 2967 3f3e
00000070: ee03 babd 1349 cebd df7a f7bc fd54 3a3d
-0.093655504 -0.08732813 0.13349317 0.15280333 0.025196683 -0.035588652 0.09983223 -0.08641716
0.03403992 0.050986093 0.04308299 -0.036603227 -0.003765709 0.069271065 -0.08609874 -0.03348158
-0.0722983 -0.03582029 0.1132008 -0.03853924 0.061435528 0.031434055 0.034927968 0.05267713
-0.04719362 0.09519837 0.14873494 0.18691696 -0.09082781 -0.100725316 -0.030209957 0.045491207

gcn.nn.4.weight f4 [32, 32]
00000000: d9b3 bdbd e218 1c3e 4bc0 a13c 89e9 99bd
00000010: e4ac 79bc 8ef5 3d3e d9fb 2e3e 1707 cdbd
00000020: 869f 343e 5e2a 08be 09d1 d93d fe09 113e
00000030: e55d c8bd 1c78 523d ca3c 543d 7203 a33c
00000040: 1c50 b5bd 4c6a 8ebd 3e00 8abc 82b4 3dbe
00000050: 10c6 343d 15dc ca3d e0c7 05be a975 473e
00000060: 261c 3b3d 1d4b ccbd 60b5 c1bd 1ce2 063e
00000070: 4857 a33d 4d98 9cbd 350c 43be c058 20bd
00000080: e708 2e3d e4f3 2c3e a1ce fe3d 1345 b63d
00000090: 865a 7c3c 1d79 a83d 7933 19be f577 1d3e
000000a0: 5693 143d b7ce cf3d 9674 2fbe 9244 70be
000000b0: 5f36 2d3e 6d17 c3bd 170c 02be 0f16 edbd
000000c0: 70fc 69be de9e 7a3e f476 8a3c 5c4c 9abe
000000d0: c89f 213c 65c7 e6bd 9988 493e b2e1 1a3d
000000e0: 4429 33be 0680 b8bc 587f 973e 1eb6 7a3d
000000f0: 6a80 223e ecb8 bbbc 275a 343d f9b1 003e
00000100: c39f ca3d 80e6 ac3d 3a9e 143d a8a8 20be
00000110: 6cc9 9d3d c2e9 b1bc 518d 5f3d 09c9 9ebe
00000120: 313f 453e cdc0 bbbd 1ab4 07be 4e8d b2bd
00000130: d7ec 213e da2c f53a b34a 163d eadb 023d
00000140: b4ee 16be 5f4e db3c 6ea4 5bbc 00ec 82be
00000150: 5d44 5a3e eb58 023e b789 6e3d 750c 013e
00000160: a96e dc3c 6083 77bc bfed ad3d 2fb2 413e
00000170: e7d6 193e 1b55 0bbe ad34 d3bd c8a1 c8bd
00000180: 3e4b 6e3e 76d7 14be 7168 6a3d d1d6 1f3d
00000190: cfd2 4abb f63b 43be 0470 063e 10f8 603c
000001a0: 18f8 05bc 46ff 553d 6009 e6bd 5625 76bd
000001b0: 1d3e dfbb 59d1 4d3d 8dd4 a4bd ec6c 963d
000001c0: 6498 d8bd a388 f73b 66bd 4c3e 6106 bebd
000001d0: 9e58 5b3d f972 1d3e bd5b 873e 18f2 203d
000001e0: 606b 0a3d 9a01 acbb 5550 233d 2bd8 043e
000001f0: 4d0e 903d d10e 613d ac1a 023e 47d7 1d3e
00000200: e640 b8bc b1c5 f53d f4c4 a93d f71b 26bd
00000210: 4d34 923d af09 1f3e 52fa b9bd 1ec5 9abe
00000220: 031b e13d f866 48be c924 d0bd 1edf 1abd
00000230: e484 6dbd ed45 3cbc 517a 5a3e 44b4 8ebc
00000240: fcef 85bc 9c5c a8be 9868 acbd f0fc 60bc
00000250: f008 6d3d 1279 12be 8411 b23c 041e d33d
00000260: fd6d 9e3d 8c8a 0f3d 9f23 95bd d4a5 4cbb
00000270: c94e 0bbe c061 b2bd 8b44 8bbd 1606 79bd
00000280: 5a66 e93d 62d1 f53d 8d74 87bd 170e c13d
00000290: 7b57 36bd 7179 81be 41f5 f5bd 5331 153e
000002a0: 05e1 2ebe 44ac f53c 1dbb d03d 4f23 99be
000002b0: cb6b 8ebd 6e26 e33d c591 143e 8c68 adbd
000002c0: aea7 843c d5ac 4b3d 6b92 273e 3d27 99bb
000002d0: b248 dd3d f3f6 4abe 8e18 ba3d 4e6f 5cbe
000002e0: 6355 293d da86 513d 4156 543e 28cf e43d
000002f0: 4c13 df3d add4 bbbd a75a 0d3d e434 1c3e
00000300: 2f9a 243e e4f8 323e 1314 013e 47fe 1c3e
00000310: af91 10bd a8bb 4e3e 2884 1e3e 096e eabd
00000320: d021 293e d88c 1abe 8c02 bfbd 8748 85be
00000330: 2f83 513e 96ac 6ebd 4b6e 11be 6ecb 2f3e
00000340: b55c ac3d ce8d 1c3e 29dc 693c 8be4 acbe
00000350: 9423 923e b5db 1c3e 9790 813c 29f9 893d
00000360: 8cba 11be 750e 85be 45ca 923e 1ba2 4bbc
00000370: 02b3 433d 55e4 b03d 613b 453d 54a4 b8bd
00000380: 3222 e7bd bfd7 a63d 9dd7 27be 5f0c a93d
00000390: 1eb8 cf3c acc7 94bc e420 9b3d 5fec 4f3e
000003a0: e7f5 9e3d 1b6e 753d e170 533e 253b 323e
000003b0: d37e 52be 2766 f5bd 28f3 4f3e 173a 90be
000003c0: 4c47 ecbd a428 d4bc dcb7 d3bd 513a 473e
000003d0: 232c 92be e7ea 54bd 1946 bf3a e8dd b63d
000003e0: e543 b9bd 14e8 fe3d 286c 74be d63f 153e
000003f0: 010e 9fbe 730c 273e d82a 153d 4808 f33d
-0.09262819 0.15243867 0.019745013 -0.075152464 -0.015238974 0.18550703 0.1708826 -0.10011118
0.17638978 -0.13297412 0.106355734 0.14163968 -0.09783534 0.051384076 0.051815785 0.019899104
-0.0885317 -0.06953868 -0.016845819 -0.1852589 0.0441342 0.099052586 -0.13064528 0.19478478
0.04568114 -0.09975264 -0.09458423 0.13172191 0.07975632 -0.076462366 -0.19047625 -0.03914714
0.04248896 0.16889912 0.12441755 0.088998936 0.015402442 0.082262255 -0.14961042 0.15377791
0.036273323 0.101468496 -0.17134318 -0.23463657 0.16915272 -0.095259525 -0.12699924 -0.11576473
-0.22850204 0.24474666 0.016902424 -0.30136383 0.009864755 -0.112685 0.19681014 0.037812896
-0.1749621 -0.022521984 0.29589343 0.061208837 0.15869299 -0.022915326 0.04403129 0.12567891
0.098937534 0.08442402 0.03628371 -0.15689337 0.07704434 -0.02171791 0.05457813 -0.31012753
0.19262387 -0.09167633 -0.13252297 -0.08718358 0.15813003 0.0018705383 0.036692332 0.031948008
-0.14739496 0.026770769 -0.013405902 -0.2557068 0.21315141 0.12729232 0.058236804 0.12602408
0.026908236 -0.015107006 0.08492612 0.18915628 0.15023385 -0.13606684 -0.103127815 -0.09796482
0.2327089 -0.14535317 0.05722851 0.039023224 -0.0030948406 -0.19065842 0.13128668 0.013731018
-0.008176826 0.0522454 -0.11232257 -0.0600942 -0.0068128244 0.050248478 -0.08048353 0.07344994
-0.10575941 0.00755413 0.19994125 -0.092785604 0.05355131 0.1537589 0.26437178 0.03929338
0.033793807 -0.0052492144 0.039871532 0.12973087 0.07033978 0.05494577 0.12705487 0.15414153
-0.022491883 0.12000597 0.08289519 -0.040554013 0.07138882 0.15531038 -0.09080948 -0.30228513
0.1099148 -0.1957053 -0.10163266 -0.037810437 -0.057988063 -0.011491281 0.21335723 -0.017419942
-0.016349785 -0.32883155 -0.08418387 -0.01373218 0.05786985 -0.14303997 0.021736868 0.103084594
0.07735822 0.035044238 -0.07282185 -0.003122677 -0.13604273 -0.087100506 -0.06800183 -0.06079682
0.11396475 0.12002827 -0.06614027 0.094265155 -0.04451702 -0.25287965 -0.12009669 0.14569597
-0.17078026 0.02998937 0.10191939 -0.2990975 -0.069541536 0.11091314 0.14508732 -0.08467206
0.016193237 0.049725372 0.16364448 -0.004673867 0.10804881 -0.19820766 0.09086715 -0.21526834
0.041341197 0.051153995 0.20736028 0.111723244 0.108923525 -0.09171424 0.03451028 0.15254551
0.16074441 0.17477757 0.12605314 0.15331374 -0.035295185 0.20188773 0.15480101 -0.11446769
0.16516805 -0.1509279 -0.09326658 -0.26031896 0.20460199 -0.05827006 -0.1420223 0.17167446
0.0841612 0.15288469 0.014273682 -0.33768114 0.2854277 0.15318187 0.015816016 0.06736977
-0.14231318 -0.25987592 0.28669944 -0.012428786 0.047778137 0.08637301 0.04815233 -0.09015718
-0.11285819 0.08146619 -0.16390844 0.08254313 0.025356349 -0.018161617 0.07574633 0.20305012
0.07761746 0.059919458 0.20648529 0.17405374 -0.20556192 -0.11982375 0.203076 -0.2816932
-0.11537036 -0.025898285 -0.10337803 0.1945584 -0.285493 -0.051981833 0.0014593034 0.08929044
-0.09046153 0.12446609 -0.23869383 0.14575133 -0.31065372 0.16313343 0.036417812 0.11866814

gcn.nn.4.bias f4 [32]
00000000: 02af c43d 060c 653d 82b2 2b3e 69cc 0c3e
00000010: 1430 cc3d d789 753d 97a2 80bd 6ab0 903d
00000020: 9328 41b8 2b00 f7bd 5a70 0cbe 917b f6bd
00000030: c503 dfbc 80ff 02be 9a2e 483c 424d babd
00000040: b871 ed3d 5c66 ce3c 41a5 6e3d 424a 0a3e
00000050: 33b7 9a3d b162 e93d b29a b0bd e244 dabd
00000060: be46 1d3e 3c2d 003e b3ba f4bd a62b ffbc
00000070: 31d8 72bd f36a cd3d bc21 e33d 55b7 183e
0.096036926 0.05591967 0.16767314 0.13749851 0.09970108 0.059945907 -0.062810116 0.07064898
-4.6052573e-05 -0.12060579 -0.13714734 -0.12035287 -0.027223477 -0.12792778 0.012218142 -0.09096767
0.11593956 0.025195293 0.058263067 0.1350489 0.07554474 0.11395777 -0.08623256 -0.106576696
0.15359017 0.12517256 -0.119496725 -0.031148743 -0.059288207 0.100301646 0.11090419 0.14913686

gcn.nn.6.weight f4 [3, 32]
00000000: a982 553d 1d18 22be f4a2 2d3e 4ac7 02be
00000010: c0da 563e 30d5 23be 1e68 b83d d6cf 9bbd
00000020: 0a24 a8bd d3c2 553e 3edb a73d ad83 063e
00000030: 4ad8 973d 2e62 823d b7c7 433e cddc 5fbe
00000040: e523 a2bd 4d3d 1a3e 0182 94bd acde c5bc
00000050: d2b6 55be 9949 443e 1735 d6bd 05c8 933d
00000060: 217b 1abe fe54 513e 170b 59be 89da 46be
00000070: 09c2 85be 1687 563e 21f8 cbbd b10e 663e
00000080: 5ac6 74bc 1c6f 56be b8f2 9ebd 9d63 69bd
00000090: 5a72 863d 277b b2bd f44c 55be 2022 3f3e
000000a0: 22e7 ac3d 32f2 2b3e b79f 183d 28ff debd
000000b0: 2391 da3d f551 31bc c4fe 9abd e6a5 153e
000000c0: 09fb 9abd 0ec3 f63d dc2a 443e c2eb eebd
000000d0: 35e6 263e 494c 013d 9a0f 233b e7ee 8bbe
000000e0: 1985 433c 07a0 e73d 0b73 78bd b2b9 773d
000000f0: 7edc 593d 8335 3dbe b3c1 82bd 093c 3abe
00000100: 0ffc a13d 4bf7 403d 318e 45bd 5f92 443e
00000110: 6579 09be 3476 dfbc c292 903d c52c 853d
00000120: bc09 11bc 76d3 d7bc 9ccf 833d 9c5a 10be
00000130: 0512 473e 91c6 56bd d414 01be 1f9d acbd
00000140: cb55 d63b 8d81 e63d e99e acbd 3962 dcbd
00000150: 56f5 a23b 1362 393e ff45 28be cc5e 833c
00000160: a501 003e 0b10 1d3d acbb 2dbe 33ae f53d
00000170: f01e f63d cfb0 1d3e a58a 0fbe 9fa4 9fbc
0.05212656 -0.15829511 0.16956693 -0.12771335 0.20981884 -0.15999293 0.09004234 -0.07608001
-0.08209999 0.20875101 0.08196114 0.13136168 0.07414301 0.063663825 0.19119154 -0.21861573
-0.079170026 0.15062447 -0.07251359 -0.02415403 -0.20870522 0.191687 -0.10459345 0.07215885
-0.15086032 0.20442578 -0.21195637 -0.19419302 -0.261246 0.20949969 -0.09959436 0.22466542
-0.014939869 -0.20940822 -0.07761139 -0.056979764 0.065647796 -0.08714896 -0.20830137 0.18665361
0.084425226 0.16791609 0.03726169 -0.10888511 0.10672214 -0.010822763 -0.07568124 0.14614066
-0.075674124 0.120489225 0.19156975 -0.11666061 0.16298755 0.03156689 0.0024881125 -0.27330706
0.011933588 0.1130982 -0.06065659 0.060479827 0.053188793 -0.18477444 -0.063846014 -0.18186964
0.079094045 0.047110837 -0.048231307 0.19196461 -0.13425215 -0.027278043 0.07059242 0.0650268
-0.0088524185 -0.02634595 0.06436083 -0.14097065 0.19440468 -0.05243546 -0.12605602 -0.08428406
0.006540989 0.112551786 -0.08428747 -0.10760922 0.004973094 0.18103819 -0.16432951 0.016036414
0.12500627 0.038345378 -0.16966122 0.119961165 0.120176196 0.15399478 -0.14017732 -0.019487677

gcn.nn.6.bias f4 [3]
00000000: 26be dabc 9f7b cb3d 0049 babd
-0.026701998 0.09935688 -0.09095955
