refinement/models/GNN_refinement.pt (torch, 12239 bytes, 8 tensors)

gcn.nn.0.weight f4 [32, 6]
0	0xbe7cfea3	-0.24706511
1	0xbe98cbd3	-0.29843006
2	0xbf1c3eb1	-0.6103316
3	0x3de1ae3f	0.11019563
4	0x3c54aaba	0.0129801575
5	0xbd33a9bd	-0.043863047
6	0x3e2facc9	0.17155756
7	0x3ec47be7	0.3837578
8	0xbdd4ed2b	-0.10396799
9	0x3ea5ca2b	0.32380804
10	0x3ec4a229	0.38404968
11	0x3e749f72	0.23888949
12	0xbdb88730	-0.0901016
13	0xbe5ebf7b	-0.21752732
14	0xbe1a4ce8	-0.150684
15	0xbe4c339d	-0.19941564
16	0x3ea456b0	0.32097387
17	0x3f289f21	0.6586781
18	0xbec7dcdd	-0.39035693
19	0xbc85de50	-0.016341358
20	0xbe9828cd	-0.2971863
21	0x3cab1c7e	0.02088761
22	0x3ec9a571	0.39384034
23	0xbae886f5	-0.0017740416
24	0xbea3356d	-0.31876698
25	0xbf120940	-0.57045364
26	0x3dd6eda1	0.10494543
27	0xbea11086	-0.3145792
28	0xbf2486c9	-0.64268166
29	0x3e7cbda4	0.24681717
30	0xbe2d8229	-0.16944183
31	0xbdeec268	-0.11658174
32	0xbde09c54	-0.10967317
33	0x3d7c2d45	0.06156661
34	0xbe738e92	-0.23784855
35	0x3e60b76f	0.21944974
36	0x3eaca450	0.3371911
37	0x3dd3cfd1	0.10342372
38	0x3da5fb55	0.081045784
39	0x3eadf5a1	0.33976462
40	0x3e8d5dbd	0.2761058
41	0xbcc52804	-0.024066932
42	0xbeae2f75	-0.34020582
43	0x3ea80bf3	0.32821617
44	0xbe95053e	-0.29105562
45	0xbe846017	-0.2585456
46	0x3e4f6522	0.20253423
47	0x3f0128db	0.50452965
48	0xbec01069	-0.3751252
49	0x3f23aa91	0.6393214
50	0x3eb95b9f	0.36202714
51	0x3bad3c45	0.0052867257
52	0x3e89ead4	0.26936972
53	0xbeffcd3e	-0.49961275
54	0x3dc31f5f	0.09527468
55	0xbf05f451	-0.5232592
56	0xbcd3ffcd	-0.025878811
57	0x3ea09d68	0.3137009
58	0x3e344f18	0.17608297
59	0xbf037e72	-0.51364815
60	0x3e8b287d	0.27179328
61	0xbe855925	-0.26044574
62	0x3b5d2d64	0.0033748979
63	0x3ec5394c	0.38520277
64	0xbf17b436	-0.59259355
65	0xbd954a80	-0.072896
66	0xbeda4441	-0.426302
67	0xbf1fca05	-0.6241763
68	0xbe731832	-0.23739699
69	0xbea5e2f2	-0.32399708
70	0xbf28aa66	-0.6588501
71	0x3ec02aee	0.37532753
72	0xbe8e6e7e	-0.27818674
73	0x3be74fa4	0.0070590544
74	0x3e38a837	0.18032919
75	0x3e39b327	0.18134747
76	0xbec58ab4	-0.38582385
77	0xbec89098	-0.39172816
78	0xbe3ec2ca	-0.18628994
79	0xbda8011b	-0.08203336
80	0x3ded9f07	0.11602598
81	0x3ec615a5	0.38688388
82	0x3ef67e60	0.4814329
83	0xbeca2e1a	-0.39488298
84	0xbe89eee0	-0.2694006
85	0x3e9b9402	0.30386358
86	0x3ecfdeeb	0.4059976
87	0xbe1d63ff	-0.15370177
88	0x3e8047be	0.25054735
89	0xbe95ce79	-0.2925909
90	0x3ebd5342	0.36977583
91	0x3e0bf7db	0.13668768
92	0xbe7461b1	-0.23865391
93	0x3dff5952	0.124682084
94	0x3e96c6cd	0.29448548
95	0x3e95d69c	0.29265296
96	0xbe631fe9	-0.22180142
97	0x3eaf6e94	0.34264052
98	0xbeb75cd6	-0.35813016
99	0xbd3a52b5	-0.04548903
100	0xbf03309e	-0.5124606
101	0xbf178903	-0.5919344
102	0x3ec32591	0.38114598
103	0x3eac4179	0.33643702
104	0xbedb849f	-0.4287462
105	0x3d18dbbf	0.03731894
106	0x3ec6dbc4	0.38839543
107	0xbe91855a	-0.28422052
108	0xbef75ff8	-0.48315406
109	0xbeb14a25	-0.3462688
110	0xbe2ec17e	-0.17065999
111	0xbe33d17b	-0.17560379
112	0xbf09d315	-0.5383771
113	0x3de53b4b	0.1119295
114	0xbd4c50b5	-0.049881656
115	0x3e8ad1ee	0.2711329
116	0x3e483894	0.19552833
117	0x3c1c2af4	0.009531725
118	0x3ced32a6	0.028954815
119	0x3f1668fd	0.5875395
120	0xbede5e54	-0.43431342
121	0x3ee71a40	0.45137215
122	0xbe0e56c7	-0.1390029
123	0xbefc218c	-0.49244344
124	0x3ed15f21	0.4089289
125	0xbe2df865	-0.16989286
126	0x3e9b9bd0	0.30392313
127	0x3e9dbaa5	0.3080646
128	0xbe647b80	-0.22312737
129	0x3ef61c7c	0.48068607
130	0x3eef3c7c	0.46725833
131	0x3d528382	0.051394947
132	0x3e316bd0	0.17326283
133	0x3e3a599c	0.18198246
134	0xbd5aaadd	-0.053385604
135	0xbebedc12	-0.37277275
136	0xbf12e642	-0.57382596
137	0xbec08236	-0.37599343
138	0x3e3f3748	0.18673432
139	0x3d31be72	0.043394513
140	0xbec7f453	-0.39053592
141	0xbf012518	-0.50447226
142	0x3ebdc0ce	0.3706116
143	0x3ed958b8	0.424505
144	0x3e4b3301	0.19843675
145	0x3db30b5a	0.087423995
146	0xbc53ed64	-0.012935016
147	0xbec7b829	-0.3900769
148	0xbe821092	-0.25403267
149	0xbf05dc79	-0.5228954
150	0xbea8f09f	-0.3299608
151	0x3c92219b	0.01783829
152	0x3ea9db00	0.33174896
153	0xbeece2b9	-0.46266726
154	0x3ec58732	0.38579708
155	0xbd8ecc49	-0.06972558
156	0x3eb86723	0.36016187
157	0xbe0de80f	-0.13858055
158	0x3dd3b00d	0.103363134
159	0x3eb4646d	0.3523287
160	0x3e74fae8	0.23923838
161	0x3ecfaafd	0.4056014
162	0xbe134e49	-0.14385332
163	0xbee54c9b	-0.44785008
164	0xbe80920b	-0.25111422
165	0x3d3c67fc	0.045997605
166	0x3ecda43a	0.40164357
167	0xbec39161	-0.38196853
168	0x3ec0cbbe	0.37655443
169	0xbd9c6859	-0.0763709
170	0xbe5268ac	-0.20547742
171	0xbe05b6db	-0.13058035
172	0x3f033880	0.5125809
173	0xbf1cb7ad	-0.61217767
174	0xbf01b5ba	-0.5066792
175	0xbe5baa4b	-0.2145168
176	0x3da3c51f	0.07996582
177	0xbeae4a2b	-0.3404096
178	0x3ea6f645	0.32609764
179	0xbd89164b	-0.06693705
180	0x3ea09788	0.3136561
181	0x3e9156ed	0.28386632
182	0xbea97218	-0.3309486
183	0xbe5263a5	-0.20545824
184	0x3e434913	0.19070844
185	0x3dec404a	0.115357
186	0xbe296a18	-0.16544378
187	0xbe51c0d7	-0.20483719
188	0x3e86ca04	0.26326
189	0xbe9a0a4c	-0.3008598
190	0xbe757ad4	-0.23972636
191	0xbe45e899	-0.1932701

gcn.nn.0.bias f4 [32]
0	0x3e940024	0.28906357
1	0xbd3c8097	-0.04602107
2	0x3e8f0166	0.27930754
3	0xbea4c544	-0.32181752
4	0x3ea1df41	0.31615642
5	0xbcb2662c	-0.021777235
6	0xbd379d4e	-0.04482775
7	0x3d9ff53f	0.07810449
8	0xbe82c188	-0.25538278
9	0x3d6b6285	0.057467002
10	0xbdab531d	-0.08365462
11	0x3ed0350c	0.40665472
12	0xbe9a2aa4	-0.30110657
13	0x3de559cc	0.11198768
14	0x3d0ed67e	0.034872524
15	0xbdb6d758	-0.08927792
16	0x3cd94ff4	0.026527382
17	0x3eb206a1	0.34770682
18	0xbdda42b9	-0.106572576
19	0xbe48315f	-0.19550084
20	0x3dabdc8f	0.083916776
21	0x3eb084cc	0.34476316
22	0x3e566e7d	0.20940585
23	0xbc2015a1	-0.009770782
24	0xbd8bf34f	-0.06833517
25	0xbea7025b	-0.32618985
26	0x3e25eb02	0.1620293
27	0xbd019614	-0.031637266
28	0xbd30c7a8	-0.043159157
29	0x3d815d6a	0.063166454
30	0xbe71945d	-0.23591752
31	0xbe52f1b0	-0.20600009

gcn.nn.2.weight f4 [32, 32]
0	0xbd960e2f	-0.07326924
1	0xbe2e0644	-0.16994578
2	0xbcc48c86	-0.023992788
3	0xbd4ddb29	-0.050257836
4	0xbca3395e	-0.019924816
5	0x3e190a19	0.14945258
6	0x3ddeb1f2	0.10873784
7	0x3e5c7e93	0.21532659
8	0x3d08a76a	0.033362783
9	0xbe0cf89c	-0.13766712
10	0x3da4e5bd	0.080516316
11	0xbe0ccb5a	-0.13749447
12	0xbd7a2e57	-0.06107935
13	0x3e33486a	0.17508093
14	0x3d9d88cc	0.076921076
15	0x3cf3bf8f	0.029754428
16	0x3dfb7aa5	0.12279252
17	0x3ddf1d7d	0.10894296
18	0xbdd1a854	-0.10237184
19	0xbc4b65df	-0.012414425
20	0x3e3473cc	0.17622298
21	0x3defa1a8	0.11700755
22	0xbded8064	-0.11596754
23	0x3dede7d8	0.11616486
24	0x3e1fe933	0.15616302
25	0xbdcc383b	-0.099716626
26	0x3ddcb0cc	0.10775909
27	0x3dc7876b	0.09742626
28	0xbbb66075	-0.005565698
29	0xbceb7bfd	-0.028745646
30	0x3e1fb898	0.1559776
31	0x3cb28b38	0.0217949
32	0xbdb41123	-0.08792331
33	0xbd3e36ac	-0.046438858
34	0xbe180318	-0.1484493
35	0xbe3e702a	-0.18597475
36	0xbd802508	-0.06257063
37	0xbc914eb4	-0.017737724
38	0xbe27dcff	-0.16392897
39	0xbe3a4db4	-0.18193704
40	0x3bebcbe5	0.007195937
41	0x3e833055	0.25622812
42	0xbe3ad0a4	-0.18243653
43	0xbdde9745	-0.10868696
44	0x3dacd9c5	0.08439974
45	0x3d98a129	0.07452614
46	0xbd995093	-0.074860714
47	0xbe1283b1	-0.14308049
48	0x3e328990	0.17435288
49	0x3dd2b7bf	0.10288953
50	0xbcc27a34	-0.023739912
51	0xbe556278	-0.20838344
52	0xbe708ef1	-0.23492028
53	0x3da14b09	0.0787564
54	0x3de1baa5	0.11021928
55	0xbd5d7763	-0.054068934
56	0x3d103919	0.035210703
57	0xbe03b7f1	-0.12863137
58	0x3dfd6963	0.123736165
59	0x3c3b4126	0.011429107
60	0x3ce4b0d1	0.027916344
61	0x3d261507	0.040547397
62	0xbd84a03f	-0.06475877
63	0xbd6f3d38	-0.058407992
64	0xbe0d4ab1	-0.13798024
65	0x3c5a63d3	0.013329464
66	0x3d67cd6e	0.056592397
67	0x3dcdc9de	0.10048269
68	0xbe2714e9	-0.1631657
69	0x3d772324	0.060336247
70	0xbe30d986	-0.17270479
71	0x3e2ef0d1	0.17084052
72	0x3e243696	0.16036448
73	0xbe33fddf	-0.17577313
74	0x3da14afd	0.07875631
75	0xbddc838a	-0.107672766
76	0xbe82c88c	-0.2554363
77	0xbcc7d03b	-0.024391284
78	0x3e594687	0.2121831
79	0x3de8a920	0.11360383
80	0x3c2ad429	0.0104265595
81	0x3e4ba28b	0.19886224
82	0xbe9964b2	-0.29959637
83	0xbd9b1848	-0.07572991
84	0x3e1f2506	0.15541467
85	0xbd5bfa91	-0.053705756
86	0x3dc53254	0.0962874
87	0x3e8d668d	0.27617303
88	0x3e179a07	0.1480485
89	0xbe1d1a99	-0.15342177
90	0xbe2f6a8c	-0.17130488
91	0x3da2705e	0.079315886
92	0xbbdeb345	-0.006796273
93	0xbe03ac85	-0.1285878
94	0x3dc4d37e	0.096106514
95	0xbdeae600	-0.1146965
96	0x3e4e77b8	0.20162857
97	0x3e527c7b	0.20555298
98	0xbdb47a63	-0.08812406
99	0xbe1d50d6	-0.15362868
100	0xbdc85c8f	-0.09783279
101	0x3d1a9208	0.037736923
102	0x3e88a79d	0.2669038
103	0x3d816986	0.06318955
104	0x3e29c62a	0.165795
105	0xbd964202	-0.07336809
106	0xbcb4ff89	-0.022094505
107	0x3e769a2e	0.24082252
108	0xbdd60fac	-0.10452208
109	0xbdbcccc9	-0.09218747
110	0xbe4df41d	-0.20112653
111	0xbdd0b22c	-0.101902336
112	0x3d7a3a9d	0.061091054
113	0xbda7c868	-0.08192521
114	0xbe134082	-0.14380077
115	0x3d2173bd	0.039417017
116	0xbe1db986	-0.15402803
117	0xbd273fcf	-0.040832337
118	0x3d9ce08f	0.07660019
119	0xbe0ac1e8	-0.13550532
120	0xbe2f20b1	-0.17102315
121	0xbd44c0aa	-0.0480353
122	0xbda63700	-0.08115959
123	0x3d098084	0.033569828
124	0xbe2bb0e1	-0.16766693
125	0xbdb3d179	-0.08780188
126	0xbde292cd	-0.11063156
127	0xbd88cf61	-0.066801794
128	0xbe21c39e	-0.15797278
129	0xbe928bf0	-0.2862239
130	0x3d8aa06b	0.067688785
131	0xbda8db82	-0.08244993
132	0xbd811fc4	-0.06304887
133	0x3e8e0070	0.2773471
134	0xbec362c7	-0.381613
135	0x3df28e7b	0.11843582
136	0xbd571515	-0.05251034
137	0x3c6f7a0e	0.014616502
138	0xbe7b3e0d	-0.24535389
139	0x3c85ef30	0.016349405
140	0xbdc148c4	-0.09437707
141	0xbd8f2154	-0.06988779
142	0xbe8744c7	-0.2641966
143	0xbe7377fa	-0.23776236
144	0x3e1d6b2a	0.15372911
145	0xbd45d0be	-0.048294775
146	0x3d35e121	0.044404153
147	0x3d9f7662	0.077862516
148	0xbe50c239	-0.2038659
149	0x3e01ac95	0.12663491
150	0x3d485a46	0.048914216
151	0x3e248ccc	0.16069335
152	0xbe32a4c7	-0.1744567
153	0xbda5fb12	-0.081045285
154	0x3d2ab041	0.041671995
155	0x3e1abc59	0.15110911
156	0xbe1895aa	-0.14900842
157	0xbe9bd999	-0.3043945
158	0xbd46444a	-0.04840497
159	0xbe076428	-0.132218
160	0xbcc169f6	-0.023610096
161	0x3d31c32e	0.04339903
162	0x3de3b495	0.11118428
163	0xbd42e838	-0.047584742
164	0x3dc5e182	0.09662153
165	0xbe2ff79d	-0.171843
166	0xbe1a2eb1	-0.15056874
167	0xbe4fe406	-0.20301828
168	0xbdb5cafb	-0.08876606
169	0x3e25cb9b	0.1619095
170	0xbdffc99f	-0.12489628
171	0xbe41fb9f	-0.18943642
172	0xbdc2b78b	-0.09507664
173	0xbe6f417d	-0.23364826
174	0xbd9bdce3	-0.0761049
175	0xbde29aa0	-0.11064649
176	0xbd6a913d	-0.057267416
177	0xbd834bd4	-0.064109474
178	0x3d67f723	0.056632172
179	0x3e099a4a	0.13437763
180	0x3c5e0886	0.013551837
181	0xbe26e4f9	-0.16298284
182	0x3d8fb601	0.07017136
183	0x3d89288e	0.06697188
184	0xbd8a090f	-0.06740009
185	0x3dc9881e	0.098404154
186	0xbc528010	-0.012847915
187	0xbe25f112	-0.16205242
188	0xbd2c2222	-0.04202474
189	0xbda42024	-0.08013943
190	0xbdbb737f	-0.091528885
191	0xbe219464	-0.15779263
192	0x3dd93ca2	0.10607268
193	0x3dab025b	0.08350059
194	0x3e0c1320	0.1367917
195	0xbd14ded3	-0.036345314
196	0xbdc7f090	-0.097626805
197	0xbdc83a3e	-0.09776734
198	0x3dd8fa29	0.10594589
199	0xbcc5c04e	-0.02413955
200	0xbd7c493c	-0.06159328
201	0x3db53d8b	0.08849629
202	0xbe83cefa	-0.25743848
203	0x3d559f9f	0.05215418
204	0xbd766ebd	-0.060164202
205	0x3e4f9b4d	0.20274086
206	0xbe39f9f1	-0.18161751
207	0xbe0cbca0	-0.1374383
208	0x3de74f02	0.112943664
209	0xbd62bc7e	-0.05535554
210	0xbda9e6a2	-0.08295943
211	0x3e6d420f	0.2316973
212	0xbe9b4cdd	-0.3033208
213	0xbdc71e7f	-0.097226135
214	0xbce15b3a	-0.02750932
215	0xbd2f24a9	-0.04275957
216	0xbe0c45c3	-0.13698487
217	0x3e0448b7	0.12918364
218	0xbccf6b93	-0.02531985
219	0x3d951150	0.07278693
220	0xbd1d0443	-0.038334142
221	0x3e136c44	0.14396769
222	0x3db6f35f	0.08933138
223	0x3d6fa07e	0.058502667
224	0xbdd59975	-0.1042966
225	0xbc8f28b3	-0.017475462
226	0xbe0f0f17	-0.139706
227	0xbd88bb29	-0.06676323
228	0x3c107aed	0.00881837
229	0x3e05e8b4	0.1307705
230	0x3e8790be	0.26477617
231	0xbd173b5d	-0.036921848
232	0x3e1cc863	0.15310816
233	0x3dd9f88c	0.1064311
234	0x3e49b2fe	0.19697186
235	0xbe573876	-0.21017632
236	0x3c898060	0.016784847
237	0x3e08901e	0.13336226
238	0x3e7998c3	0.2437468
239	0x3c5eed3e	0.013606368
240	0x3e33f9a9	0.17575707
241	0x3e0ec271	0.13941361
242	0x3e5aa58b	0.21352212
243	0x3e387172	0.18012026
244	0x3e6a12da	0.22858754
245	0x3dde6966	0.10859947
246	0xbd4dae69	-0.05021516
247	0xbd38d0c7	-0.04512098
248	0x3dc332d8	0.09531182
249	0xbe1fce70	-0.15606093
250	0x3e373cea	0.1789433
251	0x3b085325	0.002080151
252	0x3d9c1c25	0.07622556
253	0x3da01fcd	0.078185655
254	0xbdc609e7	-0.096698575
255	0x3d578434	0.052616313

gcn.nn.2.bias f4 [32]
0	0x3ca6684c	0.020313405
1	0x3d966687	0.07343774
2	0x3e022977	0.1271113
3	0xb91f650d	-0.00015201066
4	0x3d936021	0.071960695
5	0x3e1a00c6	0.15039358
6	0x3d13973c	0.0360329
7	0xbd455c68	-0.04818383
8	0xbd57ac67	-0.05265465
9	0x3d95b3a4	0.07309654
10	0x3c24737b	0.010037298
11	0x3d5478b7	0.051872935
12	0xbe4427ec	-0.19155854
13	0xbddafc03	-0.10692599
14	0xbd7abf54	-0.06121762
15	0x3d6b7329	0.057482872
16	0x3dd47cd7	0.10375374
17	0x3d9ca70f	0.076490514
18	0xbcfd3a88	-0.030911699
19	0xbdbbc918	-0.09169215
20	0x3df8a247	0.12140327
21	0x3daa8b80	0.08327389
22	0x3ca2fbeb	0.019895514
23	0xbdedbfcb	-0.11608847
24	0x3e21f63c	0.15816587
25	0x3df77289	0.12082393
26	0xbe30c22c	-0.1726157
27	0x3d8ee2c6	0.06976847
28	0x3e0914c7	0.13386832
29	0xbd1f4623	-0.038885247
30	0xbdbfcaaa	-0.09364827
31	0xbc8d4383	-0.017244106

gcn.nn.4.weight f4 [32, 32]
0	0x3e8c3970	0.2738757
1	0x3d8d90e0	0.06912398
2	0x3e37effa	0.17962638
3	0xbe09f5fe	-0.13472745
4	0xbd7bce92	-0.061476298
5	0xbe8f565f	-0.27995583
6	0xbdbaf780	-0.09129238
7	0xbcb62148	-0.022232667
8	0x3cc3d41d	0.023904854
9	0xbe24a959	-0.16080226
10	0xbc3d0cd6	-0.011538705
11	0xbd3e1e18	-0.04641542
12	0xbddf663b	-0.10908171
13	0x3da05ac4	0.07829812
14	0x3e1e5183	0.15460782
15	0xbc773cab	-0.015090148
16	0xbd8f8370	-0.070074916
17	0xbe7f7c6b	-0.24949805
18	0xbe952d05	-0.2913591
19	0x3e30ce16	0.17266116
20	0xbca4745e	-0.02007502
21	0x3e507eda	0.2036089
22	0x3e51371a	0.20431176
23	0x3e178d59	0.14800014
24	0x3e3ae36a	0.18250814
25	0xbcddc2e6	-0.027070474
26	0x3da15ec7	0.078794055
27	0xbe1abfc2	-0.15112212
28	0x3d20c3fe	0.039249413
29	0x3e2dea07	0.16983806
30	0x3d2ca699	0.042151067
31	0x3e17dff3	0.14831524
32	0x3e1bcfe4	0.15216023
33	0x3e18da73	0.14927082
34	0x3d227470	0.039661825
35	0x3d76a81b	0.06021891
36	0xbce12bc5	-0.027486691
37	0x3e4403e6	0.19142112
38	0xbe03e206	-0.1287919
39	0xbe3d2138	-0.18469703
40	0xbe5b0e13	-0.21392088
41	0xbc810b23	-0.01575238
42	0xbd29a072	-0.04141278
43	0xbe1924ed	-0.14955492
44	0x3dcbf9fa	0.099597886
45	0xbd0566ad	-0.032568622
46	0xbd94b4b0	-0.07261026
47	0xbdab6c9b	-0.08370324
48	0x3eb7c1f7	0.3589017
49	0xbd9c6d1c	-0.076379985
50	0x3d4790f1	0.04872221
51	0x3e01467b	0.12624542
52	0xbe26a7e0	-0.16274977
53	0x3e768a07	0.24076091
54	0xbd3358a0	-0.04378569
55	0xbd2ede68	-0.042692572
56	0x3e435525	0.19075449
57	0xbd6fd4a7	-0.05855241
58	0x3b3828e9	0.0028100556
59	0xbd544c99	-0.05183086
60	0xbc972a54	-0.0184528
61	0x3e8799b8	0.26484466
62	0xbcf8a429	-0.030351715
63	0x3da8902d	0.08230624
64	0x3e0184d0	0.1264832
65	0xbdddf2c4	-0.108373195
66	0x3e03b098	0.12860334
67	0x3d82dc73	0.063897036
68	0x3e369785	0.17831238
69	0x3d8d515c	0.06900284
70	0xbd8003a7	-0.06250697
71	0x3e1d6cd0	0.1537354
72	0xbe1a026b	-0.15039985
73	0xbe19024f	-0.14942287
74	0x3e650cff	0.22368239
75	0x3e11587f	0.14193915
76	0x3da7cf2b	0.08193811
77	0x3d914c60	0.070946455
78	0xbe5d6e3a	-0.2162408
79	0x3e289eff	0.16466902
80	0x3b19172a	0.0023359754
81	0x3e4c5a10	0.19956231
82	0xbd60616b	-0.054780405
83	0xbe54e6fd	-0.2079124
84	0x3e1f3e18	0.1555103
85	0xbe085e97	-0.13317333
86	0x3e46113c	0.19342512
87	0x3cc37331	0.023858638
88	0x3dc5cc2b	0.096580826
89	0x3ba3c6a9	0.0049980474
90	0xbe150032	-0.14550856
91	0xbe5689f2	-0.2095106
92	0x3e26bb83	0.16282468
93	0x3dc6f7da	0.09715243
94	0x3e0dd0a6	0.13849124
95	0xbd96a64a	-0.07355936
96	0xbd8324e2	-0.06403519
97	0x3e47d87b	0.19516174
98	0x3e854515	0.26029268
99	0xbde114fc	-0.109903306
100	0x3e3be032	0.18347242
101	0x3e2ceb24	0.16886574
102	0xbe8da3b2	-0.27663952
103	0x3dfbb271	0.12289894
104	0x3d008b6f	0.031382974
105	0x3dab2be2	0.08357979
106	0x3dee8eb5	0.11648313
107	0x3d69d933	0.057091903
108	0xbd71258b	-0.058873694
109	0x3e443d39	0.1916398
110	0x3de59dc3	0.11211731
111	0x3cbfb27b	0.023400536
112	0x3db58125	0.08862523
113	0xbda35d95	-0.07976834
114	0x3dac15be	0.084025845
115	0x3e035f99	0.12829436
116	0xbe3677b2	-0.17819098
117	0x3d858d2f	0.06521069
118	0x3d9054f4	0.070474535
119	0xbd530318	-0.051516622
120	0xbdbd563e	-0.09244965
121	0xbc94a89e	-0.01814681
122	0xbe0eeaa7	-0.139567
123	0xbd83955c	-0.064249724
124	0x3dc47c3a	0.09594007
125	0x3e86fed9	0.26366308
126	0x3e3fae6a	0.18718877
127	0x3e184c88	0.14872944
128	0x3deeb8e2	0.11656357
129	0xbe5dd436	-0.21662983
130	0xbe05c06e	-0.13061687
131	0xbe469a78	-0.19394863
132	0xbe236a7b	-0.15958588
133	0xbdcdc242	-0.10046817
134	0xbd032228	-0.032014996
135	0xbe12c6b6	-0.14333615
136	0x3dcf025a	0.101078704
137	0x3e0ca943	0.13736443
138	0x3db27398	0.08713454
139	0xbbfee18e	-0.007778353
140	0x3dbc75d9	0.09202165
141	0x3d737b07	0.0594435
142	0x3e65df59	0.22448482
143	0x3e36d699	0.178553
144	0xbc5e3c46	-0.013564175
145	0xbdceab50	-0.10091269
146	0xbe01a850	-0.12661862
147	0x3d3f133e	0.04664921
148	0x3d00ac12	0.0314141
149	0xbc8eb38c	-0.017419599
150	0xba96a8a9	-0.0011494356
151	0x3d88dea0	0.06683087
152	0x3da3cd19	0.07998104
153	0x3e596a96	0.21232066
154	0x3e54daa1	0.20786525
155	0x3d795ee2	0.060881503
156	0x3d9fca21	0.07802225
157	0x3e89949f	0.268712
158	0xbe7e488e	-0.24832365
159	0x3e13be4e	0.14428064
160	0x3e145714	0.14486343
161	0xbb471776	-0.0030378974
162	0x3d83da87	0.06438165
163	0xbdfa6eb3	-0.122281455
164	0xbd473d3c	-0.048642382
165	0xbdd0b1dc	-0.10190174
166	0x3c9a8253	0.018860972
167	0x3e0a6c3a	0.13517848
168	0x3d629807	0.055320766
169	0x3dd02331	0.10162962
170	0xbdc6352a	-0.09678109
171	0x3e2618fb	0.16220467
172	0x3e12aaf0	0.1432302
173	0xbd69ee6c	-0.057112142
174	0xbe13b03d	-0.14422698
175	0x3e078657	0.1323484
176	0x3e4397bd	0.19100852
177	0xbcecdb58	-0.028913185
178	0x3b5abdf4	0.003337738
179	0x3d50c873	0.050972413
180	0xbcd313ca	-0.025766272
181	0x3e4ee6f7	0.20205294
182	0xbe26f232	-0.16303328
183	0xbe411d95	-0.18858941
184	0xbc1f95c8	-0.0097403005
185	0x3e25ce06	0.16191873
186	0xbdb744bb	-0.08948656
187	0xbe528463	-0.20558314
188	0x3e44272b	0.19155566
189	0x3dc62c7b	0.09676453
190	0xbc4ea6c2	-0.012613
191	0xbc9efe74	-0.019408442
192	0x3d1f0862	0.038826354
193	0x3cb4a947	0.022053374
194	0x3dd90413	0.1059648
195	0xbd0d5b79	-0.034511063
196	0xbe45c2a8	-0.19312537
197	0x3e10f198	0.1415466
198	0xbe289134	-0.1646164
199	0xbdb081c3	-0.086185
200	0xbdc01bd2	-0.09380306
201	0x3e083e7b	0.13305084
202	0xbd7719e2	-0.06032742
203	0xbe018195	-0.12647088
204	0xbddac678	-0.10682386
205	0xbdd8b6d9	-0.105817504
206	0xbe33e492	-0.17567661
207	0xbe18b8ce	-0.14914247
208	0xbc818102	-0.015808586
209	0x3dba968b	0.09110745
210	0xbd366d71	-0.044537965
211	0xbde82809	-0.11335761
212	0x3df5b985	0.11998276
213	0x3d64c7a4	0.055854455
214	0xbdd4a946	-0.10383849
215	0x3ddc147f	0.10746097
216	0x3d2ff87b	0.04296158
217	0xbe275eae	-0.16344711
218	0x3e3aa86f	0.18228315
219	0x3e2ee2d9	0.17078723
220	0xbd09b69d	-0.03362142
221	0xbe1c41a5	-0.15259416
222	0xbe11b467	-0.14228974
223	0x3d28e462	0.041233428
224	0x3e615885	0.22006424
225	0x3e100e13	0.14067869
226	0x3d891bbe	0.066947445
227	0xbda5964e	-0.08085309
228	0x3e6c0222	0.23047689
229	0x3c30b70c	0.010785829
230	0xbdcdb3a5	-0.1004403
231	0xbe4418be	-0.19150063
232	0x3c993be3	0.018705314
233	0x3da92dc5	0.08260683
234	0x3de5d6f3	0.11222639
235	0xbd940ba5	-0.072287835
236	0x3d8c78b6	0.06858961
237	0x3e15ef2b	0.14642017
238	0x3d3678f3	0.04454894
239	0x3dd8630e	0.10565768
240	0x3ebad879	0.3649328
241	0xbda2fe73	-0.079586886
242	0xbe04f073	-0.12982349
243	0x3e32bf47	0.17455779
244	0x3e20b43e	0.15693757
245	0x3e8947a3	0.26812467
246	0x3e080bd7	0.13285767
247	0xbdbf70f8	-0.09347719
248	0xbc1a1c67	-0.009406186
249	0xbe02edc8	-0.12786019
250	0xbdda1902	-0.10649301
251	0xbdae9e62	-0.08526303
252	0x3d34e145	0.044160146
253	0x3dfc91e3	0.12332513
254	0x3e08c43c	0.13356107
255	0xbe1085f2	-0.14113596

gcn.nn.4.bias f4 [32]
0	0xbc0ce757	-0.008600078
1	0x3de3758c	0.11106405
2	0xbe2d2a5b	-0.16910689
3	0x3deaa4d8	0.11457223
4	0x3e432275	0.19056113
5	0xbd388380	-0.045047283
6	0xbcf405f9	-0.029788004
7	0x3cb95f48	0.022628441
8	0xbe07eb86	-0.13273439
9	0x3dc4a352	0.096014634
10	0xbd422d93	-0.047406744
11	0x3e087730	0.13326716
12	0xbe0e65ad	-0.13905974
13	0x3cf5464b	0.029940745
14	0xbda85243	-0.08218815
15	0x3d680ba1	0.056651715
16	0x3d708af1	0.058726255
17	0x3c553a62	0.013014408
18	0x3de0589a	0.109543994
19	0x3df6ad99	0.1204483
20	0xbda41860	-0.08012462
21	0xbd421de9	-0.047391806
22	0xbdb1fca2	-0.08690764
23	0x3de79856	0.11308353
24	0xbda8b3c0	-0.082374096
25	0x3d9b637d	0.07587335
26	0xbdf76906	-0.120805785
27	0x3d950c60	0.07277751
28	0x3dfba835	0.12287942
29	0xbd17363d	-0.03691696
30	0x3d2312b1	0.039812747
31	0x3e1984e7	0.14992104

gcn.nn.6.weight f4 [3, 32]
0	0xbddb6033	-0.10711708
1	0x3e2288f8	0.15872562
2	0x3e0a31ba	0.13495532
3	0x3e0810e8	0.13287699
4	0xbe216443	-0.15760903
5	0x3d88da78	0.066822946
6	0x3d2f7d70	0.042844236
7	0x3e55a9f9	0.2086562
8	0x3e24034a	0.1601688
9	0x3dab0632	0.08350791
10	0xbd4a959d	-0.04945909
11	0xbe231ea8	-0.15929663
12	0xbdf6a7dc	-0.120437354
13	0xbe55aab0	-0.20865893
14	0x3e53d9cf	0.20688556
15	0x3e7387d0	0.23782277
16	0x3e85cac4	0.2613126
17	0xbd0a9d6a	-0.033841528
18	0x3d0dc4c2	0.03461147
19	0xbdfcebb9	-0.12349648
20	0x3df517b6	0.11967413
21	0xbe122ea2	-0.14275602
22	0x3d5c7202	0.053819664
23	0xbe4c36ec	-0.19942826
24	0x3e4f57ff	0.20248412
25	0x3cffbb10	0.031217128
26	0x3c4e6483	0.012597206
27	0x3e18d03e	0.14923188
28	0x3d7c0ca6	0.0615355
29	0x3d707f6a	0.05871526
30	0x3e90e08b	0.28296313
31	0xbc446f2d	-0.011989397
32	0x3e5b38fe	0.2140846
33	0x3dab192b	0.0835441
34	0xbe62388e	-0.22091886
35	0x3e10b95f	0.14133213
36	0x3e1233fe	0.14277646
37	0xbe226718	-0.1585964
38	0x3e3afafe	0.18259808
39	0x3e3897fe	0.1802673
40	0xbe495712	-0.19662121
41	0x3db4a499	0.08820457
42	0x3e4630f5	0.19354613
43	0xbd9c1bbf	-0.0762248
44	0x3c9962c5	0.018723855
45	0xbe6b6ca5	-0.22990663
46	0xbe7a6b50	-0.24454999
47	0xbdbde6ca	-0.09272535
48	0xbe5d98e0	-0.21640348
49	0xbe3660a7	-0.17810307
50	0x3e62bf16	0.22143206
51	0x3c7f1055	0.015567859
52	0x3e8806da	0.26567727
53	0xbda5d89c	-0.080979556
54	0x3e4462db	0.19178335
55	0x3df39e6d	0.11895452
56	0x3e3e0194	0.1855529
57	0x3e0d48f0	0.13797355
58	0x3e8bb19a	0.27283937
59	0xbd89e078	-0.06732267
60	0x3e3f74cf	0.18696903
61	0xbe6a2e6e	-0.22869274
62	0xbe4d5e9b	-0.2005562
63	0xbe3d2961	-0.18472816
64	0x3dfad8c5	0.12248377
65	0xbd0fccc1	-0.035107378
66	0x3cb82007	0.02247621
67	0xbe16b5ee	-0.14717838
68	0xbd9daf96	-0.07699506
69	0x3e7cd4ca	0.24690548
70	0x3cba873c	0.022769563
71	0xbdd7339c	-0.105078906
72	0x3c6b5338	0.014363103
73	0x3e172cac	0.14763135
74	0x3ca0654f	0.019579558
75	0x3dcc583e	0.09977768
76	0x3e249fb5	0.16076548
77	0xbbe9d460	-0.007135913
78	0xba557215	-0.0008142305
79	0x3e3968cf	0.18106388
80	0xbcafca66	-0.021458816
81	0xbe09bda7	-0.13451253
82	0xbde49038	-0.1116032
83	0xbdd691e1	-0.10477043
84	0x3d937441	0.07199908
85	0xbce47df6	-0.027892094
86	0x3e2e791e	0.1703839
87	0x3dab3854	0.08360353
88	0xbd76d06a	-0.060257353
89	0xb9d92316	-0.00041415606
90	0x3c08679d	0.008325485
91	0xbd67194d	-0.056420613
92	0x3d6c5cc9	0.057705674
93	0x3dcc52c1	0.099767216
94	0xbde27557	-0.11057537
95	0x3d07c771	0.033149187

gcn.nn.6.bias f4 [3]
0	0xbd5e0ce6	-0.05421152
1	0xbe2a8c40	-0.16655064
2	0x3d89f820	0.06736779
