refinement/models/NodeFCN2_refinement.pt (torch, 25985 bytes, 12 tensors)

gcn1.nn.0.weight f4 [32, 6]
00000000: 4596 29bf 87a3 5abe db57 ea3e 889f d83d
00000010: 62f3 81be 32c2 3c3e 303b 1b3d 6c5c 8ebd
00000020: 040b 77be f7b0 c3bc 9aa6 c53d 3198 07be
00000030: 4176 ddbe b879 743e b883 01bf 2a5e c5bd
00000040: be7c 53be 62bc 813e abfb bcbd ce60 803b
00000050: 2102 4e3d 0024 eebd 42dd 243e a242 853d
00000060: 2200 85be 6028 f0be 5fb5 913d 9020 92be
00000070: 5ed5 3dbe e43c 453e 0d61 3ebd 6072 b0be
00000080: 8bbc 683d 38e4 4b3e 1ab5 cb3d 9645 b53c
00000090: f585 d8be 098c b9be 3590 b03e e26e 2c3e
000000a0: 3ba7 813e 90de 7a3c a242 723b fb81 223d
000000b0: c445 103d b864 983c db53 c4bc 26d0 bdbe
000000c0: f6a2 a53e c28d d83e 325c 13bf fe5b 95be
000000d0: 963b ebbc e91a 1a3e 5158 bcbd 51be adbc
000000e0: d272 f7bd 488f 65be 38b3 9cbe 5e82 18be
000000f0: e66c d03e c98a 94be 3907 a0be a47b 59be
00000100: ffb7 35be 68a4 afbe b38b be3d 8fa2 18be
00000110: f562 9fbd ad2e aa3d af0e 773e 2f0c a43e
00000120: eeb2 993d 63d6 e6bb 916e 2fbf dbc5 74be
00000130: 5b5a 0b3e 6db8 9b3d d0b3 34bd 911f debe
00000140: 0af7 6d3e b814 683e 917a 83be b951 afbe
00000150: 1412 b4be 677e 45be e156 80bf 36a9 8b3d
00000160: 2ed6 c83e 2c99 113e a753 efbe 4aae 8b3e
00000170: 4557 723e 8104 123e 8e56 46bd 0a95 bc3e
00000180: cdb8 e93e ce7e d53e 9f4c 61bf a97c 793d
00000190: 4f92 a3bd 544c ce3e 7661 4fbd e746 e7be
000001a0: 6fe6 0a3f f6a8 653e b972 0cbe 06d2 6bbd
000001b0: 27f0 f0be aa03 dfbe d97f df3d bfd0 ecbd
000001c0: 822d 723d f53c c43e fc47 43be e1fa e03e
000001d0: b907 1a3f 9330 e73a 133d a63e f6ce d93c
000001e0: 7234 83be 1868 013f 1265 353f 8538 23be
000001f0: c1a4 48be 5f3d 42be 0f1a 15be 7997 0d3f
00000200: 140b ae3e 9612 853c 7693 bdbe 2fea f53d
00000210: a0a3 f33e 5f1a 8abe 62c6 b73e ff76 10be
00000220: 3a74 793e 3066 17be 8224 37be be11 003d
00000230: b308 3c3f cca5 a5be 094b c2bd 087d b43d
00000240: b827 823e 3f8f 96be 60b8 acbb 3ec8 6e3d
00000250: 3328 853d 9b02 8f3e 8743 83be 70a1 1a3d
00000260: 4f1b 6ebf 5192 fc3d 5137 be3e 9025 6c3d
00000270: 20ba f13e 8edc ddbd 6f8d a13e 31db c4bd
00000280: af41 abbd cc1f c3be 0fba 013d a320 b1be
00000290: 55c0 373f d020 4dbe 757d e5bd 71bb 193d
000002a0: 0c76 93be f07f df3e 555e ce3e 371f 0f3e
000002b0: d2ec 9abe 67fe c7be 8cf0 a73e ab81 f13e
000002c0: 2a8a e13e 031f 983c 573a 0ebd 9f82 8bbe
000002d0: 9968 1c3e dabe 07bf 93cf 733f 9a95 d1bd
000002e0: ba34 2ebe f2a9 cbbe f563 d5be 6d22 9cbe
000002f0: d673 1bbf a9f4 833e 8e79 87be 9eeb d0bd
-0.6624492 -0.21351443 0.45770153 0.10577303 -0.25381 0.18433455 0.037898242 -0.06951222
-0.24125296 -0.023888094 0.09650917 -0.1324165 -0.43254283 0.23874557 -0.5059161 -0.09637101
-0.20653054 0.25339037 -0.09227689 0.00391779 0.050295 -0.1162796 0.16100028 0.0650685
-0.25976664 -0.46905804 0.07114672 -0.28540468 -0.18538424 0.19261509 -0.046479274 -0.3446226
0.056820434 0.19911277 0.09946652 0.022127908 -0.422897 -0.3623965 0.3448502 0.16839173
0.253229 0.015311852 0.0036965986 0.03967474 0.035222784 0.018602714 -0.023965767 -0.37072867
0.32350892 0.42295653 -0.57562554 -0.29171747 -0.028714936 0.15049328 -0.091965325 -0.021208914
-0.12082447 -0.22417939 -0.30605483 -0.14893481 0.40708083 -0.29012135 -0.3125551 -0.21238571
-0.1774597 -0.3430512 0.09303989 -0.14905761 -0.077825464 0.08309684 0.24126695 0.32040545
0.07504831 -0.0070446 -0.68528086 -0.23903601 0.13608687 0.07603536 -0.044116795 -0.43383458
0.23238769 0.22664154 -0.25679448 -0.34242037 -0.35170043 -0.192865 -1.0026513 0.06819384
0.39225906 0.14218587 -0.4674351 0.2728141 0.23666103 0.1425953 -0.04842239 0.36832458
0.45648804 0.41698307 -0.8800754 0.0609099 -0.079868905 0.4029261 -0.050630055 -0.45171282
0.54257864 0.22427735 -0.13715638 -0.05757334 -0.47058222 -0.43557483 0.10913057 -0.11563253
0.05912543 0.38327757 -0.19070429 0.43941405 0.60168034 0.0017638378 0.3246847 0.026587944
-0.2562595 0.5054946 0.70857346 -0.15939529 -0.19594099 -0.18968724 -0.14560722 0.55309254
0.33992827 0.016244214 -0.37026566 0.120075576 0.47585773 -0.26973245 0.35893542 -0.14107893
0.24360743 -0.14785075 -0.1788502 0.03126692 0.73450774 -0.32353055 -0.09486968 0.0881291
0.25420928 -0.29406163 -0.0052710027 0.058296435 0.06501808 0.27931675 -0.25637457 0.037751615
-0.9301042 0.12332595 0.37151578 0.05765301 0.47212315 -0.10833083 0.31553218 -0.0961212
-0.083621375 -0.38110197 0.03167158 -0.34595212 0.7177785 -0.20032048 -0.1120557 0.037532274
-0.28801 0.43652296 0.40306345 0.13976751 -0.30258805 -0.3906128 0.3280071 0.4716924
0.44050723 0.018569475 -0.034723606 -0.27248093 0.15274276 -0.5302559 0.9523861 -0.10233612
-0.17012301 -0.39778095 -0.41677824 -0.30495015 -0.60723627 0.25772598 -0.26459926 -0.102011904

gcn1.nn.0.bias f4 [32]
00000000: 1f16 9a3e 4bb5 5d3e 4a14 133d fc76 bdbe
00000010: 44c6 be3e bbd2 0e3d 3d7f aebc a00c 42be
00000020: 2497 53bd d2b2 a33e cf8a 303d dd1d 733e
00000030: d6c3 083b a6dd 9e3d 51dc 9b3e 477c 363d
00000040: 4fd7 4339 da73 b23c 2161 edbd 117a bfbc
00000050: 7a4c 463e aeab 6abd bcfd b33e 20ca e23c
00000060: 41fe d23e 10f1 2b3d 8ac1 04be 1168 f7bc
00000070: 2958 1c3e c0ee 48bd a5d0 9d3e 99bd 193e
0.30095002 0.21651189 0.03590802 -0.3700484 0.3726064 0.034868937 -0.021300906 -0.18950129
-0.05165781 0.31972367 0.04310113 0.2374186 0.002086868 0.0775712 0.30441526 0.044552114
0.00018676858 0.021783758 -0.115907915 -0.023373635 0.19365111 -0.057292633 0.3515452 0.027684271
0.41209605 0.041977942 -0.12964454 -0.03020099 0.15268005 -0.049055815 0.30823246 0.15013732

gcn1.nn.2.weight f4 [32, 32]
00000000: 6cea e23d 15a6 18be 27e8 673e 059c 3f3d
00000010: 397c ccbc 1507 eebc 586e 043e bbf7 273e
00000020: 477a 74be 471f a43d 28c1 71bc f007 e13d
00000030: 2a28 1e3e d2c1 073e 5f1e 37bb c42a d4bc
00000040: 5618 24bd c510 22bd 491e 7e3d 2e84 1e3d
00000050: 7d4e 03be 3695 373d c418 7ebc dea3 46bc
00000060: 71f2 233d 95e2 a53e ca24 033e c07a 0d3e
00000070: c8a2 25be 0fe5 3a3e b982 9d3d dbfe 7a3d
00000080: a7bc 4bbd c19f 0ebe 5cbd ca3d 561e 85bd
00000090: 9bd2 023e 5554 00be 9cf0 a03d e03a 963d
000000a0: 19c2 073d def0 073e a800 063e 1999 bcbd
000000b0: a917 6c3c 3937 043e d1a9 68bc e0b3 073d
000000c0: ced3 bd3d 15d6 f5bc 2c9a a33d 8ea9 6d3e
000000d0: dc1e 2cbe 7363 0d3e 2bb2 013e 5a00 90bc
000000e0: ee55 f63d fa4b 973e 29d9 1a3b 609f b0bc
000000f0: df6d f93d 2078 f73d a722 72bd ce9f b1bd
00000100: 9367 1f3e d6d7 92bd 7aeb d1bd 6a7c 033e
00000110: 6f3c 913d ff49 743e 1e04 75bd 8c39 213e
00000120: 3022 e2bc 4bc0 f6ba 5c00 7b3e ed1a febd
00000130: 47cd e13b 7137 c6bc 5b3e 503e 5761 13be
00000140: 77d7 fcbc 61cf 953d 73ff 1abe 6335 823e
00000150: 985b 3f3b a256 ef3d a23b ec3c ce25 2d3d
00000160: e5c3 b2bd 816a 0cbe 2e61 043e b901 85bd
00000170: 0590 18bd d7ac f53d 372d b13d 033d bc3d
00000180: 70b9 27be b672 9ebd f10b 033d 0049 01be
00000190: 0fc9 683d 854d d8bc 085a 803b 1046 19bb
000001a0: 469e ad3d 828d f5bd f085 0dbd cc2e 2c3e
000001b0: ca33 5c3e e2ad 00be a53a 493d 65e2 813c
000001c0: dbb9 073d 50c8 233e b16d 423d 7e55 513e
000001d0: 4806 42be 84f5 043e c012 453e 0bbc acbc
000001e0: f46d b43d cc1b 833e 8384 193e 995b 413d
000001f0: db6b cabd 4d54 013e 10df 813c 8fbf a43d
00000200: 4f20 5d3c 8827 efbd bdb4 463e 067e c9b9
00000210: 1835 423d cb19 84bd 7ccc 2dbc f7f5 18be
00000220: 9710 2b3e a845 50bc 9f64 5c3e b406 30bd
00000230: e5f6 81bd 3133 87bd f5d5 08be 1e59 2ebe
00000240: 071d 9d3d c0ca 053d 1dab 183e 38dd 9f3e
00000250: 66d8 0bbe 90e2 6c3e b5bd a33d ceaa 48bd
00000260: fc10 0f3e 57cd 0f3e 6020 113e 47a2 043e
00000270: 6230 cebd 2dae d43e faae debd 1567 3a3c
00000280: d029 0dbe 5554 65be 75a5 323d f12b 18be
00000290: 16a8 74bd 29a9 2fbe 3807 213e 416b 923d
000002a0: 2874 98bd 2010 78be 5421 edbc bc40 33be
000002b0: 2c43 9e3e 8b87 8b3c 3ca0 9abd 5670 2e3c
000002c0: 00c0 943d 651d 92bd 1851 14be 65fe d63d
000002d0: f7a8 063d 641e bfbd e3bc 60be 31f2 633e
000002e0: f079 32be 3e53 933d e68f df3d 2d9b 42bd
000002f0: da40 9f3d e780 213e fe44 2fbe 2ef5 c8bd
00000300: 03ae 35be 173c 083e 60a2 99be 7456 05be
00000310: 205e 3dbe f0d1 59be 4999 1cbe a605 153e
00000320: 17c2 57be 096b 043e 1f96 893e dce9 1b3e
00000330: 3b58 5cbe a4f0 c43d 2b3e 32be 1754 97be
00000340: 0980 7ebe c403 87bd 4901 33be 592d 58be
00000350: c34f de3c d0ee e6be e6d2 fc3c bfea 8b3d
00000360: 0d50 df3d a734 1abf 97df 37be 3089 b6be
00000370: 8d5c d83d c3f8 cbbe f98c 05be c978 4abe
00000380: ff3a 523d 555c fdba 49d8 1a3e c8ad 1ebc
00000390: 9fd0 b73c d2dd 153e d7c4 053e 2db9 06be
000003a0: 8ee9 0bbe 9e62 073e 7381 873d 29f1 10be
000003b0: d549 23be d57b a0bc 75bd c33b 965f bb3d
000003c0: 248e 123e d7b6 4e3e 2745 40be db95 d3bd
000003d0: 1bde 31be 5072 13bc b94a 92bc df37 c43d
000003e0: 3f39 323d e824 303e b2d0 acbd 790c 8c3e
000003f0: 6dda 50be a7dc 043d f539 f53d 8d51 523e
0.11079869 -0.14907105 0.22647153 0.04677965 -0.024961578 -0.029056111 0.12932718 0.16403095
-0.2387477 0.08013778 -0.014755525 0.10987842 0.15445009 0.1325753 -0.0027941687 -0.025899298
-0.04006227 -0.039566774 0.0620406 0.038700275 -0.1282291 0.044820033 -0.015508834 -0.01212403
0.040026132 0.3239943 0.12807003 0.13816357 -0.16175377 0.18251441 0.07690949 0.061278205
-0.04974046 -0.13928129 0.09899399 -0.06499927 0.12775652 -0.1253217 0.078583926 0.07335448
0.03314409 0.13275477 0.13086188 -0.092088886 0.014409938 0.12911691 -0.014200644 0.033130527
0.09268914 -0.030009309 0.0798839 0.23209211 -0.16808647 0.13807468 0.12665622 -0.017578293
0.120281085 0.29550153 0.0023627973 -0.02156037 0.121791594 0.12083459 -0.05911508 -0.086730585
0.15566854 -0.07170074 -0.10249992 0.12840429 0.07091605 0.23856352 -0.05981838 0.15744609
-0.027604192 -0.0018825618 0.24511856 -0.124074794 0.006890926 -0.024196358 0.20336287 -0.14392601
-0.03086446 0.07314945 -0.15136509 0.25431356 0.0029198881 0.11686446 0.028837029 0.04227238
-0.0872877 -0.13712503 0.12927696 -0.06494469 -0.037246723 0.11995857 0.08651202 0.091913246
-0.16379333 -0.07736723 0.03199381 -0.12625504 0.05683237 -0.026404152 0.0039169826 -0.0023387708
0.08477454 -0.11989881 -0.03455156 0.16814727 0.21504131 -0.12566331 0.049128193 0.015855024
0.03313623 0.15994382 0.04746789 0.20442769 -0.18947709 0.12984282 0.19245434 -0.02108576
0.088100344 0.25607145 0.14991955 0.047206495 -0.09883853 0.12629814 0.015853435 0.080443494
0.0134964725 -0.11677462 0.19404884 -0.00038431602 0.047413915 -0.06450232 -0.010607835 -0.14937578
0.16705547 -0.01271192 0.21522759 -0.042975143 -0.063459195 -0.06601561 -0.13362868 -0.17026183
0.07671552 0.03266406 0.14909025 0.31223464 -0.13656768 0.23133302 0.07995168 -0.048991017
0.13971323 0.14043175 0.14172506 0.12952529 -0.10067822 0.41539136 -0.10873218 0.011377116
-0.13785481 -0.22395451 0.043614823 -0.14860512 -0.05973061 -0.17154373 0.1572541 0.07149363
-0.0744403 -0.24224901 -0.028946556 -0.17505163 0.30910623 0.017032405 -0.075500935 0.0106469
0.072631836 -0.07134513 -0.1448406 0.10497741 0.03287598 -0.093319684 -0.21947055 0.22260357
-0.17429328 0.071936116 0.10916118 -0.04751127 0.07776041 0.15771829 -0.17116162 -0.09812389
-0.17742161 0.13304172 -0.30006695 -0.1302126 -0.18492937 -0.21271491 -0.15292849 0.14552936
-0.21070133 0.12931456 0.26872346 0.15225929 -0.21518032 0.09616211 -0.17406528 -0.29556343
-0.24853529 -0.06592515 -0.17480959 -0.21111049 0.027137643 -0.45104074 0.030862283 0.06831884
0.1090394 -0.6023659 -0.17956387 -0.3565154 0.10564528 -0.39838228 -0.13042058 -0.19772638
0.051325794 -0.0019329885 0.15121569 -0.009684987 0.022438345 0.14635399 0.1306337 -0.13156576
-0.13663313 0.13221213 0.06616487 -0.14154495 -0.15946133 -0.019590298 0.005973513 0.09149091
0.14312035 0.20186935 -0.1877638 -0.10331317 -0.17369883 -0.008999422 -0.017857896 0.09580969
0.043511625 0.17201579 -0.08438243 0.27353266 -0.20395823 0.032436993 0.11973945 0.20538922

gcn1.nn.2.bias f4 [32]
00000000: d5db d9bd 6e12 153e e5c9 033e b664 b5bd
00000010: a66e fc3d 5329 bcbc 93df e63d 4371 e0bd
00000020: 0832 e6bd c0ad ae3d 3fee 7cba c91a 033e
00000030: 2144 0a3e 26e5 23bb 64b9 b2bd bd7c 7bbd
00000040: 5f13 60bc e99b b83d 57b7 d2bd 2ea5 073e
00000050: 39ff 063e ddbc 563d bc5c 243e 1010 273e
00000060: b326 723d 409d e4bd 376e 013e d946 123e
00000070: e379 0dbe c84a b7bc f267 a0bd 53e5 a53d
-0.10637633 0.14557812 0.12869985 -0.088571 0.12325792 -0.022968924 0.11273112 -0.10959103
-0.112400115 0.08529234 -0.00096485385 0.12803186 0.13502552 -0.002500841 -0.08726767 -0.061398257
-0.013676493 0.090141125 -0.102888756 0.13246605 0.13183297 0.052426208 0.16051 0.16314721
0.059118938 -0.111628056 0.126397 0.14284839 -0.13816027 -0.022374526 -0.07832326 0.08100381

gcn1.nn.4.weight f4 [32, 32]
00000000: f2b0 04be 6eb2 9a3d 4093 37be e0f5 773d
00000010: b5d5 15be 6c42 373d b5aa 45be e1f5 5ebd
00000020: c91d 8bbe f3ec 9cbd 8a14 31be dcfe f73d
00000030: 7575 d5bd 2c81 f3bd 524b b2bd 58ad debd
00000040: 068c 5ebe 3ffa 083e 45d7 ebbd e366 02be
00000050: 322e babd 5d5f 4bbd 61be a23d 3860 143e
00000060: f738 b7bc 073c 14be adbc 23bd c7a5 c7bd
00000070: 7bcb 983d 58c3 cb3d 5549 9dbd e945 163d
00000080: 3159 ef3d a990 9ebd 9e97 293e 459d 1b3d
00000090: 5ee9 1cbd a9cc cc3c 3734 9dbd de36 3d3e
000000a0: 1996 5a3e 8c67 8abb de33 493d b3b2 ae3e
000000b0: 2b94 30be a50e 7ebd bd4a 94bd 8000 0c3e
000000c0: 8039 253d 76f7 c83e 360d 2fbd ace6 2e3d
000000d0: 65da 1ebd 571b 823b d4c8 c03d 18d5 3f3d
000000e0: 98ae 37be 8d58 b5bd d169 2c3d 820c 1f3e
000000f0: 47a2 82bd 4071 6c3d 8e6c c7bd 8159 d23d
00000100: f8b4 8eba 2da1 00bd 8908 eebd dbf5 963e
00000110: b883 7cbd 6f89 293e f11c 25be 91bd ca3b
00000120: 961c 45be 0b19 b43c d2ae 84be 62a9 25be
00000130: 6eb9 15bd 2c6b 8dbe 9cca 97bd f452 0b3e
00000140: 38af 993d b829 b33d f28e e03d e787 bcbc
00000150: 9eea 89bb 2708 7c3d ba48 223e e8de bbbc
00000160: a15e e23c b729 b3bd a09a d93c e630 fabb
00000170: 4d6e ba3d 679f b43c 6e8f 29bd 1b42 0f3e
00000180: 2524 45be c819 bbbd 578a c13d bfa0 2bbd
00000190: 6d14 83bd 4e30 3f3d 01f8 60bd 956f 05bd
000001a0: 5c50 4d3d 9854 ebbd b3b4 fbbd efc4 823e
000001b0: 668e 11be cbb2 b73d 4ddf 0bbe 897e 43be
000001c0: 9108 5ebe e08d dd3d 880d 003e 0a83 6dbd
000001d0: 4f63 da3d 0f70 f03d 84d6 4b3b 0022 1ebe
000001e0: f9db 833d 1305 bdbd b260 1dbe dfcf 1ebe
000001f0: e843 333c 3d4e ecbd 1c25 03be ec32 ae3c
00000200: 4a4d 8b3e ccca c93d e92c 253e 8942 71be
00000210: 7f8b 933d 11c3 49be 67a4 06be ed99 21be
00000220: f251 03be ddbb 853d 991d fc3d 5fe5 bfbd
00000230: cbdb db3c d419 aa3e 9747 b13e 202a 053e
00000240: 06ac de3d eb00 a6be b9d1 7fbb 1022 773e
00000250: 0832 92bd ffb8 ce3d 0e05 2f3e 7d05 1bbe
00000260: 3499 413e 182c 213e 4772 a33d 353a 653c
00000270: ac52 74bd 5ab7 dcbd c331 85bd 3508 3abe
00000280: d1bc 98be db8b 32bd f15b cebc e76c dcbd
00000290: 7268 89bd 08c0 803e eb4a 403d f192 cb3d
000002a0: 0c5f c2bd 8b89 18bd 1305 d9be e272 41bc
000002b0: 9369 2bbe 316e 93be 653d d9be 5e43 e43d
000002c0: de70 5fbe 11bd e23d 9c5f e03d ab20 ccbd
000002d0: f24b 1cbd 9e04 323e 9ebf 5fbc ad46 52bd
000002e0: fd08 27be 820d 34be 144d 56be 9417 33be
000002f0: d0f3 febb cb96 0b3e 2826 943d a36a 203e
00000300: 1617 3b3e 01db a33d 4216 9abc 064e 883d
00000310: 2c91 613c 6813 7bbe 7e72 92be 91e2 9abe
00000320: 58da 5ebe 2fa7 913d 9043 32be f1fb c3be
00000330: a65e 49bd c7f0 38be d7f0 4dbe 1e49 27bd
00000340: 662b cabc 18c1 70bd dda3 8f3d c8c4 3dbe
00000350: f056 debc 4055 d0bd 8860 f53c 197a 6b3d
00000360: 2233 a9bd f951 35be 38ef f0bb d04d 3abe
00000370: a12d c73d 75f2 18be c8dd edbd 64b4 10be
00000380: fa65 803e be8c 973d cdf7 1c3c f671 613d
00000390: 67c1 0a3e 3723 9abe e84c 5ebe 0dc8 7cbe
000003a0: 293d ffbd aaa2 2b3c ae5b 48bd bf3a 0ebe
000003b0: 44fb 1a3e 5794 fd3d a8ed 853e 6a99 073e
000003c0: 5a04 5b3e 700c b3be 340e 85be c436 e23b
000003d0: 2590 39bd bff0 083e 8ee0 0dbe e0fc d73c
000003e0: a2f7 df3d 66a3 333e 40d3 c33c 3366 4cbd
000003f0: 3800 883d f395 34be f53e 563d 4a54 01be
-0.12958124 0.07553564 -0.17927265 0.06053722 -0.14632304 0.04474108 -0.19303401 -0.054433707
-0.27171162 -0.07662382 -0.17292991 0.121091574 -0.10422794 -0.11889872 -0.087057725 -0.108729064
-0.21733102 0.13376711 -0.11515669 -0.1273456 -0.09090842 -0.049651492 0.07946468 0.1448983
-0.02236603 -0.14476024 -0.039974857 -0.097484164 0.07460686 0.09949368 -0.076800026 0.036687765
0.11686934 -0.077424355 0.16561744 0.03799178 -0.038308494 0.024999933 -0.07675975 0.18477961
0.2134632 -0.0042237695 0.04912173 0.34120712 -0.17244022 -0.062025685 -0.07240818 0.13672066
0.04033804 0.39251298 -0.04273721 0.042700455 -0.038782496 0.0039705443 0.09413305 0.04683408
-0.17937696 -0.0885478 0.042093102 0.15532115 -0.06378608 0.05772519 -0.09737502 0.10270978
-0.0010887673 -0.03140371 -0.11622722 0.29484448 -0.061649054 0.16556333 -0.16124322 0.006187149
-0.19249186 0.021984598 -0.25914627 -0.16177896 -0.036553793 -0.27620828 -0.074116915 0.13605863
0.075041234 0.087481916 0.10964765 -0.023014022 -0.0042088768 0.061531212 0.15848055 -0.022933438
0.027633013 -0.08748191 0.026562989 -0.0076352237 0.091030695 0.022048665 -0.04139655 0.13990061
-0.1925207 -0.09135777 0.09450214 -0.041901346 -0.0640038 0.046676926 -0.054924015 -0.032577116
0.050125465 -0.11490744 -0.12290325 0.25540873 -0.14214477 0.08969649 -0.13659401 -0.19091238
-0.21682955 0.10818076 0.12505162 -0.057986297 0.10663473 0.117401235 0.0031103203 -0.15442657
0.06438441 -0.092294835 -0.15368918 -0.15508984 0.010941483 -0.1153836 -0.12807125 0.021264516
0.27207404 0.098531336 0.16130413 -0.23560537 0.07204341 -0.19703318 -0.13148652 -0.15781374
-0.12824228 0.06529973 0.12310333 -0.09369921 0.026838204 0.3322283 0.3462493 0.1300435
0.108726546 -0.32422575 -0.0039034917 0.24134088 -0.07138449 0.10093879 0.17091772 -0.15138812
0.18906099 0.15739477 0.07980781 0.013990928 -0.059649155 -0.10777159 -0.06503632 -0.18167193
-0.29831555 -0.043590408 -0.025190325 -0.10762959 -0.067093745 0.25146508 0.046946447 0.09940136
-0.09490785 -0.037240546 -0.42386684 -0.011807175 -0.16739492 -0.28795007 -0.42429653 0.11145662
-0.21820399 0.11071218 0.10955736 -0.099671684 -0.038158365 0.17384574 -0.013656525 -0.051336933
-0.16312023 -0.17583278 -0.2092784 -0.17489463 -0.0077805296 0.13631742 0.0723384 0.15665679
0.18270525 0.08000756 -0.018809441 0.06655507 0.013767522 -0.24519122 -0.28602976 -0.3025098
-0.21762979 0.07111966 -0.17408586 -0.38278154 -0.04916253 -0.180606 -0.20111404 -0.040841214
-0.024678897 -0.0587779 0.07013676 -0.18532097 -0.027141064 -0.1017251 0.029953256 0.05748949
-0.08261706 -0.17707051 -0.007352736 -0.18193746 0.097255 -0.1493624 -0.11614567 -0.14131314
0.25077802 0.07399891 0.009580565 0.055040322 0.1355034 -0.30104992 -0.21709025 -0.24685688
-0.12462837 0.010475794 -0.048915558 -0.13889597 0.15134913 0.12381809 0.2615788 0.13242117
0.21388379 -0.34970427 -0.259874 0.006903501 -0.045303483 0.13373087 -0.13855192 0.026365697
0.10935904 0.175428 0.023904443 -0.049902152 0.06640667 -0.17635326 0.052306134 -0.1262981

gcn1.nn.4.bias f4 [32]
00000000: 9037 adbd 2154 21be efa7 90bc bca1 003d
00000010: d8f2 04be b8ab 873d acc9 833c 54e9 bd3d
00000020: ca70 14be 9b9d 803c c589 013d 48ff d13d
00000030: 632d 14be 9d3a 803d 20a9 11be 72e4 93bd
00000040: 1217 babb 46c1 f7bd 09b0 5fbd 54cf ee3d
00000050: 1ade acbd 55b0 e8bd a86a 2c3e 6a7f 0cbd
00000060: 5e09 04be 9124 173e 1907 35bd 1ee2 23be
00000070: be45 d3bd 02e4 1bbe dc29 2ebe 9f28 80bd
-0.08457863 -0.15754749 -0.017658202 0.031404242 -0.12983263 0.066245496 0.016087376 0.092730194
-0.1449615 0.015700152 0.031625528 0.10253769 -0.14470439 0.062611796 -0.14224672 -0.07221307
-0.0056790197 -0.12097411 -0.05461124 0.116606385 -0.084408 -0.11361758 0.16837561 -0.0343012
-0.12894198 0.14760043 -0.044196222 -0.16004226 -0.10316037 -0.15223697 -0.17008156 -0.06257748

gcn2.nn.0.weight f4 [32, 64]
00000000: 7ed7 273b 0688 1f3e b3ce ba3c 85e9 cfbd
00000010: 4f5c a0ba 22d6 7abd 6f08 943d f82e b63c
00000020: 8250 12be 45b3 c93d fd39 0b3e 6810 b1bc
00000030: 06ea 96bd 5fbf e03d cbfa c1bd edc3 ea3d
00000040: 0576 c53d 2b31 05bd 92c8 56bd de03 59bd
00000050: 64a3 83bd c9ce 983d 15bb 523d 453e 7f3e
00000060: 6081 003d fe9f c23d a893 d7bd 27e4 1f3e
00000070: 9c0a 173d 8b8f bb3d a480 9a3d cf3c 97bd
00000080: cccc ffbd 72e7 9bbd 7439 dd3d ba2f bebd
00000090: 587c ff3d 009d 58bd 304e b5bd c4b2 513d
000000a0: b027 26bd 4075 59bd 585b 5c3d d85f 9a3d
000000b0: 00f6 b03c 0a5f 85bd 10cf 1c3d 164c c53d
000000c0: a891 b5bd c8fc e8bc 80c5 acbd 0469 fdbd
000000d0: e060 363d 9430 663d fc8a b3bd e86c 833c
000000e0: 2e79 f6bd 4c4d 02bd 607d ad3b c83d 99bc
000000f0: e038 bf3c f800 ddbc e078 383d 9494 773d
00000100: 2664 c4bd 66e1 973d 30c2 eebc 2688 e83d
00000110: 687a 21bd 80d5 46bd a8b4 de3d 6e51 fbbd
00000120: 38b4 a03c 5035 fc3c de31 d7bd 1cd8 eebd
00000130: 3cf0 773d a04b f9bc 4eb7 d43d 6ab4 b93d
00000140: 6861 89bd f080 de3c e0b6 e73b a017 2e3d
00000150: 8c7c 263d 200b fa3d 2650 aabd a09b eabb
00000160: 04f9 6d3d 601a ea3d 26b0 ea3d f00c 7dbd
00000170: 0019 d7ba c28c 98bd d8de be3d e8f7 00bd
00000180: 3a96 ba3d c238 d63d e001 cfbc b626 c03d
00000190: 5e64 dfbd 18de b03c 0060 7d38 c0f6 483c
000001a0: e2c7 cbbd 0879 7ebd c028 cfbb e83d f23c
000001b0: 8c4c 2cbd 7052 183d d864 ea3c 8c3c 84bd
000001c0: 5aea e53d a462 ad3d 326e dfbd 4647 cc3d
000001d0: 001c 80bb 20f2 95bb b84f cc3d 844e cfbd
000001e0: 40b0 fbbb ae23 a23d f287 97bd 88ea 61bd
000001f0: e41e ef3d 0825 88bc 704b 00bc f44b 053d
00000200: 7cbe 993d 7290 a43c aa4f 1b3e d2cb 463d
00000210: f689 aebd 9269 273e b0e8 20bd b160 04be
00000220: 5434 d8bb eaa4 c7bc 2abe f0ba 4c01 3d3e
00000230: e84f 8e3d 6382 a63d 23f5 eebc bcff 373e
00000240: 7079 03be 6a67 c3bd 1743 c93b 4cee b8bd
00000250: 349d 14bd e584 823d e2cb dcbb 6666 a93d
00000260: 849d 4bbb 5ef2 e3bd 8239 953d 76dc b63e
00000270: fa6a fdbd a2db 2ebc 4252 b43d e048 e4bd
00000280: b084 84bd 5486 6dbd 648e 9dbd 3cd7 f3bd
00000290: 544b 84bd 4862 703d eca9 873d 68bc d0bc
000002a0: fed2 96bd 4ecd bb3d a860 fc3c f826 df3d
000002b0: 1881 e5bc 5812 6ebd 043c bcbd bcc7 753d
000002c0: bca9 a53d 60d2 b7bc 88c1 873c 8092 8fbb
000002d0: 3096 a83c 788d ed3c 7ec9 fdbd 0c7f dd3d
000002e0: 5427 c0bd 5678 f7bd c01c 02bd e0d3 a23b
000002f0: 0040 01bd f081 143c 525e f53d 3070 e5bc
00000300: a89c 023d 77a3 d3bd a35a 1f3e 948f edba
00000310: 97be 573d edfe 9abd e4c7 b93d 92ab fa3c
00000320: 74b6 6b3c 2385 a1bd c552 c3bc 44f7 b23d
00000330: 9de4 adbd 8810 e13d 7418 56bd 6507 71bd
00000340: eee4 19bb 1d24 243d 68de 1dbc fa68 f43d
00000350: f2e3 10be 9410 b9bc 2d5f 723d b770 613e
00000360: 2512 22bb 090a cebd 3814 aa3c 5b79 0bbe
00000370: bb25 55bd 725e c4bd cc05 2abd 5a1f 86bd
00000380: 2ceb bebd 80b2 6e3d 68a0 2c3d 8875 e03c
00000390: 687e 6c3d 406f 6abd ec19 2dbd 5c00 b6bd
000003a0: ba59 afbd 181e f1bd 90c5 273c 44d0 933d
000003b0: cca8 96bd 7081 8ebd 707d 5bbd 0c46 e23d
000003c0: 0817 943c a00b d13b bcd8 643d 40e3 f1bc
000003d0: 08d6 fdbd 905a 0cbd 5c98 0d3d 428b f1bd
000003e0: 3ad8 92bd d0dd 643d dc1f c33d 7ca6 1cbd
000003f0: b82e 0cbd cac1 be3d 0813 e03c 709b ecbc
0.002561062 0.15579233 0.02280364 -0.10151962 -0.0012234541 -0.06123937 0.07228171 0.022239193
-0.14288524 0.09848646 0.1359634 -0.021614268 -0.07368855 0.10974001 -0.09471663 0.11463151
0.09641651 -0.032517593 -0.052437373 -0.052982204 -0.06427649 0.07461316 0.051447947 0.24926098
0.03137338 0.09503172 -0.1052621 0.15614377 0.036875352 0.09158238 0.075440675 -0.07384645
-0.12490234 -0.07612504 0.10801974 -0.09286447 0.124748886 -0.052884102 -0.08852804 0.051195875
-0.040565193 -0.053090334 0.05379805 0.07537812 0.021601677 -0.06512268 0.038283408 0.09633653
-0.08865672 -0.028440848 -0.08436108 -0.12373546 0.04452598 0.05619867 -0.087667435 0.016043141
-0.12034832 -0.031811997 0.005294487 -0.018706217 0.02334255 -0.026978001 0.04503715 0.06044443
-0.09589414 0.07416038 -0.02914533 0.11354093 -0.039423376 -0.048543453 0.10874301 -0.12271391
0.019617185 0.03078714 -0.10507558 -0.11662313 0.06053184 -0.030431569 0.10386525 0.090676144
-0.06708032 0.027161092 0.007071361 0.042503 0.04064612 0.12209153 -0.08316068 -0.007159665
0.058098808 0.11430812 0.11459379 -0.061779916 -0.0016410649 -0.074487224 0.09319848 -0.03148642
0.09110685 0.104600444 -0.025269449 0.093823835 -0.109078154 0.021590278 6.0409307e-05 0.012265861
-0.09950234 -0.062127143 -0.0063219965 0.029570535 -0.04206519 0.037187994 0.02861254 -0.06456861
0.1122634 0.0846608 -0.1090969 0.09974532 -0.003909588 -0.0045759827 0.09976143 -0.101223975
-0.0076809227 0.079169616 -0.073989764 -0.055155307 0.11675814 -0.01661922 -0.007830486 0.032543138
0.07507035 0.020088408 0.15167108 0.048534222 -0.08522408 0.16348866 -0.039284408 -0.1292751
-0.006598035 -0.02437063 -0.001836722 0.18457526 0.06948835 0.08130338 -0.029169625 0.17968649
-0.12839293 -0.09541209 0.006142031 -0.090298265 -0.036282733 0.06373004 -0.006738172 0.08271484
-0.0031069228 -0.11130212 0.07286359 0.35715073 -0.1237392 -0.010672482 0.08804752 -0.11146712
-0.06470621 -0.057989433 -0.076931745 -0.11906287 -0.0645968 0.05868748 0.06624207 -0.025480464
-0.07364462 0.09170018 0.030807808 0.108961046 -0.028015658 -0.058122963 -0.091911346 0.060004935
0.08089015 -0.022439182 0.016571775 -0.004381478 0.020579427 0.028998122 -0.12391947 0.10815248
-0.09382501 -0.12083499 -0.0317657 0.004969105 -0.031555176 0.009064183 0.11980881 -0.028007597
0.03188768 -0.10333913 0.15561919 -0.0018124455 0.052671995 -0.075681545 0.09071329 0.03059939
0.014386762 -0.07886722 -0.023843179 0.087385684 -0.0849087 0.10989481 -0.052269414 -0.058844943
-0.00234824 0.040073503 -0.009635545 0.11934085 -0.14149454 -0.022590913 0.059172798 0.22015654
-0.0024730053 -0.10060508 0.020761594 -0.13620512 -0.052037936 -0.095883265 -0.041509435 -0.065489486
-0.09322199 0.0582757 0.042145163 0.027399793 0.057737738 -0.057235003 -0.04226105 -0.08886787
-0.08562036 -0.11773318 0.010239974 0.07217458 -0.07356414 -0.06958282 -0.053586423 0.11048517
0.018077388 0.0063795596 0.055870757 -0.029527307 -0.12394339 -0.034266055 0.03456913 -0.117941394
-0.07170148 0.0558756 0.09527561 -0.03824471 -0.034224242 0.09314306 0.027352825 -0.028882712

gcn2.nn.0.bias f4 [32]
00000000: 8a46 f6bd 4005 1b3b 6676 d13d 8eab 01bb
00000010: c24b 7d3d b026 92bd 7c24 a03d 1ef9 ce3c
00000020: bd55 083d ba10 8ebc e0c3 f6bd 7e3e b0bd
00000030: 6eb8 d93d 44e9 b5bd 0da2 aa3d 05ef debc
00000040: 7cc1 383d fd5d 3e3d 63e4 e13c e2c0 623d
00000050: 9311 ea3c e221 aabd 50f1 83bd 8ffb dabd
00000060: ac3c 3ebd a089 4d3d 82cd e93c fc39 9e3c
00000070: ecbe f4bd d43e 35bd ba13 34bc 7ccb de3d
-0.12025173 0.0023654252 0.10227661 -0.0019786092 0.061839826 -0.07136285 0.07819459 0.025265273
0.03328489 -0.01734196 -0.12049079 -0.086056694 0.1063088 -0.088823825 0.0833169 -0.027213583
0.045106396 0.046476353 0.027574724 0.05535973 0.028572833 -0.08307244 -0.06442511 -0.10692512
-0.04644458 0.050180078 0.028540377 0.019314758 -0.11950478 -0.04424937 -0.010991031 0.10878655

gcn2.nn.2.weight f4 [32, 32]
00000000: a805 013c 681f 18be 4c48 63be db49 713d
00000010: 0e59 243e 98f0 66be db54 2fbd ae1c a3bd
00000020: 0607 33bc d7f4 05be 6ea7 9c3d f26a 03be
00000030: cec5 213e 927d 6dbd be9c 2c3e a4e7 373d
00000040: 961c b43d a0a3 833e fec1 1f3e 436c 013e
00000050: 9008 3ebe ebb2 0a3e 2923 1dbe 67eb dc3c
00000060: 4c9c 05be 030c 3fbc 4de6 52be 3043 603e
00000070: aaa6 b1bd d295 fabd b77d 0a3e 9969 363d
00000080: 408b 363d 5b6a e33d 8858 0dbe c24b 333e
00000090: 60f4 efbd 6709 d9bd 3d92 133b 3832 27be
000000a0: ad29 673c d240 443c f5b2 f3bd 012e 9c3d
000000b0: e718 0dbe 3100 fe3d b0fb e73c e24c 9a3d
000000c0: c8b0 b63d 0599 093e 382b 29be 666a c8bd
000000d0: 472a 273d 8003 213e d562 c1bd 9cc1 e4bc
000000e0: 6934 e0bd d130 c13d ef76 afbd 6abf c8bc
000000f0: 0596 ebbb e4ea 0bbe b2ef 053e 23e3 e3b9
00000100: 2981 f83c 2e90 2e3e 865e 713d 00e3 bcbd
00000110: dde1 7f3d ab2a 74bd 2e67 51ba e81a 93bd
00000120: 46ce 683d fe62 1c3d 84bf db3d e495 20be
00000130: 0482 043e 413e 9f3d 200c 07be 71c4 033d
00000140: 2b6e aebd 4bd8 55bd f0fa 083e 870d 30be
00000150: 9a53 bebd 452f 0b3e 97f8 0b3d 4973 0a3e
00000160: 017c f13c 762d 17be 809e 5b3d a2d4 7abd
00000170: d307 c1bd 3503 563d a712 953d 58bd f53b
00000180: c0f1 ab3c ddb9 cf3d f690 0c3e 8a85 dcbd
00000190: c329 d33d 354c 8ebd fc48 b1bc 546d 05be
000001a0: 6952 8dbd ce8b 14be c1d2 7e3c 7443 653c
000001b0: 35c6 83bc 90b4 fd3d 347a a33c 6d99 b8bd
000001c0: 9f58 3f3d ec13 28be b60f 4ebd 2523 cc3d
000001d0: 1b92 dfbc 8721 123d dc6a adbd 271b be3d
000001e0: ca64 343d 1fce 4e3d 3c5f 113e 8bb7 e0bd
000001f0: ecae 003e bab3 bdbd cf3a 283e 84ba 9dbd
00000200: cc27 283d 3145 dabd 898e d73d e1b0 993d
00000210: db86 18bd 29a3 c9bd 8cd1 0fbe 1fc6 073e
00000220: 1d6d d3bd 8d6a 6cbd 2888 f93c 5970 0bbe
00000230: 43db 36bd 0db4 d6bd 9193 133d 1987 7dbd
00000240: 5e05 05be 16a5 1c3c 3090 b4bc bb32 de3d
00000250: abda 2a3e 0d48 333e 0fd3 593c 07aa 003e
00000260: 3fd4 173b 2dad 803d 9821 b4bd 2c5f 243d
00000270: abc9 cc3d ddd4 28bd 2ec4 fcbd d604 7d3d
00000280: b76d c73d aa8f f8bd 42bd 88be e6ee bbbd
00000290: a874 b1bd 9ba6 523d 7914 4b3e de16 c3be
000002a0: cb81 533c 853a 66be afd4 d73d 9110 1bbe
000002b0: 1534 403e e15d e1bd 80d7 343e 2187 4abc
000002c0: 3840 5d3e 47a8 2bbc e838 0b3b d262 9a3c
000002d0: 6e99 59be d0b0 023e 76a0 54bc df24 9fbd
000002e0: 5cdc 113e 5789 8cbd 994a 38be 126f f73c
000002f0: a2ac c53d 4ee2 e4bd f780 3fba 962c a63c
00000300: 8bf0 153e f910 b0bc 4230 a7bd 6f77 b83b
00000310: 5511 9a3d c214 5e3e 450c cdbd 8c82 9bbe
00000320: bbb5 4b3e ad98 c7bd 8b18 19bc ebe0 febd
00000330: 78c0 293e ba75 f1bd 019a 5d3e 3b81 8abd
00000340: f5e9 0abe fd9e b7bd 5c5e b03d de55 1cbe
00000350: ce03 8e3e 765c 4d3d 0749 bc3d 7f6c c33c
00000360: d01b fe3d f057 843d 98af 51be d244 633e
00000370: 65c1 b53d 4849 7f3b 99ce ac3d 2085 0d3e
00000380: 1438 143e 5307 d93d f78d 123e c6d7 963d
00000390: ce42 49be 7642 3e3e 6d3b 3bbd 5f32 2e3e
000003a0: f88b 303e d62f d03d 31f1 ce3d 4f15 903d
000003b0: 125d 133e 77a7 f8bd 9e62 383e a7f4 35be
000003c0: bf9e dfbd 2a5a d3be 7683 eabd 8b8a a0bd
000003d0: 4fe7 b23d 140a 233e f9a4 2d3e a195 50bd
000003e0: d7d1 f1bd 604a cdbd b606 61be e04b 86bd
000003f0: c908 333e e354 f23d 857c 60bd b80f 883c
0.007874884 -0.1485573 -0.22195548 0.058908325 0.16049597 -0.22552717 -0.042805534 -0.079644546
-0.0109269675 -0.1308168 0.07649122 -0.12833765 0.15798113 -0.05798108 0.16856667 0.044898644
0.08794515 0.25710773 0.15601346 0.12638955 -0.18557954 0.13544814 -0.15345444 0.026967717
-0.13047904 -0.011660579 -0.20595665 0.2190063 -0.08674367 -0.12235607 0.13524519 0.0445343
0.044566393 0.1110427 -0.13803303 0.17509368 -0.11716533 -0.105974965 0.0022517585 -0.1632775
0.014109057 0.011978345 -0.11899368 0.07625962 -0.1377903 0.1240238 0.028318256 0.075341955
0.08920437 0.13437279 -0.16520393 -0.09785919 0.040811803 0.15723991 -0.09442679 -0.027924351
-0.109474964 0.09433139 -0.08567607 -0.024505336 -0.0071895146 -0.13663822 0.13079718 -0.00043466044
0.030335026 0.17047188 0.058928035 -0.09222984 0.06247126 -0.059611004 -0.0007988092 -0.07182866
0.056837343 0.038180344 0.10729888 -0.15682179 0.12940222 0.07775546 -0.13188219 0.032169763
-0.085171066 -0.052208226 0.13376975 -0.1719266 -0.092932895 0.1359225 0.03417262 0.1352054
0.029478075 -0.14763436 0.053617954 -0.06123794 -0.094253205 0.052249152 0.07278948 0.007499378
0.020989299 0.101428725 0.13727173 -0.10767658 0.103107 -0.06948129 -0.021641247 -0.13029987
-0.06900484 -0.14506456 0.015553177 0.013993133 -0.016085723 0.12387955 0.019955732 -0.09013639
0.046715375 -0.1641385 -0.050307952 0.09967641 -0.027291348 0.035676505 -0.084676474 0.09282523
0.044041432 0.05048954 0.14196485 -0.10972508 0.12566727 -0.09262796 0.16428684 -0.07701591
0.04105358 -0.106577285 0.10525233 0.0750444 -0.037237983 -0.098455735 -0.1404478 0.13259171
-0.10323546 -0.057718802 0.030460432 -0.13617076 -0.044642698 -0.10483561 0.036029402 -0.061896417
-0.12990329 0.009560844 -0.02204141 0.1084952 0.16684978 0.17507954 0.013294949 0.1256486
0.002316728 0.06283031 -0.0879547 0.040129825 0.099994026 -0.041218627 -0.12342106 0.06177219
0.09737723 -0.12136777 -0.26706892 -0.09176426 -0.086648285 0.05142842 0.19832028 -0.38103384
0.012909363 -0.22483261 0.10538613 -0.15143038 0.18769868 -0.11004234 0.17660332 -0.012361319
0.21606529 -0.010477132 0.0021243636 0.01884595 -0.21249935 0.12762761 -0.01297771 -0.077707045
0.14244217 -0.06862133 -0.17997207 0.03020433 0.09652068 -0.11175977 -0.0007305289 0.020284932
0.14642541 -0.021492468 -0.08163501 0.005629472 0.07522837 0.21687606 -0.10012106 -0.30373037
0.19893543 -0.097459175 -0.00934423 -0.124452434 0.16577327 -0.11790033 0.21640779 -0.0676293
-0.1356581 -0.089658715 0.086117476 -0.1526713 0.27737278 0.050137006 0.09193616 0.023855446
0.124076486 0.06462085 -0.2047714 0.22194222 0.08874778 0.003895359 0.08437843 0.13820314
0.14474517 0.105971 0.14311968 0.07365374 -0.1965439 0.1858004 -0.04571097 0.17011403
0.17240894 0.10165374 0.10104597 0.07035314 0.14390972 -0.121413164 0.1800637 -0.17769109
-0.1091895 -0.41279727 -0.114508554 -0.07838925 0.08735525 0.15921813 0.16957463 -0.050923947
-0.11807602 -0.100239515 -0.21975216 -0.06557441 0.1748382 0.11832597 -0.05480625 0.016609058

gcn2.nn.2.bias f4 [32]
00000000: 965f fb3c 6c88 01be 74a2 cfbc bc28 31be
00000010: 90b7 02bd 8dae 473c 6be1 153e 2084 e33d
00000020: 910b 9ebd 1a77 d03d b152 0e3e 515e e73d
00000030: 0abf b5bd 4fbb 103e 01d1 d63d 2e9e ae3c
00000040: fa04 e43d 7fa9 11be 50ab cbbd 4723 6ebc
00000050: b39e 05be ce05 383e 6255 20bd 82df 033e
00000060: 68ed 743d 9a21 7c3d 06bb c9bd 8cf6 28bd
00000070: e115 aebd 8129 f03b d8fd a9bc 7499 cc3d
0.030685227 -0.12649697 -0.025346018 -0.17300695 -0.03191334 0.012187612 0.14636771 0.11109185
-0.0771705 0.10178967 0.13898732 0.11297286 -0.088743284 0.14133953 0.10489083 0.02131566
0.11133762 -0.14224814 -0.09944785 -0.014534778 -0.1304882 0.17970964 -0.039143927 0.1287823
0.05979672 0.061555482 -0.09850125 -0.04125075 -0.08500267 0.0073291664 -0.020750925 0.09990206

gcn2.nn.4.weight f4 [3, 32]
00000000: 2c69 4f3c e34d 28be ffdc 343c 1c8a 3dbc
00000010: 00aa 90bd 050c 123e 33f3 eb3d 47a9 183e
00000020: 86ef fdbd a0a2 3d3d ac22 103e da15 44be
00000030: 22ca 93bd 3087 e5be 7842 a2be 1e78 cbbb
00000040: 57e0 c8ba a7bd 99bd 1dd5 32be 46c6 8d3d
00000050: 412a abbd f1ab 47be c5f8 e5bd 6708 3d3e
00000060: 45b6 53be 4a4b c33d 6416 16be d358 73be
00000070: db25 2b3e f4f1 0bbd ff64 46be 822d 96bd
00000080: 3000 bdbd 09f6 0fbe 0918 8e3d e69d 21bd
00000090: e708 6cbd a3c9 38be 3f12 7dbb 1969 203e
000000a0: f75c 2a3e 7e1f 753e ab56 28be 9ef6 aebd
000000b0: fdb9 79bd dbfd fb3d e07b 9a3d 1bd4 01be
000000c0: 1c69 313e 7c1f 57bd d693 fbbd 6813 7ebe
000000d0: 4563 723e 6758 6fbd efe4 873d a5ce 7ebd
000000e0: 07a4 943d 0f9f 54be 1b8d e2bd 8e77 0bbe
000000f0: 15df 8a3d e15d c03d c4a1 ed3d 0a66 243e
00000100: fb24 8fbd 028b 943d a085 fe3d 56d2 34be
00000110: e488 32be aa8e 0bbd 77a6 383c b724 e83d
00000120: 95a7 3fbe b5ce 973c 20af 463e 3fb4 eb3d
00000130: a7a9 c13d 0f66 643e 78e5 d2bd 5dbd 07bd
00000140: ad4a b0bd d7e9 89bb e008 1ebe fc72 86bd
00000150: b188 003e 77e0 58bd adc3 f3bc 46e4 473d
00000160: 5836 df3d 3333 383e f452 b93d b8b4 5a3d
00000170: bf17 373d 6672 1e3e 1370 2c3d 370f bd3d
0.012659352 -0.16435961 0.011039018 -0.011568572 -0.07063675 0.14262398 0.11520996 0.14908324
-0.12399201 0.04629767 0.14075726 -0.1914896 -0.07216288 -0.44829702 -0.31691337 -0.0062093874
-0.0015325648 -0.075068764 -0.17464109 0.06922583 -0.08357669 -0.19499184 -0.1122909 0.18460236
-0.20674999 0.095358446 -0.14656979 -0.23764353 0.1671366 -0.03416629 -0.19374464 -0.07332899
-0.092285514 -0.14058699 0.06938178 -0.039457224 -0.057625677 -0.18045668 -0.0038615612 0.15665092
0.16637026 0.23937795 -0.16439311 -0.08543132 -0.060968388 0.123042785 0.075431585 -0.12678568
0.17325252 -0.05252026 -0.12284057 -0.2481209 0.23670681 -0.058433916 0.066354625 -0.06220879
0.07257848 -0.20763801 -0.1106207 -0.13619825 0.06780831 0.09392906 0.1160312 0.1605455
-0.06989475 0.07253076 0.12427831 -0.17658362 -0.17435032 -0.034071602 0.011270157 0.11335128
-0.18716271 0.018531183 0.19402742 0.115089886 0.09456187 0.22304557 -0.10297674 -0.033139575
-0.08607993 -0.004208784 -0.15433073 -0.065649 0.12552144 -0.05294844 -0.029756391 0.048801683
0.10899037 0.17988281 0.09049025 0.053395003 0.04470038 0.15473327 0.04209907 0.092314176

gcn2.nn.4.bias f4 [3]
00000000: d73e 8a3c 6678 013e 7979 04bd
0.016875667 0.12643585 -0.032342408
