refinement/models/NodeFCN_refinement.pt (torch, 12239 bytes, 8 tensors)

gcn.nn.0.weight f4 [32, 6]
000000 2b dd 18 be bb 85 70 3e e4 ca 3d bf da e6 d6 3d
       -0.14928119 0.23488514 -0.7413771 0.1049325
000010 eb 5b 00 be c8 fe ad be f1 2f 77 3e 19 fe 9e bd
       -0.12535064 -0.33983445 0.24139382 -0.07763309
000020 40 3d 99 bf 63 5e 42 3e cb 2d 92 3e f8 ed 0e bd
       -1.1971817 0.18981318 0.28550562 -0.034894913
000030 6c 86 51 be 5e 5a aa 3d bd 12 85 3f da ac d8 bd
       -0.20461434 0.083180174 1.0396343 -0.10579844
000040 9d e1 92 be 3d c2 76 be fc cf 07 3e c9 e3 ec be
       -0.28687754 -0.24097534 0.13262933 -0.46267536
000050 28 9a da 3e 28 e7 72 bd 29 e6 fc bd 98 d5 e3 3d
       0.42695737 -0.05930248 -0.12348587 0.11124724
000060 c1 3f 8b 3e f8 93 04 bf 1b ac 42 3f 2c f1 d2 3d
       0.27197078 -0.5178828 0.7604386 0.10299906
000070 69 c0 4a 3e 9f 78 18 3e 58 f5 9b be 6b a7 9b be
       0.19799961 0.14889763 -0.3046062 -0.30401167
000080 f3 d5 fe 3e 4c da 04 3d 5c 20 5d 3e a0 d2 a6 3d
       0.49772605 0.032434747 0.21594375 0.08145642
000090 37 91 b8 be 7b 96 93 bd 6c af 30 bf 07 86 07 3e
       -0.3604829 -0.07206436 -0.6901767 0.13234721
0000a0 16 8f 82 be 39 ce 07 3d 2e 22 f5 3e 53 61 11 be
       -0.2549979 0.033155654 0.4787764 -0.14197282
0000b0 26 0e 4e bf eb f1 50 bd 52 a3 ba 3e cd 5e c2 3e
       -0.8049034 -0.05101196 0.3645273 0.37962952
0000c0 69 0f 2a 3f 4a b8 b6 3e a1 98 45 3f ab 8e 91 3e
       0.66429764 0.35687476 0.7718602 0.2842916
0000d0 ca fb 8a be 4d a6 ba be 64 9f 6c 3e 30 51 48 3e
       -0.27145225 -0.36455002 0.23107678 0.1956222
0000e0 97 2b 8b 3e 06 34 0a 3d b2 e6 78 3e 2b 5c a2 be
       0.27181694 0.03374102 0.24306753 -0.31710944
0000f0 53 1d ef be f7 23 82 3e dd bd fe be 46 cc 8d 3e
       -0.4670206 0.25418064 -0.4975423 0.2769491
000100 b3 54 af be 2c a5 0e be aa 87 85 be 9a 3c c3 be
       -0.34244308 -0.13930196 -0.26080066 -0.38132173
000110 db 3e 72 be 76 79 b1 be 95 70 a8 be a5 0d 2f be
       -0.2365679 -0.3466298 -0.32898393 -0.17095049
000120 e1 15 e9 bc ec a4 3a bd e5 ca 0b 3e d7 90 52 3e
       -0.028452815 -0.045567438 0.13651617 0.20563065
000130 f2 c1 68 3e 25 ce 9a 3e 22 ec c4 be 92 d9 1b 3f
       0.22730234 0.302354 -0.38461405 0.6087886
000140 33 c1 dd be 8d 46 76 3d 2b 00 b1 bd da a9 a6 bd
       -0.43311462 0.060125876 -0.0864261 -0.08137865
000150 d4 9f cc 3e 15 a2 5f be 96 10 23 ba ec 76 34 be
       0.3996569 -0.21839173 -0.0006220428 -0.1762349
000160 31 6e 3e be e9 76 c2 3e 53 8c 86 3c 23 6e d6 be
       -0.18596722 0.37981346 0.016424334 -0.41880903
000170 10 59 14 be ea 00 6a be fe 46 8a be 29 be 2b 3e
       -0.144871 -0.22851911 -0.27007288 0.16771759
000180 3b 05 a9 bd 15 d1 0d bf 24 d5 0d be 20 f4 bb 3e
       -0.08252951 -0.5539716 -0.13850838 0.3670969
000190 f8 62 4b 3e 9a cd 98 be 4d dd 4b bd 4f 78 1e be
       0.19861972 -0.29844362 -0.049771596 -0.15475582
0001a0 f3 13 3b 3f fd e1 ba 3e e1 8f ae bd 05 b5 b2 3e
       0.73077315 0.3650054 -0.085235365 0.34903732
0001b0 0b 9e 12 3f 57 55 09 be 96 e2 df be 6d 55 c9 be
       0.57272404 -0.13411461 -0.4372756 -0.39322987
0001c0 13 72 a4 be 2b 19 c5 3d e6 9d 82 3c 33 cf af bd
       -0.32118282 0.09623941 0.015944432 -0.08584442
0001d0 03 1a 11 bf 43 45 8e 3c 4a f6 60 be 5f 9e 5c 3e
       -0.56680316 0.017367011 -0.21968952 0.21544789
0001e0 e2 a5 64 be 3d 30 00 bf 85 62 57 be 00 47 a7 bd
       -0.22328904 -0.50073606 -0.21033676 -0.08167839
0001f0 7b cb 0f 3e 66 b8 57 3e 17 8e 15 3f d1 57 28 3f
       0.14042465 0.21066436 0.58419937 0.65759
000200 eb 87 9c bf 3f f2 9a 3e a7 4d 34 be a4 4f f4 39
       -1.2228979 0.30262944 -0.17607747 0.00046598644
000210 c0 05 ac be e2 1c 82 3e 06 0d 46 bd c9 02 90 3d
       -0.33598137 0.2541266 -0.048352264 0.07031781
000220 0c f8 2e be b2 6f a9 be 9f d8 8e bd 08 3c 85 bd
       -0.1708681 -0.3309303 -0.06974911 -0.06505591
000230 f3 4e af bf 59 5b 08 3e 05 82 4b 3e bf fd c4 be
       -1.3695968 0.13316096 0.19873817 -0.38474843
000240 93 a9 b5 be 05 78 06 bf fd 98 21 3f 78 8a 6e be
       -0.35480937 -0.52526885 0.63124067 -0.23295009
000250 08 5a c9 be f4 42 52 3e a2 10 ea 3c 0f ee e4 be
       -0.393265 0.20533353 0.028572384 -0.44712874
000260 1a 1e 4e 3f dd 63 86 be 37 9d 84 3e cd dc c5 3e
       0.8051468 -0.26248065 0.25901195 0.3864502
000270 af 4e 2e be d6 65 90 bd 47 6c 34 3f dc cc 58 be
       -0.17022203 -0.07050674 0.7047772 -0.21171898
000280 c0 40 cb be 65 ef 46 bd a1 5c e9 be 8c df 12 be
       -0.39697838 -0.04856815 -0.45578483 -0.14343089
000290 ae 11 e2 3d 4e 7b cf 3e f4 34 0b be 1c 3e 23 3e
       0.110385284 0.40523762 -0.13594419 0.15941662
0002a0 82 8f 63 be e1 b7 08 bf 39 17 47 be 90 40 cd 3e
       -0.22222713 -0.53405577 -0.19442452 0.4008832
0002b0 26 f2 b6 3e 9e 3b 84 be 03 23 0f bd ed 94 3b bd
       0.3573162 -0.25826734 -0.0349455 -0.045796324
0002c0 77 c5 66 3f 80 03 2c be 8e 9d 13 be d8 63 6d bb
       0.9014506 -0.1679821 -0.14415571 -0.0036222842
0002d0 e7 6f b4 be 45 28 a0 3e fe de e8 3d 67 f1 37 3c
       -0.35241625 0.31280723 0.113706574 0.011226988
0002e0 76 7e ae be df 16 c3 3e 65 0b b7 3d 39 63 e9 3d
       -0.34080857 0.38103387 0.0893772 0.11395878
0002f0 19 13 51 3f 4a 48 b1 3e 07 37 df 3c 78 4f 44 3e
       0.81669766 0.34625465 0.027247919 0.1917094

gcn.nn.0.bias f4 [32]
000000 49 a7 f8 3d c4 9e e4 3c fe e4 38 bd eb c2 7f be
       0.12141282 0.027907737 -0.04514026 -0.24976699
000010 94 36 e6 3c 42 0a 80 3c 82 81 39 3d ea a6 84 3d
       0.028102197 0.015629891 0.045289524 0.06477149
000020 c7 61 0b 3e 42 28 a8 3e eb fa a8 3e 0c 40 7c 3e
       0.13611518 0.32843214 0.33003935 0.24633807
000030 d0 99 b0 be 76 a5 4c bc 89 bb c8 bd 04 e9 92 3e
       -0.3449235 -0.012490621 -0.098013945 0.28693402
000040 e9 2c 5f 3d 02 e8 7b bd 8b 1a b4 3e ed e2 f5 bb
       0.05448619 -0.061500557 0.351765 -0.0075038583
000050 4a d4 fd 3c af f4 2f 3e 7d 29 92 be 00 49 58 3d
       0.030985016 0.17183183 -0.28547278 0.052803993
000060 ad ee 7b bd 5f 01 9f 3e a0 e8 5c 3e 07 30 b7 3e
       -0.061506916 0.31055734 0.21573114 0.3577883
000070 2a 56 36 be d5 8c 64 3e 7a ee 63 3e 90 f9 13 bd
       -0.17806306 0.22319348 0.2225894 -0.036126673

gcn.nn.2.weight f4 [32, 32]
000000 02 c9 8b bc 72 69 25 bd 09 e5 d0 3d 91 dc 9f bd
       -0.017063621 -0.040383764 0.10199935 -0.078057416
000010 b9 7c 8c bd 7f 4f f5 bd 08 d8 03 bb ab d8 fb 3c
       -0.068597265 -0.11978053 -0.0020117778 0.030742964
000020 9e 2e ed 3c a8 38 54 3d 46 37 b9 bd 80 be 52 bd
       0.028952893 0.051811844 -0.09043746 -0.051451206
000030 ae 8b c1 bb 8a 2e 20 bc 79 e0 2b 3e 8e 79 9f 3c
       -0.0059065437 -0.009776721 0.16784848 0.019467141
000040 7e db c5 3d 15 3a b8 bd 6d 11 12 bd d3 47 c1 3e
       0.096610054 -0.08995453 -0.03566115 0.3775011
000050 60 63 f0 bd 6a 0c de 3c 40 35 a7 bd 67 93 f1 bd
       -0.11737704 0.027105529 -0.081644535 -0.11795693
000060 24 4b df bd 4e 6b 1a 3d 5e 3a 85 3d f6 8c 0e 3e
       -0.10903004 0.03769999 0.06505273 0.1392096
000070 36 ce 65 bd 8a 6b 89 3d 0e 45 04 be 7c 79 28 be
       -0.05610486 0.067099646 -0.12916967 -0.16452593
000080 b0 8d 55 bd de 3d 14 bf f5 d2 17 3e 01 7a 15 be
       -0.052137077 -0.579069 0.14826567 -0.14597322
000090 66 b4 a8 bd 09 da 51 be d1 82 03 bd da 8f 23 3d
       -0.08237533 -0.2049333 -0.032107178 0.03993211
0000a0 6f 75 2e be 41 95 90 3d e6 61 90 bd 80 10 a9 3d
       -0.17036985 0.07059718 -0.07049923 0.082551
0000b0 c5 52 09 3e cf a3 95 3d 91 82 d1 bd 6d 57 ec bd
       0.1341048 0.07306635 -0.10229982 -0.11540113
0000c0 06 83 32 bd c9 37 95 be 83 d1 70 3d b5 6a 8c bd
       -0.043581985 -0.29144123 0.058793556 -0.0685629
0000d0 62 5d 34 be 92 df d2 bd f2 41 73 bd 3c 9a 83 be
       -0.17613748 -0.10296549 -0.059389062 -0.2570361
0000e0 af c9 ac bd f0 44 9f 3c a4 18 f5 bd 7e d6 24 3e
       -0.084369056 0.019442052 -0.119675905 0.16097447
0000f0 06 66 50 bd b4 d7 87 bd 64 28 3f 3d 95 03 ee be
       -0.050878547 -0.06632939 0.04666938 -0.46487108
000100 2c d5 29 be 81 07 3a be 52 b1 bd bc 57 3b fc 3b
       -0.16585225 -0.18166925 -0.023155842 0.0076975035
000110 2f c6 a6 3d d8 50 90 3d 47 d9 22 3d 6d f8 ce bd
       0.08143269 0.0704667 0.039757993 -0.10105977
000120 cc eb 2e 3e 8b 76 a8 bd e3 dc 22 be 86 62 ea 3c
       0.17082137 -0.08225735 -0.15904574 0.028611433
000130 76 a0 71 3d a6 49 57 be 1f 77 c3 3c 92 d2 cc bd
       0.058990918 -0.21024188 0.023860512 -0.100011006
000140 a8 09 56 3d 74 e4 79 be 99 26 14 be e5 83 9f 3e
       0.052255303 -0.24403554 -0.14467849 0.31155315
000150 04 dd ae bd 40 a1 66 be ea 62 48 be 45 6b 30 bf
       -0.08538249 -0.2252245 -0.19568983 -0.6891368
000160 87 4a 80 3d 95 7e 69 3e ff 5d ac bc 24 61 8c bd
       0.06264215 0.22802193 -0.021040915 -0.068544656
000170 f8 24 7b bd 75 24 51 3e 78 5c e5 3d 22 48 64 be
       -0.061314553 0.20424064 0.11199278 -0.22293141
000180 e5 aa 76 3e 6b c1 ce 3e 10 09 51 3e 32 f6 b9 be
       0.24088629 0.4038194 0.20413613 -0.36320645
000190 34 66 36 bc eb 83 fc bd 4b be 17 bd d1 59 74 3d
       -0.011132766 -0.12329849 -0.037046712 0.059655968
0001a0 7b 22 e4 3d cb 9e 29 bd 93 3b d9 3d ee 9a aa 3d
       0.11139389 -0.041411202 0.10607066 0.08330332
0001b0 5c 8c 68 bd 04 ca 1d 3e b9 6c 1c bd b6 a4 34 be
       -0.056774482 0.15409094 -0.038189624 -0.17640957
0001c0 79 58 38 3e b7 52 38 3e 41 31 03 bd 1b 34 19 3d
       0.180025 0.18000303 -0.032029394 0.037403207
0001d0 44 d7 bc 3d 7a 30 39 3e be e9 3a 3e e0 ea dd 3e
       0.09220746 0.18084899 0.18253228 0.43343258
0001e0 98 43 84 3e d4 2a 05 be 4a b3 d0 bd b1 92 c2 3d
       0.2583282 -0.13004619 -0.10190447 0.095006354
0001f0 4d 96 42 be 06 d8 1a be c1 14 6c 3d 0e 1b 46 3e
       -0.19002648 -0.15121469 0.05763698 0.19346258
000200 b4 27 38 3d 8c 80 9f 3e ec b8 c0 be b6 2c 39 3e
       0.04495974 0.3115276 -0.37641084 0.18083462
000210 47 8d 39 be de d0 d8 3d ff 17 00 3e 51 d3 39 bd
       -0.181203 0.10586713 0.12509154 -0.045367543
000220 80 c0 16 be 2a a3 b7 3d 5e 42 1b be af fe 35 bd
       -0.1472187 0.08966668 -0.15162036 -0.04443234
000230 41 0a 0b bd d3 d6 fa 3b fc 2d e1 3c d6 01 21 3e
       -0.033945326 0.0076550036 0.027487747 0.15723357
000240 e8 b4 ae 3d 07 59 a9 bd 33 32 2c bd ce 67 38 be
       0.08530599 -0.08268934 -0.04204006 -0.18008348
000250 cb 62 85 3e c0 dc ce 3a 58 83 5c 3e c2 0e 38 3e
       0.26051936 0.0015782341 0.21534479 0.1797438
000260 91 ee 07 bd 9e 78 a2 bd 24 16 91 3d 93 09 05 3e
       -0.0331865 -0.07933162 0.07084301 0.12991934
000270 b3 6a 61 3d a0 43 c2 3d 29 a3 14 3d 52 2b e3 3e
       0.055033397 0.09485555 0.036288414 0.44368988
000280 c0 31 aa bc 19 8f 21 be 8c 47 8d 3e c7 bc c5 3d
       -0.020775676 -0.15777244 0.27593648 0.09655147
000290 c8 34 7a 3e 79 df e3 bd 16 81 a0 be e3 cf fe bc
       0.24434197 -0.111266084 -0.31348485 -0.031104987
0002a0 64 cf 27 bc cf 43 31 3e f1 75 14 be dd ec d7 3d
       -0.010242317 0.17311023 -0.14498116 0.10543225
0002b0 66 21 76 3c d4 3d ab be 64 79 9d bd 3f 0b 17 be
       0.015022611 -0.3344561 -0.07689169 -0.14750384
0002c0 17 44 5c bd 8e 21 ed 3d 54 3b 1c bd 9b cc 80 bb
       -0.053775873 0.11578666 -0.038142517 -0.003930641
0002d0 89 9d 46 bc 75 21 53 bd f8 a7 28 3e da 6e 84 bf
       -0.01212252 -0.05154558 0.16470325 -1.0346329
0002e0 81 a0 91 be 4e 8b 21 bc a2 52 f9 3d ce 1b cd bd
       -0.28442767 -0.009859873 0.12173964 -0.10015069
0002f0 80 26 b6 bd 18 66 16 3d 0f 34 91 bd 81 6a ac be
       -0.08894062 0.036718458 -0.070900075 -0.33675006
000300 ec 21 45 be 6c 03 f3 3c a6 cc 36 3e a5 fd 09 3e
       -0.19251221 0.029664718 0.17851505 0.13475664
000310 b6 7c 9d 3d 2a 49 0c be 7f 68 c5 3c 38 0a 65 3a
       0.07689802 -0.13699785 0.02409768 0.00087371795
000320 d2 62 b5 3c 5b bf 1c 3e fd 2f de bd 60 cc 07 3d
       0.022141848 0.15307371 -0.10848997 0.03315389
000330 51 5b e7 bd f0 8c ba 3d 8c 39 13 3d 4d 01 96 3d
       -0.11296714 0.09108913 0.035943553 0.07324467
000340 0a a9 9d bd 3f 48 a9 3b df 99 ad 3d 54 30 71 3c
       -0.07698257 0.005166083 0.08476614 0.014720995
000350 92 fc f7 3d e1 60 0c be fe 51 b0 3d 79 4a 98 3e
       0.12108721 -0.13708831 0.08609389 0.29744318
000360 78 ec 34 3e 76 3c cd 3d 59 35 1c 3e 02 0a 35 be
       0.1766833 0.10021298 0.15254726 -0.17679599
000370 ec ff ad bd c6 50 e5 3d 18 5e 9f 3d 1d ff 67 3e
       -0.08496079 0.11197047 0.07781619 0.22655912
000380 cc 7c e0 3c c6 66 a1 be a5 85 03 be 9a ff d0 3d
       0.027403258 -0.31523722 -0.1284395 0.10205002
000390 22 2f 99 3d f1 8f a0 3c ea 48 ed 3d c7 c8 0b be
       0.07479693 0.019599887 0.11586173 -0.13650809
0003a0 b8 25 da bc 3e 00 77 be 79 ab f4 bc 9a 0b ad 3d
       -0.026629314 -0.24121186 -0.02986692 0.084494784
0003b0 69 09 ec 3c c6 e5 73 be e2 2f 3e 3e 30 b9 6f 3d
       0.02881308 -0.2381812 0.18572953 0.058526218
0003c0 a4 7b 51 3e 1b 21 ba 3d e4 31 d7 bd 06 0e 1e 3d
       0.20457321 0.090883456 -0.10507563 0.038587593
0003d0 77 6d 3a bd c9 9b 80 bd 60 62 a2 be e1 c7 72 bd
       -0.04551455 -0.06279714 -0.3171568 -0.05927265
0003e0 f6 7b d0 3d c4 f1 50 3d 98 33 11 3e f6 05 b4 bd
       0.10179894 0.051011816 0.14179838 -0.087901995
0003f0 2b 6b 32 3d 92 7a 7e bd c2 cc 21 bd e1 fe 78 bd
       0.043559235 -0.06212861 -0.039501913 -0.060789946

gcn.nn.2.bias f4 [32]
000000 b1 5e 02 3e 60 29 84 3d 71 23 d8 3c aa 79 9b bb
       0.12731434 0.06453204 0.026384087 -0.004744728
000010 11 b8 fa bc 01 12 a4 3d 1a 59 d9 bd c6 52 22 be
       -0.030605348 0.080112465 -0.10612698 -0.15851888
000020 d0 5f e9 bc 36 f3 7d 3d 50 45 a0 bd 73 40 15 be
       -0.02848807 0.061999522 -0.0782572 -0.14575367
000030 c4 31 40 bd 29 65 fd 3d c7 32 af bd 84 32 2a 3d
       -0.04692246 0.123728104 -0.08554607 0.04155208
000040 3e 81 15 3e c0 96 1d 3d 80 40 14 3e 3f 66 81 bd
       0.14600083 0.038473845 0.1447773 -0.0631833
000050 47 6a 9b 3d 14 ea 5c 3d 61 6f 16 3e d2 b1 20 3e
       0.0758863 0.05393417 0.14690925 0.15692833
000060 5b 48 3d 3d 52 ba bb 3d 1c c5 1c bc 05 30 14 3e
       0.04621158 0.09166397 -0.009568479 0.14471443
000070 5d f3 f6 3d 88 37 99 3d 58 d2 dc 3d 9c db 94 bd
       0.120581366 0.07481295 0.107823074 -0.0726845

gcn.nn.4.weight f4 [32, 32]
000000 6f 2d 24 3e a7 cd a1 3d 17 9c 05 be db 2f 1d be
       0.16032957 0.07900553 -0.13047825 -0.15350287
000010 f9 f4 2d be 47 ef 0e be 1e d1 04 3e 39 7f af bc
       -0.16987981 -0.13958465 0.12970397 -0.02142297
000020 1b 7b 1b 3e 5c 57 0d bd 19 e9 68 bd f1 7a c3 3d
       0.1518368 -0.03450714 -0.056862924 0.095449336
000030 fa 7d 34 be c7 c0 16 be da 7a 15 3d 35 e8 fa bd
       -0.17626181 -0.14721976 0.036494114 -0.12251321
000040 2b 02 da 3b 95 84 a8 3d 57 18 b7 3c 11 2b c8 bd
       0.0066530905 0.08228413 0.022350473 -0.09773839
000050 f1 ac 33 bb 76 1b f7 3d 9d 9e 20 3b e3 62 28 be
       -0.0027416314 0.12065785 0.0024508603 -0.16443972
000060 ee c9 0c 3e 9d 34 a4 bb 01 ca 80 bc 88 40 bc 3d
       0.13748905 -0.005011155 -0.015721323 0.09191996
000070 2f 11 19 3e a4 96 b4 ba 8f 2e ce 3d 0f ef 2c be
       0.14947961 -0.0013777805 0.10067474 -0.16888069
000080 ef e7 06 be e0 15 15 be 60 19 d9 3e 91 e4 2a be
       -0.13174413 -0.14559126 0.42402172 -0.16688754
000090 eb 84 06 3e 7b ee ac 3d 4b 9a 84 bd 08 c5 17 bd
       0.13136642 0.08443924 -0.064747415 -0.037053138
0000a0 2e 2f b3 3c 46 f4 64 3c f1 b8 b8 bc 54 95 8e bd
       0.021873083 0.013974255 -0.022549124 -0.06962076
0000b0 05 df 2e bd 55 e0 70 3d 14 39 5c be a9 c1 b0 bc
       -0.042693157 0.05880769 -0.21506149 -0.02157672
0000c0 ce 87 a0 bd 6d f9 20 bd 53 d4 cd 3d f0 61 54 be
       -0.07838403 -0.03930037 0.10050263 -0.20740485
0000d0 74 61 5c 3e 7a c0 17 3c 14 91 cb 3d 0e 2b 40 bd
       0.2152155 0.009262199 0.09939781 -0.04691606
0000e0 1f 42 df bd f9 73 69 3e 9a 89 2d 3e 05 65 b8 bd
       -0.109012835 0.22798146 0.16947022 -0.09003643
0000f0 d6 e3 48 3e 3c f3 23 3e 9b 21 82 3e bf 1a 8d 3d
       0.19618163 0.16010755 0.25416264 0.06889867
000100 5f 9e a4 3d 55 85 5e 3e 94 76 a0 3e 5d 9f 37 be
       0.080380194 0.2173055 0.31340468 -0.17931886
000110 5b b7 33 be 69 f5 b2 3e ef 2d 9c 3c 38 12 b2 bd
       -0.17550413 0.34952858 0.019064872 -0.08694881
000120 40 37 1b 3e 63 a4 28 3e d4 c9 4c 3d b1 ca ab 3d
       0.15157795 0.16468959 0.049997166 0.0838827
000130 8f 9c 32 be e9 6e 5c 3e 1c 40 63 be a6 62 1c 3e
       -0.17442535 0.21526684 -0.22192425 0.15272006
000140 0e e4 83 bc fc 3e 07 bd c4 cc b7 3d 89 52 c5 3d
       -0.016099956 -0.03301905 0.08974603 0.09634883
000150 db 1d 97 bd 4a ce 8a bd c6 2b 16 3c ac 66 26 3d
       -0.07378741 -0.06777628 0.00916571 0.04062526
000160 ff 25 63 3e 7c ef 73 3d e2 f6 ef 3d c3 82 5c 3d
       0.22182463 0.059554562 0.11717011 0.05383564
000170 49 57 93 3e 72 00 20 3c 73 e1 89 be 21 ea ff 3b
       0.2877753 0.009765731 -0.26929817 0.0078098928
000180 64 c5 26 3d d7 80 54 be 0f 56 2c 3d 68 32 db 3d
       0.04071559 -0.20752273 0.04207426 0.107029736
000190 61 4a cd 3d d6 f3 e4 3d 8a 9c a5 3d 93 2f 1e 3e
       0.10023952 0.111793205 0.08086498 0.15447836
0001a0 b8 b9 fa bd f7 4e 11 be df b6 aa 3d 35 e5 47 bd
       -0.12242454 -0.14190279 0.08335661 -0.048802573
0001b0 fd 27 84 3d 42 3b 70 3d f6 f3 29 be 9c e6 22 3e
       0.0645294 0.058650263 -0.1659697 0.15908283
0001c0 e2 59 88 3d 8e 5a 08 bd a9 8b 22 bd 95 53 e2 bd
       0.06657769 -0.033289485 -0.03968397 -0.11051098
0001d0 06 5f c9 3d 2d 00 5d bd 72 b9 c3 3d a0 39 34 3e
       0.098325774 -0.053955246 0.09556855 0.17600107
0001e0 2e 63 65 3e 69 eb 2d 3e 20 03 18 3e 27 17 e2 bc
       0.22401115 0.16984333 0.14844942 -0.02759893
0001f0 d1 71 08 3e af c3 29 be 11 4f ab 3d 39 3f 80 3d
       0.13324668 -0.16578554 0.0836469 0.06262059
000200 b0 14 2e be 1f 5f 34 be 29 43 64 bd db a4 e5 3b
       -0.17000079 -0.17614411 -0.05572811 0.0070081777
000210 d4 f8 f3 3d df 11 29 3e fa 8a 51 3d 54 65 d2 3d
       0.119126946 0.16510724 0.05115793 0.10273233
000220 04 b8 08 be 1a c1 87 bd 50 bd 26 3d 2f a6 b0 bd
       -0.13351446 -0.06628628 0.040707886 -0.08625447
000230 f6 3f de bc a2 9b 9c bc ad 5e 15 3e 70 ba f9 bd
       -0.027130108 -0.01911718 0.14586897 -0.12193763
000240 a4 9f 28 be 76 8d 9f 3d 13 e4 15 3e e8 9c dd bd
       -0.16467148 0.077906534 0.14637785 -0.10820943
000250 d7 d9 02 be 4b ee 2e 3e 8e f7 33 bd e6 6a 3f 3c
       -0.12778412 0.17083089 -0.04393726 0.011683201
000260 b9 ea fc 3d e4 db 5b 3d d8 d4 f7 3d f7 4e 75 bd
       0.12349457 0.0536765 0.121011436 -0.05988976
000270 45 0c 9f bc 43 56 b4 3b 26 dd d0 bd de 04 c1 bd
       -0.01941503 0.0055034473 -0.10198431 -0.094247565
000280 60 1a 34 bd 65 66 32 be bd 1d e3 3e db 55 5a 3c
       -0.043970466 -0.17421873 0.44358626 0.013326134
000290 45 ca 2e 3e f3 c0 59 be 8d b3 83 bc d4 8e d3 3d
       0.17069347 -0.2126501 -0.016076827 0.10329977
0002a0 73 81 bb 3d 01 41 9a bc c2 0b 64 bd 5c a9 25 be
       0.0915555 -0.018829824 -0.055675276 -0.16177887
0002b0 be 50 08 3e 8d 16 44 3e ed ce 2f be 63 af 8e 3d
       0.1331205 0.19149227 -0.1716878 0.06967046
0002c0 dd 65 91 3e 4d 02 8f 3b 0d 1d f4 3d 2e 39 26 be
       0.28398028 0.004364288 0.119196035 -0.1623275
0002d0 32 aa 0b 3e ab a9 63 3e 0f 18 50 3c c9 8f 09 3e
       0.13639143 0.22232692 0.0127010485 0.13433756
0002e0 8c a8 9e 3c 8d c7 26 bc 88 5e 45 3e 69 08 ef 3d
       0.019367479 -0.010179413 0.19274342 0.11671526
0002f0 83 c4 9a 3d 94 1d 32 3e 64 76 54 3e 3f 18 23 3e
       0.07557013 0.17394096 0.20748287 0.15927218
000300 df e7 2e 3e 8e 07 b7 3d 6d fd 6f bf 39 97 61 3d
       0.1708064 0.08936988 -0.9374607 0.055075858
000310 b5 e5 20 be cf fb 54 3e 48 33 6a be 86 1c ba bd
       -0.15712626 0.20799182 -0.22871125 -0.09087472
000320 5a ca 80 3a 5b d7 2c bd e5 d4 6e bc a1 b9 2f 3e
       0.000982593 -0.042197566 -0.014577125 0.17160656
000330 ff e2 db bd c3 50 e1 bd e4 ac 12 3e 58 3a 4f 3d
       -0.107366554 -0.11001732 0.14323765 0.05059275
000340 a1 e9 65 be ee 37 18 be 08 60 83 bd a5 65 dd bd
       -0.22452404 -0.14865085 -0.06414801 -0.10810403
000350 f6 76 5e bd d5 45 f3 bd 4c c4 91 bd a8 0f f0 3d
       -0.05431267 -0.11878554 -0.07117519 0.11721736
000360 a9 2e 34 3e 87 4d 6f bb 1f 07 db bd 65 b1 ca 3d
       0.17595924 -0.0036514716 -0.106947176 0.098971166
000370 dd f6 38 3c 19 1e 31 bd 15 a9 2a be 5f 01 54 3d
       0.011289326 -0.043241594 -0.16666062 0.05175912
000380 02 05 1a 3c 54 d3 6f bc 9f c2 0d be ca 89 63 3e
       0.009400608 -0.014637787 -0.13843773 0.22220531
000390 c9 bd d4 bc 44 8b 26 3e bf 5e 71 3d 8e cb 0d bd
       -0.025969403 0.16264063 0.058928248 -0.034617953
0003a0 a1 a6 ab 3c 47 cb 27 3e 47 c5 cb 3d 28 98 9a bd
       0.020953478 0.16386138 0.09949737 -0.07548553
0003b0 28 5c 32 bd e5 a8 c8 3d 6c 62 52 3e a9 f9 40 3e
       -0.04354492 0.09797839 0.20545357 0.18845238
0003c0 3b 11 b0 3b 7b 8a 52 3e 61 ad 48 3d be e1 36 3e
       0.005373148 0.20560639 0.048993472 0.17859551
0003d0 ea 7f 99 3d c5 fc 33 3e 7f 16 c1 bc 0f 7d f8 bd
       0.07495101 0.17576893 -0.023570297 -0.12133228
0003e0 d5 d8 8d 3e ff 49 6c 3e 40 9f 96 3e be ad f6 3d
       0.27704492 0.23075102 0.29418373 0.120448574
0003f0 21 3e cc bc 4f 83 57 3c 37 ec a0 be b0 5a 81 3e
       -0.02493197 0.013153865 -0.31430218 0.25264502

gcn.nn.4.bias f4 [32]
000000 31 5b 31 be d9 0c 0b bd fd c6 a8 3d 1f 0e 8c bb
       -0.17319943 -0.0339478 0.08241079 -0.0042741443
000010 e9 07 3b be 64 dd 1b be 03 aa c4 3d 3e c0 c6 3c
       -0.18264736 -0.15221173 0.0960274 0.02426159
000020 97 bf 27 be ae 24 e1 bd 67 2c 06 be 2f d5 a0 3d
       -0.1638168 -0.10993324 -0.13102876 0.078531615
000030 be 31 2c 3d ea ae 9d 3c 0c 66 e2 3d e0 bd 0e be
       0.042039625 0.019248445 0.1105462 -0.13939619
000040 6c b1 05 3e 16 a0 3f 3d b3 c2 b7 bd ba 9d c2 3d
       0.13055962 0.04678353 -0.08972683 0.0950274
000050 36 5f 94 bc b9 1a 60 bc e7 fa 65 3d 00 21 1c 3e
       -0.018111806 -0.013678246 0.056147482 0.15246964
000060 1f 23 0f 3e 5e a9 a9 3d 70 45 16 be e9 0a 33 be
       0.13978241 0.08284257 -0.14674926 -0.1748463
000070 5b b7 ef bd 0e d8 fb bd 69 83 59 bd 42 43 29 bd
       -0.11704894 -0.122970685 -0.053103838 -0.041323908

gcn.nn.6.weight f4 [3, 32]
000000 1b e0 83 bd f0 de 51 3e 38 17 1f 3e d0 0d 1d be
       -0.06439229 0.204952 0.15536201 -0.153373
000010 cc 85 dc bd 7c e9 11 3e 4c b8 6f 3c 34 f9 2e 3d
       -0.10767707 0.14249223 0.014631342 0.042718127
000020 12 c3 7b 3e df c0 2a 3e 67 77 f0 3d 27 62 b2 bc
       0.24586132 0.16675137 0.11741524 -0.021775318
000030 e5 4b ae 3c 02 ae 1a 3e b7 77 7a 3d 17 a7 67 be
       0.021276424 0.15105441 0.061149325 -0.22622333
000040 93 77 97 be d5 e6 74 3e 5e b4 84 be 51 c6 58 3e
       -0.29583415 0.2391618 -0.2591886 0.21169402
000050 1d a5 2a be 9f c3 fa 3e e9 7f bc 3d 8c 53 8e be
       -0.16664548 0.48977372 0.092040844 -0.27798116
000060 fd e6 d4 3d f4 31 5f 3e 0b 84 2c be 61 66 d0 bd
       0.1039562 0.217964 -0.16847245 -0.10175777
000070 1f ad e1 bd 23 00 ba bd c5 5e ea 3d 69 0b 08 bf
       -0.11019348 -0.09082057 0.11443857 -0.5314241
000080 9f bf c7 3c 19 79 93 3e 41 5c c1 bb 94 8e 16 3d
       0.024383364 0.28803328 -0.00590089 0.036757067
000090 0e 95 16 3e 05 aa b1 3e ec 95 aa bd 40 cb 81 bd
       0.14705297 0.34700027 -0.083293766 -0.06337595
0000a0 1a 32 f2 bc 7b 82 31 3d 9c d7 0a 3e c2 29 0b 3e
       -0.029564906 0.043337326 0.13558811 0.13590148
0000b0 52 35 5c be 85 ba 3e bd d0 5d 17 be 98 28 80 be
       -0.21504715 -0.046564598 -0.1478188 -0.2503097
0000c0 b4 14 c1 3e 72 75 f6 3d 51 54 9f 3d 86 e1 d0 3e
       0.37711108 0.1203412 0.07779754 0.4079706
0000d0 75 a4 0b 3e 58 f5 64 3c b2 76 8b 3b 25 4f 54 be
       0.13636954 0.01397451 0.004256093 -0.20733316
0000e0 c4 eb 45 3d 06 fd c5 bd 39 26 9a 3e 88 eb 9c bd
       0.048320547 -0.09667401 0.30107287 -0.076621115
0000f0 af f4 b0 bd 47 1d 85 3e cf 1e 80 be 69 22 02 3c
       -0.0864042 0.259989 -0.25023505 0.007942774
000100 29 e9 30 be 52 eb 35 bd 20 5b 8c bd 5e d3 07 be
       -0.17276444 -0.044413872 -0.06853318 -0.13264224
000110 b2 ce 09 bd ca 4d d4 3d d5 f7 31 3e f5 6b 4f 3c
       -0.033644386 0.103663996 0.17379697 0.012660016
000120 8e 21 01 be fe 38 1f bc aa 27 c6 3b 87 53 0e 3e
       -0.12610456 -0.009718178 0.006047209 0.1389905
000130 8d d7 00 3d a5 45 0e bc 13 e2 3b 3d e3 fc 07 be
       0.031455565 -0.008683597 0.045869898 -0.13280062
000140 35 c5 32 bd 1e ff e1 bc 8e 70 28 bc f1 1d 71 3d
       -0.043645103 -0.02758747 -0.010280741 0.058866445
000150 31 87 29 3e 8b d1 27 bd 1d cb 9d bd 64 70 a0 3c
       0.16555478 -0.04097132 -0.077047564 0.019584842
000160 fd cb 95 bd a2 c4 59 3d 38 03 e5 bd 53 59 cd bb
       -0.07314298 0.05316604 -0.111822546 -0.006266752
000170 30 43 72 bd ef 49 08 3e 6b 7c 13 3d d7 14 a4 3d
       -0.059146106 0.13309453 0.036007326 0.080117874

gcn.nn.6.bias f4 [3]
000000 b5 a3 10 be 8f e2 ba 3d 3f e7 83 3c
       -0.1412495 0.09125244 0.016101478
